models/9/q_final_n450.pt (torch, 131223 bytes, 6 tensors)

model.0.weight f4 [128, 185]
-0.23683824 0.12392459 0.014438866 -0.10068349 -0.49052733 0.17703272 -0.51228404 0.051728897
-0.052876137 -0.14544676 0.23532441 -0.14029582 -0.19832687 -0.37112677 -0.27870867 -0.5446628
-0.1704404 0.3040497 -0.46716708 0.009744327 -0.38198298 -0.13084523 0.34057522 -0.06606888
-0.40130967 -0.062418394 -0.16281508 -0.13877623 0.15154606 -0.44882995 -0.14714685 0.14423831
-0.036263093 -0.28813413 0.09600946 0.16590513 0.027593104 -0.34739098 -0.12915196 0.028680483
0.089404345 -0.4482856 0.11333279 -0.5613427 0.09573904 -0.4677586 -0.1478652 0.22617768
-0.14230219 -0.2839408 -0.6774529 -0.16391629 -0.11651537 -0.02493905 0.16205339 -0.7617213
0.04243263 -0.2589842 -0.14918742 0.24393682 -0.4887327 -0.1375909 -0.17667198 0.007102054
-0.2987811 0.1738005 -0.1616905 -0.091442354 -0.08214115 0.03343525 -0.44071698 -0.20441079
-0.087747954 0.015188081 -0.30620268 -0.24754955 0.081441864 -0.058107197 -0.25035417 0.08256924
-0.49846902 0.018922586 -0.31967685 -0.23386957 0.12343278 0.072414026 -0.30393675 -0.29599392
-0.053384725 -0.02598327 -0.06241513 0.03202203 -0.5840143 0.14478919 -0.2641775 -0.14982224
0.19530539 -0.65184075 -0.046149205 0.057828113 -0.32962617 -0.0975205 0.23946168 -0.54476106
-0.49222735 0.06661695 0.10324763 -0.64258 0.10283898 0.29124722 0.03458094 -0.47984043
-0.10371661 -0.018995525 -0.042311735 -0.24146454 -0.10352092 0.071365505 -0.09627857 -0.18616596
-0.1147153 0.3032951 -0.42552203 -0.32936344 -0.32183373 -1.0403222 -0.28356794 -0.1085212
0.31603026 -0.6534248 0.16374257 -0.6200047 -0.11697023 0.23995857 -0.29463112 0.21761513
0.26043335 -0.43001235 -0.13441782 0.033713546 0.04310167 -0.24537402 -0.33545837 0.31690052
-0.28913575 -0.1854664 0.1330142 -0.018816367 -0.58526963 0.022170328 0.019336019 0.027628712
-0.33559236 0.07706797 -0.055431966 -0.14832306 -0.35360512 -0.19581693 0.22232017 -0.72105706
-0.45920786 -0.38010445 -1.1487912 -0.6119889 -0.19599 0.31766617 -0.24429594 0.24449706
0.22574832 -0.43101546 -0.55851424 -0.43059742 -0.9294078 -0.3728283 0.08548434 0.2032377
-0.14238915 -0.08644723 -0.129078 -0.08239014 -0.1255346 0.09801697 -0.61266834 -0.18505502
-0.06815074 0.32197005 -0.25178006 -0.9686637 -0.6479808 -0.43751168 -0.19928566 0.089537114
-0.65396214 0.05760151 -0.4733412 -0.08216781 -0.17372788 -0.0667103 -0.37749305 -0.026121238
-0.24561368 -0.23657808 0.13562335 -0.17281012 0.10860982 0.16037564 -0.26259667 -0.17544176
-0.3927898 -0.27778 -0.23224396 -0.44839635 -0.035261773 0.20029193 -0.24994504 -0.5026275
-0.20311926 0.400211 -0.1547977 -0.63178945 -0.19919665 0.06596356 0.08457897 -0.36621994
-0.75787884 -0.6007073 -0.58650124 -0.25075424 -0.069381565 -0.08092754 -0.26866537 0.073002785
0.09514595 -0.30629963 -0.05144951 -0.29615566 -0.27919847 -0.095975146 0.010536888 -0.336735
-0.3585575 0.06367704 -0.1971913 -0.48848465 0.172132 -0.36412856 -0.40879637 0.025816802
-0.5647716 -0.63969445 0.21017805 -0.29160738 -0.38849553 -0.14186895 -0.0048984336 0.1220718
00000000: b985 72be 2dcc fd3d fe90 6c3c 2533 cebd
00000010: 6626 fbbe 1148 353e 0c25 03bf aee1 533d
00000020: a694 58bd ffef 14be e2f8 703e b5a9 0fbe
00000030: 3316 4bbe 5404 bebe e7b2 8ebe 056f 0bbf
00000040: ee87 2ebe 67ac 9b3e 8630 efbe aba6 1f3c
00000050: 4693 c3be 4bfc 05be e05f ae3e 1f4f 87bd
00000060: 7678 cdbe 6eaa 7fbd ffb8 26be 5b1b 0ebe
00000070: e42e 1b3e 0acd e5be aaad 16be 35b3 133e
00000080: 9c88 14bd 5186 93be 9ca0 c43d 09e3 293e
00000090: ef0a e23c 3bdd b1be 6940 04be 55f3 ea3c
000000a0: a019 b73d b185 e5be 061b e83d 28b4 0fbf
000000b0: d412 c43d 0e7e efbe fa69 17be 1f9b 673e
000000c0: aab7 11be b060 91be 8e6d 2dbf acd9 27be
000000d0: 9c9f eebd fb4c ccbc 53f1 253e 2b00 43bf
000000e0: d6cd 2d3d 9499 84be 96c4 18be 93ca 793e
000000f0: 2c3b fabe a1e4 0cbe 80e9 34be 59b8 e83b
00000100: d6f9 98be c2f8 313e 3292 25be 2146 bbbd
00000110: 9f39 a8bd 67f3 083d a8a5 e1be 1051 51be
00000120: 33b5 b3bd 6ed7 783c 99c6 9cbe a17d 7dbe
00000130: feca a63d d001 6ebd 6c2e 80be 101a a93d
00000140: 5537 ffbe 8a03 9b3c afac a3be 817b 6fbe
00000150: 53ca fc3d ce4d 943d 999d 9bbe 848c 97be
00000160: f1a9 5abd deda d4bc 02a7 7fbd 8829 033d
00000170: f681 15bf 9e43 143e 4642 87be 006b 19be
00000180: 23fe 473e 09df 26bf f306 3dbd 2cdd 6c3d
00000190: c3c4 a8be d4b8 c7bd 7135 753e 7675 0bbf
000001a0: 3905 fcbe 786e 883d 7e73 d33d 1f80 24bf
000001b0: 3e9d d23d 5b1e 953e bea4 0d3d a5ad f5be
000001c0: 6069 d4bd 819c 9bbc 124f 2dbd 7b42 77be
000001d0: c702 d4bd 1428 923d b32d c5bd 4aa2 3ebe
000001e0: dbef eabd 7f49 9b3e 06de d9be 53a2 a8be
000001f0: 64c7 a4be 4729 85bf d12f 91be 5d40 debd
00000200: b8ce a13e d946 27bf 22ac 273e a1b8 1ebf
00000210: 178e efbd b3b7 753e e4d9 96be 80d6 5e3e
00000220: 8557 853e 942a dcbe d3a4 09be 3717 0a3d
00000230: 608b 303d 5443 7bbe 33c1 abbe c940 a23e
00000240: 9a09 94be e7ea 3dbe e034 083e c824 9abc
00000250: 3bd4 15bf 8c9e b53c 9266 9e3c 9c55 e23c
00000260: c3d2 abbe d0d5 9d3d a10c 63bd 00e2 17be
00000270: bb0b b5be 3c84 48be e6a7 633e 3297 38bf
00000280: 4b1d ebbe 0d9d c2be 970b 93bf 4eab 1cbf
00000290: 9ab1 48be 24a5 a23e b728 7abe 705d 7a3e
000002a0: 912a 673e 0fae dcbe cafa 0ebf 4477 dcbe
000002b0: abed 6dbf 5ae3 bebe 6a12 af3d 8b1d 503e
000002c0: 76ce 11be 3f0b b1bd 062d 04be 29bc a8bd
000002d0: 248c 00be 1fbd c83d d5d7 1cbf 107f 3dbe
000002e0: 9d92 8bbd 42d9 a43e 51e9 80be 58fa 77bf
000002f0: 12e2 25bf 8801 e0be 8a11 4cbe 3c5f b73d
00000300: 106a 27bf 90ef 6b3d c759 f2be 9947 a8bd
00000310: b9e5 31be 699f 88bd c546 c1be 35fc d5bc
00000320: 2782 7bbe 8641 72be d9e0 0a3e 23f5 30be
00000330: d36e de3d 8339 243e 1273 86be 01a7 33be
00000340: bf1b c9be 2e39 8ebe 5cd1 6dbe 3594 e5be
00000350: a66e 10bd 5419 4d3e 98f1 7fbe 32ac 00bf
00000360: 7ffe 4fbe 75e8 cc3e 4a83 1ebe f4bc 21bf
00000370: 35fa 4bbe e717 873d bd37 ad3d 2e81 bbbe
00000380: 5904 42bf f4c7 19bf f224 16bf dc62 80be
00000390: ec17 8ebd 57bd a5bd 828e 89be 7c82 953d
000003a0: e1db c23d 4ed3 9cbe b9bc 52bd b7a1 97be
000003b0: 1af3 8ebe 9e8e c4bd e9a2 2c3c 8868 acbe
000003c0: d994 b7be 1c69 823d 84ec 49be a91a fabe
000003d0: 5f43 303e 0f6f babe c24d d1be c27d d33c
000003e0: df94 10bf 04c3 23bf ea38 573e 904d 95be
000003f0: e3e8 c6be 1846 11be 0a83 a0bb c800 fa3d

model.0.bias f4 [128]
0.025843568 -0.0784606 -0.08884466 -0.13493751 0.04932347 -0.120369494 0.053304803 -0.13174953
0.030989088 -0.17732586 -0.03429606 -0.1203864 -0.1284497 -0.07827899 -0.15521954 0.005680832
-0.063299455 -0.003204011 0.011716292 -0.14019012 -0.10586954 0.031138029 0.00013112221 -0.0997183
-0.078001216 0.043542307 0.012472977 -0.024605477 -0.13504834 -0.09652669 -0.11815334 -0.09099995
-0.04252601 -0.049168613 -0.12162793 0.022426277 -0.16838388 -0.09533915 0.080304995 -0.048118375
-0.12517451 -0.025907477 -0.19635487 -0.187126 -0.0060139326 -0.008418692 -0.056630824 -0.059751216
0.005314638 -0.021928132 -0.11042101 -0.026773153 -0.10766497 -0.12483569 -0.12521216 -0.04993579
-0.08283069 -0.088622145 -0.10746543 -0.040727 0.15558583 -0.066150494 -0.077363715 -0.045158617
-0.1612733 -0.055544995 -0.12297806 0.089389674 -0.14365768 -0.14117804 0.029377485 -0.01781192
-0.014272289 -0.028171498 -0.07057071 -0.084249295 -0.008591662 -0.16478536 0.05930619 -0.0019479697
0.09788335 -0.13259046 -0.09095956 -0.1715046 -0.087532714 -0.050426792 -0.16270176 -0.10843135
0.11294083 -0.16031034 -0.09107002 0.018904088 0.17273416 -0.15335105 -0.14578655 0.0077905953
-0.06775149 -0.057928093 0.07080309 0.05016408 0.0066690855 -0.103324585 -0.09601009 -0.020217465
0.008574758 3.7130594e-06 -0.19984438 -0.077709645 0.08671691 -0.007671076 0.00284563 -0.06354022
-0.14266786 -0.122161746 -0.09050254 -0.10431815 -0.01891036 -0.12523462 -0.0069694202 -0.082313776
-0.11408766 -0.08755368 -0.1377654 -0.049444385 -0.043795586 -0.12390183 -0.17503065 -0.17779681
00000000: e4b5 d33c f3af a0bd 30f4 b5bd 0f2d 0abe
00000010: 6807 4a3d 4884 f6bd 2356 5a3d 59e9 06be
00000020: d4dc fd3c e994 35be 077a 0cbd 258d f6bd
00000030: 5188 03be bc50 a0bd dff1 1ebe 4626 ba3b
00000040: 25a3 81bd 62fa 51bb b1f5 3f3c 008e 0fbe
00000050: 21d2 d8bd 2e15 ff3c da7d 0939 1c39 ccbd
00000060: 1abf 9fbd 6b59 323d 755b 4c3c 6d91 c9bc
00000070: 1d4a 0abe c9af c5bd 61fa f1bd 2f5e babd
00000080: c12f 2ebd 0765 49bd 1018 f9bd 50b7 b73c
00000090: d36c 2cbe 2c41 c3bd f276 a43d c617 45bd
000000a0: bf2d 00be eb3b d4bc 4011 49be f59d 3fbe
000000b0: 8610 c5bb 8eee 09bc b9f5 67bd b1bd 74bd
000000c0: 6a26 ae3b a0a2 b3bc 6924 e2bd 5f53 dbbc
000000d0: 747f dcbd dba9 ffbd 9e37 00be 7989 4cbd
000000e0: 23a3 a9bd 877f b5bd d616 dcbd 5bd1 26bd
000000f0: e451 1f3e e979 87bd de70 9ebd 3ef8 38bd
00000100: d424 25be 2683 63bd ecdb fbbd ef11 b73d
00000110: 001b 13be fa90 10be 0da9 f03c 4eea 91bc
00000120: 52d6 69bc eac7 e6bc 6087 90bd e58a acbd
00000130: 0bc4 0cbc 7ebd 28be 0ceb 723d 0453 ffba
00000140: 1177 c83d cbc5 07be 0149 babd e79e 2fbe
00000150: 5a44 b3bd 538c 4ebd 4a9b 26be 4111 debd
00000160: 864d e73d 6528 24be eb82 babd bfdc 9a3c
00000170: 39e1 303e 0f08 1dbe 1249 15be 4048 ff3b
00000180: 4bc1 8abd 0246 6dbd 3601 913d da78 4d3d
00000190: 5888 da3b d79b d3bd f0a0 c4bd 199f a5bc
000001a0: 247d 0c3c e02d 7936 01a4 4cbe 3c26 9fbd
000001b0: a398 b13d a65d fbbb c07d 3a3b 6021 82bd
000001c0: 8617 12be f02f fabd 6559 b9bd c1a4 d5bd
000001d0: e6e9 9abc 813d 00be bc5f e4bb 2094 a8bd
000001e0: cba6 e9bd 584f b3bd 5f12 0dbe 3286 4abd
000001f0: 0063 33bd 3ec0 fdbd 3c3b 33be 5e10 36be

model.2.weight f4 [64, 128]
-0.16981797 0.42232898 0.039973367 0.13844751 -0.17095049 -0.43992248 0.22196278 -0.26262486
-0.0674218 0.2418695 0.12794277 0.1716673 -0.09528985 -0.09358424 -0.069359004 -0.23001118
-0.079804756 -0.18829548 -0.18695855 0.25047615 0.111395724 0.1790679 0.09475404 0.033442352
0.030697025 0.022110654 -0.08622137 -0.309216 -0.003270638 -0.07061777 -0.059040405 0.026207736
-0.04493058 -0.09718119 -0.39303848 -0.13907376 -0.070588656 0.058035325 -0.008027522 -0.028197454
-0.33602643 0.045870584 0.055685733 -0.12127059 0.14244552 -0.17971554 0.16488385 -0.0770697
0.029693153 -0.12851602 0.30644032 0.1520497 0.1471916 0.03350785 0.22541292 -0.121346556
0.03264538 -0.4015476 -0.060425572 0.03828387 -0.24469541 -0.0038779806 -0.5688023 0.052852165
0.14446875 -0.08542324 -0.13627078 0.43797365 0.1455627 -0.40873277 -0.20686218 -0.22576077
-0.122143224 0.05658804 -0.14390387 -0.17548788 0.35513672 0.10783743 0.09476894 -0.04142337
-0.049969226 -0.38332543 -0.08013874 -0.44478604 -0.026203874 -0.09472675 -0.09285704 -0.16101319
-0.31516582 -0.041550495 0.14478514 -0.052390967 -0.44747427 -0.078278445 0.059216633 -0.22370242
-0.012541806 -0.27431402 0.16283393 -0.29135737 -0.13701469 -0.0031372756 -0.023266539 -0.024133658
0.28200197 -0.015486759 -0.051698655 0.2335572 -0.24729717 -0.04050487 -0.16707522 -0.3994243
0.10144139 -0.03295853 0.011234249 -0.25281477 0.40795615 -0.18951067 0.09903436 0.24756698
-0.058063477 -0.053381715 -0.09860109 -0.35188878 -0.10845535 -0.074771404 -0.005789211 -0.16838026
0.0033753535 -0.27197418 -0.04739893 -0.16398399 0.09016262 0.09054344 -0.09265224 0.13168621
0.24685258 0.119618766 0.06873343 0.031903166 0.16755639 -0.10657305 -0.16816334 -0.19152085
-0.26190335 -0.017477011 -0.17896459 -0.15902181 0.37248287 0.07763568 0.0022392208 -0.12693742
-0.05309374 -0.0642059 -0.020537874 -0.06090589 0.052500393 -0.26196536 -0.06031725 0.17065723
0.11841042 -0.26643327 0.022760332 -0.25744674 0.12868586 -0.04966478 -0.3556999 0.00092663895
0.321593 -0.067241035 -0.0009748194 -0.12081712 0.10173464 -0.28228217 0.3685195 0.0778607
-0.18625948 -0.14569373 0.23242374 -0.21184984 -0.070386976 -0.1513498 -0.20258996 -0.14356636
-0.0029549145 -0.12455115 -0.1572307 0.0154064065 0.14213079 0.060674377 -0.007026768 0.027658733
0.16169594 0.06807939 0.23644899 -0.35822493 -0.029362174 0.22182651 -0.13707602 0.20910859
-0.15878598 -0.25664765 -0.42509052 0.01852919 -0.14635451 -0.11656805 0.03618643 -0.086324245
-0.06315207 0.10474279 0.054024838 -0.34499556 -0.027300956 0.107770346 -0.19918154 0.025021913
-0.06929894 0.14672989 -0.20893192 -0.3583936 0.015445119 0.014874117 0.16330537 -0.036723
0.1580522 0.20525318 0.068870544 0.27335188 -0.0137992 -0.027797023 0.3704028 -0.5061636
-0.14215748 -0.39070773 -0.1842289 -0.018699907 0.32256523 -0.22327307 -0.015652422 0.11859546
-0.212651 -0.14545889 0.45069614 -0.12558132 -0.056665972 0.17424849 0.21185595 0.28548726
0.15435368 0.20112447 0.16949946 -0.09499758 -0.004300081 0.06995118 -0.03848675 0.11753568
00000000: c3e4 2dbe 813b d83e 1dbb 233d 2fc5 0d3e
00000010: a50d 2fbe 853d e1be 364a 633e c476 86be
00000020: 7114 8abd a3ac 773e 6e03 033e 8dc9 2f3e
00000030: 5327 c3bd 18a9 bfbd 180c 8ebd 0d88 6bbe
00000040: ad70 a3bd 88d0 40be 1072 3fbe 693e 803e
00000050: 7123 e43d 935d 373e 680e c23d d9fa 083d
00000060: 5478 fb3c 6721 b53c d494 b0bd 8f51 9ebe
00000070: 3358 56bb 0da0 90bd 5ad4 71bd 9bb1 d63c
00000080: 2109 38bd ef06 c7bd 573c c9be 5a69 0ebe
00000090: c990 90bd 73b6 6d3d de85 03bc 59fe e6bc
000000a0: a80b acbe cbe2 3b3d b916 643d b75c f8bd
000000b0: 3ddd 113e 5a07 38be 50d7 283e b8d6 9dbd
000000c0: 0e3f f33c b499 03be bfe5 9c3e ebb2 1b3e
000000d0: 65b9 163e 873f 093d a5d2 663e 8b84 f8bd
000000e0: 29b7 053d a697 cdbe ce80 77bd 8ccf 1c3d
000000f0: 6f91 7abe b825 7ebb 079d 11bf 837b 583d
00000100: 9eef 133e 61f2 aebd 918a 0bbe 153e e03e
00000110: 630e 153e 6c45 d1be aed3 53be d52d 67be
00000120: 3a26 fabd dcc8 673d 895b 13be 18b3 33be
00000130: 7bd4 b53e dfd9 dc3d 3816 c23d 8dab 29bd
00000140: 88ac 4cbd 3b43 c4be c81f a4bd ffba e3be
00000150: 82a9 d6bc 1900 c2bd d52b bebd a4e0 24be
00000160: 6a5d a1be da30 2abd 8e42 143e e997 56bd
00000170: 591b e5be 7350 a0bd 248d 723d 3f12 65be
00000180: 267c 4dbc e372 8cbe f0bd 263e cb2c 95be
00000190: 944d 0cbe c09a 4dbb 7899 bebc f3b3 c5bc
000001a0: 9062 903e 2dbc 7dbc f8c1 53bd 9e29 6f3e
000001b0: 783b 7dbe 6fe8 25bd c415 2bbe 5881 ccbe
000001c0: 81c0 cf3d 86ff 06bd db0f 383c f070 81be
000001d0: a1df d03e 160f 42be 87d2 ca3d 3382 7d3e
000001e0: f8d3 6dbd c9a6 5abd 5eef c9bd c42a b4be
000001f0: d71d debd c021 99bd 6cb3 bdbb e06b 2cbe
00000200: 0935 5d3b 3340 8bbe 6125 42bd 6beb 27be
00000210: 2ea7 b83d d76e b93d 75c0 bdbd c0d8 063e
00000220: ecc6 7c3e affa f43d 1dc4 8c3d e5ac 023d
00000230: e793 2b3e f942 dabd 0333 2cbe 0b1e 44be
00000240: 3218 86be f32b 8fbc 7e42 37be 9dd6 22be
00000250: 13b6 be3e 75ff 9e3d e4bf 123b e2fb 01be
00000260: d278 59bd 627e 83bd 0b3f a8bc 7478 79bd
00000270: a70a 573d 5320 86be 390f 77bd c5c0 2e3e
00000280: 2a81 f23d f169 88be e073 ba3c 0fd0 83be
00000290: 3ac6 033e 4c6d 4bbd 4c1e b6be b0e9 723a
000002a0: d6a7 a43e abb5 89bd 068b 7fba f76e f7bd
000002b0: 405a d03d 4a87 90be 97ae bc3e 6e75 9f3d
000002c0: ceba 3ebe bd30 15be 7d00 6e3e 2aef 58be
000002d0: 0c27 90bd 71fb 1abe be73 4fbe 0f03 13be
000002e0: 3da7 41bb ac14 ffbd 1601 21be 276b 7c3c
000002f0: bc8a 113e b285 783d cd40 e6bb 9194 e23c
00000300: 9f93 253e 356d 8b3d af1f 723e 4269 b7be
00000310: f188 f0bc 7d26 633e a85d 0cbe 9020 563e
00000320: cb98 22be 5267 83be 77a5 d9be 87ca 973c
00000330: f5dd 15be 3bbb eebd 3938 143d c4ca b0bd
00000340: df55 81bd 6383 d63d 2649 5d3d 42a3 b0be
00000350: 41a6 dfbc b3b6 dc3d 3ff6 4bbe c1fa cc3c
00000360: 9aec 8dbd 5c40 163e 40f2 55be 5e7f b7be
00000370: 860d 7d3c 92b2 733c 8639 273e db6a 16bd
00000380: 70d8 213e e42d 523e 000c 8d3d c7f4 8b3e
00000390: 0a16 62bc 95b6 e3bc 70a5 bd3e f093 01bf
000003a0: bb91 11be d80a c8be 80a6 3cbe 8c30 99bc
000003b0: 4527 a53e b2a1 64be 8239 80bc 2de2 f23d
000003c0: 2fc1 59be 2df3 14be a5c1 e63e 6498 00be
000003d0: 941a 68bd 326e 323e c4f0 583e 632b 923e
000003e0: e40e 1e3e 93f3 4d3e 4491 2d3e 178e c2bd
000003f0: b2e7 8cbb 9042 8f3d 48a4 1dbd 8cb6 f03d

model.2.bias f4 [64]
0.12969959 -0.09427448 0.4274105 -0.14804314 -0.35419318 -0.5740782 -0.052341275 -0.18080997
0.5722792 -0.27561176 -0.11792772 -0.39939204 -0.22629471 -0.13630818 -0.15432972 -0.03409081
0.0035025473 -0.009505514 -0.4279347 -0.29421362 -0.3365831 -0.07444519 -0.17632386 -0.30530405
0.12918273 -0.2872676 -0.23083189 -0.1828353 -0.085277915 -0.2252055 -0.4021579 -0.21268542
-0.22939974 -0.106432766 -0.18374427 -0.05011715 -0.042571157 -0.28857186 -0.11305352 -0.12728508
-0.17044567 0.21653038 -0.06317872 -0.23199491 -0.054687317 -0.16923344 -0.21618448 0.6847552
-0.18841779 -0.14610752 -0.2583965 -0.02560179 0.07391302 -0.09103136 -0.22580415 -0.14333627
0.16435242 0.16444993 -0.21743368 0.32172427 0.7043386 -0.24605198 -0.18333139 -0.18321538
00000000: f8cf 043e fb12 c1bd 8dd5 da3e 9f98 17be
00000010: cf58 b5be caf6 12bf ce63 56bd 4026 39be
00000020: e480 123f fc1c 8dbe 1784 f1bd 1d7d ccbe
00000030: cdb9 67be 5f94 0bbe 9c08 1ebe cea2 0bbd
00000040: fe8a 653b 04bd 1bbc 421a dbbe 2ba3 96be
00000050: 9f54 acbe b876 98bd 3e8e 34be d050 9cbe
00000060: 7a48 043e bd14 93be 325f 6cbe 2d39 3bbe
00000070: 30a6 aebd 459c 66be a4e7 cdbe 35ca 59be
00000080: c4e7 6abe 6cf9 d9bd 7527 3cbe a447 4dbd
00000090: 185f 2ebd b1bf 93be 9b88 e7bd 0557 02be
000000a0: 4f89 2ebe 24ba 5d3e d863 81bd 1390 6dbe
000000b0: cfff 5fbd 884b 2dbe 775f 5dbe 1e4c 2f3f
000000c0: 98f0 40be 369d 15be 8c4c 84be d8ba d1bc
000000d0: b65f 973d a66e babd 3439 67be bec6 12be
000000e0: 004c 283e 9065 283e efa6 5ebe 0bb9 a43e
000000f0: 894f 343f 0df5 7bbe 39bb 3bbe d09c 3bbe

model.4.weight f4 [4, 64]
0.15555222 0.03963686 0.069565706 0.1915945 -0.16017842 -0.111397915 0.21634518 0.05818952
0.14276567 0.015658025 0.006041879 -0.0364379 -0.25658074 -0.4037022 -0.011458878 0.20151831
-0.054112513 0.26523808 -0.19806722 0.1342047 -0.030281618 -0.08848431 0.105389155 -0.12019853
0.09623357 -0.062114883 -0.007415913 0.0112258755 0.044849753 -0.30730003 -0.13721052 -0.012642517
-0.24063158 -0.038780477 0.06465516 0.054547425 -0.05286596 0.15563223 0.16649583 -0.012596169
-0.0024128335 0.23744139 -0.017890556 0.19182223 0.20108667 -0.020538678 -0.11930879 0.17879279
0.08200724 0.062521875 0.08474097 0.0466165 0.22945397 -0.021583468 -0.35401836 0.1061841
0.1985283 0.14824529 -0.08033179 0.07160106 0.19701068 -0.31559741 0.34003723 -0.36676848
0.09163611 0.03636561 0.039240956 0.29387552 -0.06682748 -0.09320322 0.004819207 0.13360684
0.14701132 0.26395452 -0.37716952 0.016787788 0.08682397 -0.01754077 -0.26088512 0.0030818698
0.3105826 0.046157368 -0.09458461 -0.35774887 -0.008358749 0.28838113 0.17339437 -0.07058279
0.26162097 0.4217034 -0.29122233 0.17081867 0.082143515 -0.31876084 -0.0762105 -0.11517935
-0.2618959 -0.078036815 0.106094904 0.05165183 0.07662141 -0.22091714 0.05200578 -0.04398658
0.0042484407 0.18703437 0.1571878 0.18858726 0.17077999 0.0034441806 0.116954476 0.18117636
0.41881526 0.16980581 0.51045126 -0.07480999 0.26928702 -0.3465085 -0.019752285 0.31173268
0.22854835 0.20797354 0.037422694 -0.0133543275 0.17875841 0.025849173 0.19803959 -0.11802917
0.13736877 0.03418535 0.15893807 0.050549723 -0.14260566 -0.23798664 0.17186464 -0.35723403
0.24188516 -0.06006524 -0.21458943 0.1882565 0.13748609 -0.15968627 -0.029713204 -0.04224433
-0.054152053 0.403556 -0.13510638 0.04087707 -0.16489306 -0.17910573 -0.21378623 -0.4774155
-0.056992356 -0.14611268 0.110933915 -0.18477668 -0.43974823 -0.035426065 0.076505065 -0.24266219
-0.20419712 0.034258325 -0.06294663 -0.06547355 0.08003538 0.12596133 0.25790298 0.1459174
-0.011765529 0.14889044 0.25220934 0.55209625 -0.11324899 0.009398058 -0.21858023 0.21942562
0.04879481 -0.19640903 0.26558647 -0.25731257 0.09253067 0.040460467 -0.30451143 0.22187229
0.10340375 0.17408517 -0.009534172 0.07877934 0.10058936 -0.10574666 0.11197886 0.3008887
0.30887166 0.20297633 0.057564788 -0.03726717 -0.14643808 0.0018847678 0.046206366 -0.41571367
0.012018394 -0.4474585 -0.19560407 -0.15988933 -0.30163157 -0.15704317 0.42661536 0.01259831
-0.1930036 0.24422441 -0.24170919 0.02564146 0.16301177 -0.14510895 0.07779402 -0.30975953
0.2207065 0.27978873 -0.2295083 0.24842848 0.2053515 -0.04557412 -0.09729059 0.101050906
-0.2811412 -0.19704881 -0.07651288 0.21049234 0.13095315 -0.183604 -0.10163569 -0.20695838
0.01859654 0.15168281 0.26485616 0.007148424 -0.023435213 -0.0031273975 -0.18683445 0.19904818
0.21613632 0.25895593 0.17597657 0.018481668 0.25087446 0.18732199 -0.20337486 -0.06558116
0.2108081 0.08462263 0.24876644 0.15006909 0.20092158 0.3962372 0.16988242 -0.16847475
00000000: 1549 1f3e 435a 223d 7778 8e3d 5931 443e
00000010: d005 24be 9724 e4bd 9789 5d3e 2258 6e3d
00000020: 2a31 123e 4245 803c f4fa c53b e83f 15bd
00000030: 8d5e 83be 0eb2 cebe 05be 3bbc d15a 4e3e
00000040: 15a5 5dbd 49cd 873e 22d2 4abe f56c 093e
00000050: 2811 f8bc 4337 b5bd 45d6 d73d a62a f6bd
00000060: 1b16 c53d 2d6c 7ebd 3001 f3bb bcec 373c
00000070: 60b4 373d 6e56 9dbe ea80 0cbe 8f22 4fbc
00000080: 2068 76be 47d8 1ebd ed69 843d 1f6d 5f3d
00000090: fa89 58bd 0e5e 1f3e e27d 2a3e 2960 4ebc
000000a0: a120 1ebb d623 733e 378f 92bc 0c6d 443e
000000b0: aae9 4d3e bb40 a8bc 2b58 f4bd 7515 373e
000000c0: 69f3 a73d 780b 803d ac8c ad3d f1f0 3e3d
000000d0: fbf5 6a3e d0cf b0bc e541 b5be 0d77 d93d
000000e0: 014b 4b3e 9dcd 173e fe84 a4bd 94a3 923d
000000f0: 2bbd 493e fc95 a1be 5c19 ae3e 14c9 bbbe
00000100: b6ab bb3d 1bf4 143d 20bb 203d da76 963e
00000110: d9dc 88bd 54e1 bebd 70ea 9d3b 3bd0 083e
00000120: 238a 163e 0c25 873e 5d1c c1be 8b86 893c
00000130: c4d0 b13d a9b1 8fbc bc92 85be 32f9 493b
00000140: af04 9f3e 820f 3d3d 93b5 c1bd dc2a b7be
00000150: 22f3 08bc b1a6 933e 4b8e 313e b68d 90bd
00000160: 2ff3 853e 82e9 d73e 181b 95be 17eb 2e3e
00000170: dc3a a83d 9f34 a3be 4014 9cbd 27e3 ebbd
00000180: 3817 86be c4d1 9fbd 4948 d93d df90 533d
00000190: b0eb 9c3d 1a38 62be 0304 553d 462b 34bd
000001a0: 8136 8b3b f085 3f3e d7f5 203e 051d 413e
000001b0: f3e0 2e3e c3b7 613b d485 ef3d 4c86 393e
000001c0: f46e d63e 93e1 2d3e efac 023f fb35 99bd
000001d0: fddf 893e 9069 b1be 8bcf a1bc 6d9b 9f3e
000001e0: 9408 6a3e 04f7 543e 8a48 193d 1ccc 5abc
000001f0: 720c 373e a5c1 d33c e4ca 4a3e 47b9 f1bd
00000200: 66aa 0c3e f005 0c3d a9c0 223e 3a0d 4f3d
00000210: 3807 12be c5b2 73be 49fd 2f3e 61e7 b6be
00000220: beb0 773e f806 76bd 55bd 5bbe 50c6 403e
00000230: 27c9 0c3e cc84 23be 1b69 f3bc 6408 2dbd
00000240: 8bce 5dbd e49e ce3e 5459 0abe b76e 273d
00000250: bad9 28be 7e67 37be c7ea 5abe ce6f f4be
00000260: d170 69bd 909e 15be 5231 e33d 1936 3dbe
00000270: ae26 e1be ec1a 11bd b0ae 9c3d 707c 78be
00000280: 0d19 51be 7552 0c3d 2aea 80bd ff16 86bd
00000290: 97e9 a33d 02fc 003e dc0b 843e 5f6b 153e
000002a0: 35c4 40bc bc76 183e 9521 813e 2e56 0d3f
000002b0: 16ef e7bd 50fa 193c 7fd3 5fbe 1cb1 603e
000002c0: 11dd 473d 731f 49be f3fa 873e 79be 83be
000002d0: b880 bd3d e0b9 253d ece8 9bbe 7d32 633e
000002e0: 58c5 d33d 6243 323e 3735 1cbc 1057 a13d
000002f0: cb01 ce3d b491 d8bd 2c55 e53d 150e 9a3e
00000300: 6d24 9e3e 07d9 4f3e 0ec9 6b3d 76a5 18bd
00000310: ddf3 15be 500a f73a e342 3d3d 6cd8 d4be
00000320: cce8 443c 4819 e5be 6f4c 48be 07ba 23be
00000330: 746f 9abe edcf 20be 546d da3e 2469 4e3c
00000340: bca2 45be f715 7a3e 9d82 77be 0a0e d23c
00000350: 8fec 263e 7197 14be 7952 9f3d cd98 9ebe
00000360: e200 623e 7840 8f3e 3904 6bbe 0964 7e3e
00000370: aa47 523e eeab 3abd 4a40 c7bd c7f3 ce3d
00000380: bdf1 8fbe 2ac7 49be c9b2 9cbd 4e8b 573e
00000390: 9518 063e b002 3cbe 5f26 d0bd e6ec 53be
000003a0: c557 983c bd52 1b3e 3a9b 873e 543d ea3b
000003b0: 34fb bfbc 06f5 4cbb 8851 3fbe 49d3 4b3e
000003c0: d752 5d3e df95 843e 3433 343e de66 973c
000003d0: 9e72 803e 56d1 3f3e 8041 50be 6a4f 86bd
000003e0: 14de 573e a14e ad3d a1bc 7e3e b6ab 193e
000003f0: 63be 4d3e 9adf ca3e a8f5 2d3e a584 2cbe

model.4.bias f4 [4]
0.55669564 0.56063384 0.59335166 0.57046026
00000000: 9b83 0e3f b385 0f3f e5e5 173f af09 123f
