models/1/q_final_n352.pt (torch, 131223 bytes, 6 tensors)

model.0.weight f4 [128, 185]
0	0xbec4707d	-0.38367072
1	0x3ea50f3c	0.32238185
2	0xbd6a94a1	-0.05727065
3	0xbf3542b8	-0.7080493
4	0x3ebdc807	0.3706667
5	0xbe203735	-0.1564606
6	0x39bd6254	0.0003612215
7	0xbe04987b	-0.12948792
8	0x3e5b420c	0.21411914
9	0xbed95be1	-0.4245291
10	0xbd983719	-0.07432384
11	0xbddd81c2	-0.10815765
12	0xbd689d4a	-0.056790628
13	0xbe88da9f	-0.26729295
14	0xbe239c3c	-0.15977567
15	0xbdc6e670	-0.09711921
16	0xbe21994f	-0.15781139
17	0x3c85176a	0.016246516
18	0x3e1d5097	0.15362774
19	0xbe8d2b6d	-0.27572194
20	0x3c813cbc	0.01577603
21	0xbe00cbe6	-0.12577781
22	0xbe507777	-0.20358072
23	0xbe790eba	-0.24322024
24	0xbd8d649d	-0.06903956
25	0xbe8c5a37	-0.27412578
26	0x3e41a98c	0.18912333
27	0xbe40b9ea	-0.1882092
28	0x3e290849	0.16507067
29	0xbd890eb7	-0.0669226
30	0x3e181514	0.1485179
31	0xbe9f18d3	-0.31073627
32	0x3e40d752	0.18832138
33	0xbf1e4d36	-0.61836565
34	0xbe6b4a74	-0.2297762
35	0x3d814ca2	0.06313445
36	0xbb93910a	-0.004503374
37	0xbe85b738	-0.26116347
38	0x3e6600e2	0.22461274
39	0xbd0b9fab	-0.034087818
40	0xbe12ca2e	-0.14334938
41	0x3dc60068	0.09668046
42	0xbe3e4826	-0.1858221
43	0x3e7b11e0	0.24518538
44	0xbe336ad2	-0.17521217
45	0x3d75a739	0.05997393
46	0xbd57fcfb	-0.052731495
47	0x3ec96404	0.39334118
48	0xbf3c1dd2	-0.73483
49	0xbf04971a	-0.5179306
50	0xbe81a0c9	-0.25317982
51	0xbeadef86	-0.33971804
52	0xbdc7cd38	-0.09755939
53	0xbc65a55a	-0.014016474
54	0xbc908ae6	-0.017644357
55	0x3d2c1c8f	0.042019423
56	0xbe3c6646	-0.18398389
57	0x3d6b720f	0.05748182
58	0xbd6da0fc	-0.058014855
59	0xbdb91ccf	-0.09038698
60	0xbf200cbd	-0.6251944
61	0x3ebb566c	0.36589372
62	0xbceb4f66	-0.028724384
63	0x3df4df68	0.11956674
64	0xbe8564dc	-0.26053512
65	0xbd2b10bc	-0.041764006
66	0xbeabc149	-0.33545902
67	0x3cdfa92c	0.027302347
68	0xbf40ae20	-0.75265694
69	0x3ec523ae	0.38503784
70	0xbec8b28c	-0.3919872
71	0xbf017a22	-0.50576985
72	0x3d3f6d09	0.046734843
73	0x3ccb8991	0.02484587
74	0x3dc3318a	0.09530933
75	0x3db85d36	0.090021536
76	0xbec80679	-0.39067438
77	0x3dfcd4f2	0.123453036
78	0x3e11cb19	0.14237632
79	0xbdcf7462	-0.1012962
80	0x3df0b9ae	0.117541656
81	0xbf01a0a1	-0.50635725
82	0x3ec6a5bf	0.3879833
83	0xbe749545	-0.23885067
84	0xbe120388	-0.1425916
85	0xbf41b47a	-0.7566601
86	0x3dd1cc8f	0.102440946
87	0x3e4c2965	0.19937666
88	0xbe9ff5de	-0.3124227
89	0x3e7d62b3	0.24744682
90	0xbe70c5c4	-0.23512942
91	0x3e0f78bb	0.14010899
92	0xbecb64a9	-0.39725235
93	0xbdc21c7b	-0.094780885
94	0x3e653679	0.22384061
95	0xbe4ec703	-0.20193104
96	0xbec5a8bf	-0.38605306
97	0xbee36ab9	-0.4441736
98	0xbc802aff	-0.015645502
99	0x3cab2aa9	0.020894365
100	0xbe1265f4	-0.14296705
101	0xbd8ef14c	-0.069796175
102	0x3da7eec7	0.0819984
103	0xbe12d4ec	-0.14339036
104	0x3dc0ad6d	0.09408078
105	0xbd8e4104	-0.069459945
106	0xbe5ee746	-0.21767911
107	0xbed0df79	-0.40795496
108	0xbc4c1abe	-0.012457548
109	0x3e2dad0f	0.16960548
110	0xbcd0ae6f	-0.025473801
111	0x3e914e38	0.2837999
112	0xbe2c73fa	-0.16841117
113	0xbe68ebb0	-0.22746158
114	0xbe87d346	-0.26528376
115	0xbc7a1d4c	-0.015265774
116	0x3c3f16eb	0.011663179
117	0x3e2bbf54	0.16772205
118	0xbeb9f09f	-0.36316392
119	0x3ebaf807	0.36517355
120	0xbe9044d6	-0.28177518
121	0xbec45731	-0.38347772
122	0xbf453537	-0.77034324
123	0x3e709ed7	0.23498093
124	0x3ea0c999	0.31403807
125	0xbf005084	-0.5012286
126	0x3e67f72d	0.22652884
127	0xbe3623f5	-0.17787154
128	0xbd81756f	-0.06321227
129	0xbe2801c4	-0.16406924
130	0xbd3dc3fb	-0.04632948
131	0xbe0ac4bd	-0.13551612
132	0xbf12ae0c	-0.57296824
133	0x3d800153	0.062502526
134	0xbe31b853	-0.1735547
135	0xbd7d79e8	-0.061883837
136	0xbe2b0586	-0.16701326
137	0xbe275fe6	-0.16345176
138	0x3e87e67e	0.2654304
139	0x3cd2e33d	0.025743121
140	0xbd3e8b75	-0.046519715
141	0x3d43844f	0.0477336
142	0xbd195ce4	-0.037442103
143	0xbd861606	-0.065471694
144	0xbf329ed6	-0.69773614
145	0x3d893aaa	0.067006424
146	0x3e4ede11	0.20201899
147	0xbdb77f44	-0.08959821
148	0x3e8cc213	0.27491817
149	0xbe292528	-0.1651808
150	0xbf1cac95	-0.6120084
151	0xbd9dda4d	-0.07707653
152	0xbf18ca88	-0.5968404
153	0xbe5ba7f3	-0.21450786
154	0x3e198456	0.14991888
155	0xbef393cc	-0.47573698
156	0x3f1271dd	0.5720499
157	0xbec395b2	-0.38200146
158	0x3bfa2b1f	0.007634535
159	0xbf04577b	-0.51695985
160	0xbe9d309e	-0.30701154
161	0xbd3a6d1c	-0.04551421
162	0xbe84eeee	-0.2596354
163	0x3e136431	0.14393689
164	0xbde2e9b5	-0.11079732
165	0x3e10923f	0.14118288
166	0xbe8a8c03	-0.27059945
167	0xbd575ff4	-0.052581742
168	0xbdf91825	-0.12162808
169	0xbf342215	-0.70364505
170	0x3dd1cc0c	0.10243997
171	0x3e0af55f	0.13570164
172	0x3d3eebf4	0.04661174
173	0xbe8127f0	-0.25225782
174	0xbe0ddab1	-0.13852955
175	0x3e8a8591	0.27055028
176	0x3e4100eb	0.18848006
177	0xbe948b6a	-0.29012614
178	0x3e4853a7	0.19563161
179	0xbea16dd8	-0.31529117
180	0xbd43c239	-0.047792647
181	0xbf3be488	-0.73395586
182	0xbe987ea8	-0.2978413
183	0x3d57a243	0.05264498
184	0xbe619ad0	-0.22031713
185	0x3e61941c	0.22029155
186	0xbe168c88	-0.14702046
187	0xbe1fec77	-0.15617548
188	0xbec0025d	-0.37501803
189	0xbe95a884	-0.2923013
190	0x3c98d620	0.01865679
191	0xbf1fc4bf	-0.62409586
192	0x3c5eedd1	0.013606505
193	0x3e779ff3	0.2418211
194	0xbf083473	-0.5320503
195	0xbdbf261b	-0.0933344
196	0xbe9fde68	-0.3122437
197	0x3e3cbd05	0.1843148
198	0x3e10ad59	0.14128627
199	0xbe56ca23	-0.20975547
200	0x3de6cc80	0.11269474
201	0xbe55f4d3	-0.20894174
202	0x3c58838d	0.013214958
203	0xbe11d34f	-0.14240764
204	0xbe16cce5	-0.14726599
205	0x3e5f8dfc	0.21831506
206	0xbeba4312	-0.36379296
207	0xbdb0a0b0	-0.08624399
208	0xbcfacbf0	-0.030614823
209	0xbd8cdea3	-0.06878402
210	0x3def1d07	0.116754584
211	0xbe87ebb4	-0.26547015
212	0x3b013a6c	0.001971866
213	0xbe66a200	-0.22522736
214	0xbd9ff1e0	-0.07809806
215	0x3d02b911	0.031914774
216	0x3e84f8b5	0.25970998
217	0xbe1fdd10	-0.15611672
218	0xbe82995f	-0.25507638
219	0x3e9283b4	0.28616107
220	0x3e1bb723	0.1520658
221	0x3cd5f2c2	0.026116733
222	0xbe8f37c8	-0.27972245
223	0x3d9e96ed	0.077436306
224	0x3dcf2f59	0.10116453
225	0xbe767f55	-0.24072011
226	0x3de112bf	0.10989904
227	0x3e240e0f	0.16020988
228	0x3ca545cb	0.020174881
229	0xbe33926a	-0.17536321
230	0x3d3636f6	0.04448601
231	0xbf16b717	-0.5887312
232	0xbe113d3f	-0.1418352
233	0xbf20ca0d	-0.62808305
234	0x3e2590ab	0.16168468
235	0x3de25739	0.11051793
236	0xbe9aab6c	-0.3020891
237	0x3e9a9b93	0.3019682
238	0xbea66923	-0.32502088
239	0x3ca68a8f	0.020329742
240	0xbf49688e	-0.7867516
241	0xbe8a26c7	-0.2698271
242	0x3eaaac91	0.33334783
243	0xbf050ff8	-0.5197749
244	0xbebd0793	-0.3691984
245	0x3e154c97	0.14579998
246	0xbe9a35fa	-0.30119306
247	0xbd08a080	-0.03335619
248	0x3d066762	0.032813437
249	0x3cfae251	0.030625494
250	0x3d016d95	0.031598646
251	0xbeb9987a	-0.36249143
252	0xbdb1daa8	-0.086842835
253	0xbe8469db	-0.2586201
254	0x3e444af8	0.19169223
255	0x3d5140a9	0.051087055

model.0.bias f4 [128]
0	0xbd8471e3	-0.06467035
1	0xbd3a00b7	-0.045410838
2	0xbcfdf48e	-0.031000402
3	0xbce12a11	-0.02748588
4	0x3d5ef893	0.054436278
5	0xbd6b0240	-0.057375193
6	0x3e472d31	0.19450833
7	0xbbbdf326	-0.005796808
8	0x3d171cdc	0.036892757
9	0xbe20db60	-0.15708685
10	0xbd6e762e	-0.058218174
11	0xbcb81b53	-0.022473967
12	0xbd7951e0	-0.060869098
13	0xbd633567	-0.05547085
14	0xbe0ca5e6	-0.1373516
15	0xbc856011	-0.01628116
16	0xbc73a334	-0.014870454
17	0x3d84f8ac	0.06492743
18	0x3daac339	0.08338017
19	0xbc0de0b8	-0.008659534
20	0x3c576603	0.01314688
21	0xbc52c543	-0.012864414
22	0x3cb28d47	0.021795882
23	0xbd869ec6	-0.065732524
24	0xbd78f17c	-0.060777172
25	0x3c97ed50	0.018545777
26	0xbd60cc3e	-0.05488228
27	0xbd259827	-0.040428307
28	0x3d7cfca4	0.061764374
29	0xbe08ca50	-0.13358426
30	0xbcd3627d	-0.025803799
31	0xbcdf7966	-0.027279567
32	0xbdde632c	-0.10858759
33	0xbdad556b	-0.08463558
34	0xbd5cff1c	-0.05395423
35	0xbd89063a	-0.06690641
36	0xbd81926b	-0.06326755
37	0xbdbed22f	-0.09317433
38	0xbda33f02	-0.07971002
39	0xbd2b0a6f	-0.041757997
40	0xbd4acd41	-0.04951215
41	0xbda3f04b	-0.080048166
42	0xbd49f01a	-0.049301244
43	0xbe08391f	-0.1330304
44	0xbd895ed3	-0.067075394
45	0xbc5b0cf8	-0.013369791
46	0xbc83ac02	-0.01607323
47	0xbc853a6c	-0.01626321
48	0xbd1b6317	-0.037936296
49	0xbe1ecb6d	-0.15507288
50	0xbca65e67	-0.020308686
51	0xbe10e422	-0.14149526
52	0x3ceba95d	0.028767282
53	0xbe321243	-0.17389779
54	0x3c743cb5	0.014907052
55	0x3d45d020	0.048294187
56	0xbcae39fa	-0.02126788
57	0xbe0d4019	-0.13793983
58	0xbe3074d5	-0.17232068
59	0x3b10bbe2	0.0022084643
60	0xbdc7cd0e	-0.09755908
61	0x3d5f2748	0.05448082
62	0x3e00cc43	0.1257792
63	0x3c96fa8e	0.01843002
64	0xbc0f045f	-0.0087290695
65	0x3d10e0cf	0.035370644
66	0xbe0ca601	-0.137352
67	0x3dcc3777	0.099715166
68	0xbd140fb0	-0.036147773
69	0xbd1b6f62	-0.03794802
70	0xbdc5a68c	-0.09650907
71	0xbd89cae3	-0.06728151
72	0xbd400fee	-0.04689019
73	0x3cec8198	0.028870389
74	0xbd150409	-0.0363808
75	0xbd6e7e98	-0.058226198
76	0xbdc4bf48	-0.096067965
77	0xbde98617	-0.11402529
78	0xbd926460	-0.07148051
79	0xbde007f8	-0.1093902
80	0x3db7bfa7	0.08972102
81	0xbd8c6f2d	-0.068571426
82	0x3d940488	0.07227427
83	0xbdc7a027	-0.097473435
84	0xbd2e37a7	-0.042533543
85	0x3df7fe22	0.12109019
86	0x3d3c3ba5	0.04595532
87	0xbe2d67ff	-0.16934203
88	0x3af15256	0.0018411379
89	0xbd1b886a	-0.03797189
90	0xbd9306da	-0.07179041
91	0xbc00200e	-0.007820142
92	0x3d966a23	0.07344463
93	0xbe1fa38d	-0.15589733
94	0xbda19c25	-0.0789111
95	0xbcc46724	-0.023974963
96	0x3cf72ae8	0.030171826
97	0xbc802a5b	-0.015645197
98	0x3d8bbb32	0.06822814
99	0xbe1e58c7	-0.15463553
100	0xbd6f5939	-0.0584347
101	0xbcb8b76d	-0.022548402
102	0xbe10e4a7	-0.14149724
103	0xbd6795a0	-0.056539178
104	0xbda46617	-0.080272846
105	0xbdf9dcef	-0.12200343
106	0x3d059b91	0.032619063
107	0xbc81a5b9	-0.015826093
108	0xbb3b97d6	-0.0028624437
109	0xbe34a4a8	-0.17640936
110	0x3d57b76c	0.05266516
111	0x3d98dd18	0.07464045
112	0xbde88610	-0.113536954
113	0xbe022634	-0.12709886
114	0x3da1459d	0.07874606
115	0x3bda62ce	0.0066646105
116	0xbd94386a	-0.07237323
117	0xbbb76910	-0.005597241
118	0x3b67c102	0.0035362844
119	0xbe441df2	-0.19152048
120	0xbe52d696	-0.2058967
121	0xbddadaa1	-0.106862314
122	0xbdb3bf3d	-0.0877671
123	0xbe1c1ac9	-0.15244593
124	0xbd5ae1de	-0.05343806
125	0xbcad13ca	-0.0211276
126	0xbc3f7598	-0.011685751
127	0xbdd9b85e	-0.106308684

model.2.weight f4 [64, 128]
0	0x3e6bf998	0.23044431
1	0x3e286102	0.16443256
2	0x3d8efa03	0.0698128
3	0xbd552850	-0.052040398
4	0x3dc84cd3	0.09780278
5	0xbcad9b3a	-0.021192182
6	0x3e93b1c3	0.2884656
7	0x3dfb5c26	0.12273435
8	0x3e20d255	0.15705235
9	0xbd917fa3	-0.07104423
10	0x3dd03090	0.101655126
11	0x3de916c5	0.11381296
12	0x3de33776	0.11094563
13	0x3e254853	0.16140871
14	0x3d612e5e	0.05497586
15	0x3ec23ef8	0.37938666
16	0x3dd3c840	0.10340929
17	0x3df366b0	0.118848205
18	0x3c181af0	0.009283766
19	0x3dc90e19	0.09817142
20	0xbeca11a5	-0.39466587
21	0x3da7299a	0.08162232
22	0xbe2e2d49	-0.17009462
23	0xbd2defcf	-0.042465027
24	0x3ea6a083	0.32544336
25	0x3e208cef	0.15678762
26	0xbe92f22a	-0.28700382
27	0x3e9b9465	0.30386654
28	0x3d98685c	0.0744178
29	0xbd44c257	-0.0480369
30	0xbbff7042	-0.0077953646
31	0x3e38ddc3	0.18053345
32	0xbe294952	-0.16531876
33	0x3d822b6f	0.063559406
34	0x3d6a4c7a	0.05720184
35	0x3e4988c7	0.19681083
36	0x3d513366	0.051074408
37	0x3e6544c9	0.2238952
38	0x3cde9ae1	0.027173461
39	0xbab7c1d0	-0.0014019553
40	0xbd376819	-0.04477701
41	0xbc80c523	-0.015719002
42	0x3e226bea	0.15861478
43	0xbe262629	-0.16225494
44	0xbcc18927	-0.02362497
45	0xbdbd3d98	-0.09240264
46	0xbc5b2297	-0.013374946
47	0xbe8d00b4	-0.275396
48	0x3e97f33f	0.2967777
49	0x3dfb43d7	0.12268799
50	0x3e1e882e	0.15481636
51	0x3c8b2a64	0.016987987
52	0x3d3d5587	0.046224143
53	0xbd20ccbb	-0.039257746
54	0x3d88bcaf	0.066766135
55	0x3d3e8d3d	0.046521414
56	0x3d4f1654	0.050558403
57	0x3d255083	0.040359985
58	0xbd271b80	-0.04079771
59	0x3e041fee	0.12902805
60	0x3d95aa41	0.07307864
61	0x3d91a09d	0.07110713
62	0x3dd544ef	0.10413539
63	0x3d97d908	0.07414442
64	0x3e18b04d	0.14911003
65	0x3cfe2c90	0.031027108
66	0x3d7450c1	0.059647325
67	0x3d324e5f	0.04353177
68	0xbe28e065	-0.1649185
69	0xbdcbaabc	-0.099446744
70	0xbe970299	-0.2949417
71	0xbc3c3d90	-0.011489287
72	0x3e0cfe47	0.13768874
73	0xbc6d167a	-0.014470691
74	0x3d2f141a	0.04274378
75	0xbe1a8f7c	-0.15093797
76	0xbee62b2f	-0.4495482
77	0x3e71f297	0.23627697
78	0x3e5b4ad3	0.21415262
79	0xbee76f7f	-0.45202252
80	0x3d9ae765	0.07563666
81	0xbe80274c	-0.2502998
82	0x3e569980	0.20956993
83	0x3c24b5ec	0.010053139
84	0x3ef5910f	0.47962233
85	0x3e46684b	0.19375722
86	0x3d86cc9b	0.06581994
87	0x3e9b68b1	0.3035331
88	0xbca6d2f4	-0.020364262
89	0x3db382a9	0.08765156
90	0x3bfb2ce0	0.0076652616
91	0xbd9d0bea	-0.07668288
92	0x3e332610	0.17494988
93	0x3d85c465	0.065316
94	0xbdea1daf	-0.11431443
95	0x3e1f79e7	0.15573846
96	0x3e340014	0.17578155
97	0xbc9458b0	-0.018108696
98	0xbe46fdb5	-0.19432719
99	0xbd004002	-0.031311043
100	0x3d204ebc	0.039137587
101	0x3d72bb5e	0.05926072
102	0x3e5bd2c0	0.21467113
103	0xbe10d102	-0.1414223
104	0xbda24fe0	-0.07925391
105	0x3db242fc	0.087041825
106	0x3dae753d	0.08518455
107	0x3ee77d71	0.45212892
108	0xbd3a99b1	-0.045556728
109	0x3e4352ad	0.19074507
110	0xbd6e4ef9	-0.058180783
111	0x3e6fd346	0.23420438
112	0x3d4e8a6c	0.050424978
113	0x3e716848	0.23574936
114	0xbeabd3f4	-0.33560145
115	0xbe223ccc	-0.15843505
116	0x3e74b5f3	0.23897533
117	0x3e13ae42	0.14421943
118	0x3d5bf76d	0.05370276
119	0xbcc02e42	-0.023459557
120	0xbb48d198	-0.0030642506
121	0x3db38ce4	0.08767107
122	0x3d30fbe3	0.043208968
123	0x3ee6fb29	0.45113495
124	0xbcd8069f	-0.026370345
125	0xbeb53990	-0.3539548
126	0xbdf2dc76	-0.11858456
127	0x3e1dc043	0.15405373
128	0xbe66d5bf	-0.22542475
129	0xbd8bcb44	-0.06825879
130	0xbe4c44eb	-0.19948165
131	0xbee44fe9	-0.44592217
132	0x3de1422f	0.10998952
133	0x3e3b5489	0.18293966
134	0xbcd0fe58	-0.025511906
135	0x3e3c9acb	0.18418424
136	0x3dba19de	0.09086965
137	0x3d81c566	0.06336479
138	0x3d833dd6	0.06408279
139	0x3e06cc4a	0.13163868
140	0xbdbd7b11	-0.09251989
141	0x3aeebaed	0.0018213667
142	0x3d8c9e2f	0.068661086
143	0x3e5c2f64	0.21502453
144	0x3d4cc911	0.04999644
145	0x3cca912d	0.024727428
146	0xbe6a64cf	-0.22890018
147	0x3dcd1386	0.100134894
148	0x3e4ac0f9	0.19800176
149	0x3e06d2d6	0.13166365
150	0xbdea0f3a	-0.114286855
151	0x3db5b256	0.088719055
152	0x3e6456b3	0.22298698
153	0x3e99d249	0.30043247
154	0xbebced58	-0.3689983
155	0x3e37e92b	0.1796004
156	0xbe4a351e	-0.19746825
157	0xbe046dd1	-0.12932517
158	0xbc26d561	-0.010182709
159	0x3d5c91c4	0.05384995
160	0x3ec0e8a9	0.37677506
161	0x3e39606f	0.18103193
162	0xbdbe7c77	-0.093010835
163	0x3e7655db	0.24056189
164	0x3e815f87	0.25268194
165	0x3e373c1a	0.1789402
166	0x3c8f53a5	0.01749594
167	0xbd1cf908	-0.038323432
168	0x3d7149a3	0.058908116
169	0xbd0bac66	-0.03409996
170	0x3e176579	0.14784802
171	0xbf0d67b2	-0.5523635
172	0x3e98bb19	0.29830244
173	0xbda528af	-0.080644004
174	0x3d08bb03	0.033381473
175	0xbe678abb	-0.22611515
176	0xbd50a3a8	-0.050937325
177	0x3d207f14	0.03918369
178	0x3dd4b1ee	0.103855
179	0xbcb4441a	-0.02200513
180	0xbd7b2bee	-0.06132119
181	0xbe452b73	-0.19254856
182	0x3e2374fc	0.15962595
183	0xbe3a00e8	-0.18164408
184	0xbd35a089	-0.04434255
185	0x3e23ca85	0.15995224
186	0xbdbaaea5	-0.09115342
187	0xbdb06f6e	-0.086150035
188	0xbe26e9b6	-0.16300091
189	0xbdb73ee8	-0.08947545
190	0x3dd92e01	0.10604478
191	0x3e023df1	0.12718941
192	0xbd463546	-0.04839065
193	0x3e44ed93	0.19231252
194	0x3bca00e8	0.006164659
195	0x3e14d1c6	0.14533147
196	0xbed69594	-0.41910994
197	0xbf0ff2fa	-0.5623013
198	0xbedf365f	-0.4359617
199	0x3e3915d8	0.18074739
200	0x3d9542ee	0.072881564
201	0xbd047954	-0.03234227
202	0x3d0685e7	0.032842543
203	0xbda76e1e	-0.081753
204	0x3da1efcb	0.07907065
205	0x3db30332	0.08740844
206	0xbd6de991	-0.058084074
207	0xbc5aab51	-0.013346509
208	0x3cc4b689	0.02401282
209	0xbdd583e5	-0.104255475
210	0xbe59fbcf	-0.21287464
211	0xbd7f4ce6	-0.062329195
212	0x3e101ecd	0.1407425
213	0x3cedaaea	0.029012162
214	0xbe522ec0	-0.20525646
215	0x3e058359	0.13038386
216	0x3da07355	0.07834498
217	0x3da78ecd	0.08181534
218	0x3cad4fe2	0.021156255
219	0xbd77c867	-0.060493853
220	0x3e9388a3	0.28815183
221	0x3e85799e	0.2606935
222	0x3ea36bd0	0.31918192
223	0x3df01c25	0.11724118
224	0xbe45847a	-0.19288817
225	0x3c9e05b2	0.019289825
226	0xbea4a7e0	-0.32159328
227	0xbe902dd7	-0.28159973
228	0x3c324d26	0.010882651
229	0x3e26e66c	0.16298836
230	0x3ce90ddf	0.028448997
231	0x3e874702	0.26421362
232	0x3d997ee2	0.07494904
233	0xbd467f00	-0.04846096
234	0x3d740aed	0.059580732
235	0x3eafd136	0.34339303
236	0x3e2601b8	0.16211593
237	0x3e17c1b5	0.14819987
238	0x3dbfc364	0.0936344
239	0xbdfdb1d7	-0.12387436
240	0x3a8111c4	0.0009847214
241	0xbdd18dc3	-0.10232117
242	0xbe70c14b	-0.23511235
243	0xbce3d432	-0.027811144
244	0x3e3380ce	0.17529604
245	0x3dfd542d	0.12369571
246	0xbb8acb9c	-0.004235698
247	0x3d8733a6	0.06601648
248	0xbde675da	-0.11252947
249	0x3d9698a5	0.073533334
250	0xbba61408	-0.005068306
251	0xbdae5110	-0.08511555
252	0x3d1670e5	0.03672876
253	0xbe527b54	-0.20554858
254	0xbe59dd7b	-0.21275894
255	0x3d922cc4	0.071374446

model.2.bias f4 [64]
0	0x3f3d0451	0.7383471
1	0x3ea68c89	0.32529095
2	0x3efd51ba	0.49476415
3	0x3d19532b	0.03743283
4	0xbe1012e0	-0.140697
5	0xbd4c9c7b	-0.04995392
6	0xbe2cd6c1	-0.16878797
7	0x3ed35286	0.41273898
8	0xbdeb331d	-0.114843585
9	0xbd87a1a8	-0.0662263
10	0x3dab04a9	0.08350498
11	0x3e1f8f70	0.15582061
12	0xbe526d67	-0.20549546
13	0xbcf1e3b1	-0.029527517
14	0x3e810dc6	0.2520582
15	0xbe2743fb	-0.16334526
16	0x3e8ad4cd	0.2711548
17	0xbde6c2e4	-0.11267641
18	0xbdb5e3c2	-0.08881332
19	0xbe9a893e	-0.30182832
20	0xbd71ea00	-0.05906105
21	0xbd41c39a	-0.04730568
22	0xbda4ee7c	-0.080533
23	0xbe6cd46e	-0.2312791
24	0xbe4d2bec	-0.20036286
25	0xbe8bc9a8	-0.2730229
26	0xbe2cd376	-0.16877541
27	0xbe561465	-0.20906217
28	0xbbc2da50	-0.005946435
29	0x3d33ffa0	0.043944955
30	0xbd8cf440	-0.068825245
31	0xbb8cedcd	-0.004300809
32	0xbdff37c0	-0.12461805
33	0x3e41e1d4	0.18933803
34	0xbd27854e	-0.040898614
35	0x379de034	1.8820261e-05
36	0xbc9f0b97	-0.019414706
37	0xbd7bb441	-0.0614512
38	0xbdb82eae	-0.089932784
39	0x3c8775c8	0.016535655
40	0xbd878502	-0.06617166
41	0xbde0e51b	-0.109811984
42	0xbe2ce0d4	-0.1688264
43	0x3e8b9919	0.27265242
44	0xbe288c7d	-0.16459842
45	0xbee6494f	-0.44977805
46	0xbec1149a	-0.3771103
47	0x3e6ccfec	0.23126191
48	0xbdf41b98	-0.119193256
49	0x3e2b5275	0.16730674
50	0xbe42e295	-0.19031747
51	0xbe47066c	-0.19436044
52	0x3e95af0f	0.29235122
53	0xbe0bb70b	-0.13644044
54	0x3d65e836	0.056129657
55	0x3e258cb9	0.16166963
56	0xbe8a635e	-0.27028936
57	0xbd51f46f	-0.0512585
58	0xbe6b8c6a	-0.23002782
59	0xbdb707ff	-0.08937072
60	0x3c9e44b2	0.019319866
61	0xbd91f8c4	-0.071275264
62	0xbda24bf3	-0.079246424
63	0xbca0e302	-0.019639496

model.4.weight f4 [4, 64]
0	0x3e5a4dee	0.2131879
1	0x3df58962	0.11989094
2	0x3dbf01a0	0.09326482
3	0x3d1ebfb2	0.038757034
4	0x3d5c3cd3	0.053768944
5	0xbe8af61f	-0.271409
6	0xbe54385c	-0.20724624
7	0x3e11adcf	0.14226459
8	0xbcc2c6f2	-0.023776505
9	0xbe8506e8	-0.25981832
10	0x3cd9752f	0.026545135
11	0x3cb0b590	0.02157095
12	0xbd05bf25	-0.032652993
13	0xbe605301	-0.21906663
14	0x3d34238f	0.043979224
15	0x3d02115e	0.031754844
16	0x3e184f0b	0.14873902
17	0x3db8f415	0.0903093
18	0xbdf8c5f3	-0.12147131
19	0xbdd40679	-0.10352797
20	0xbd581b61	-0.052760486
21	0xbe8a1d1c	-0.26975334
22	0xbec0c12a	-0.37647372
23	0x3d4889d6	0.048959576
24	0x3da907e6	0.0825346
25	0x3e9caf99	0.3060272
26	0xbdfb0809	-0.12257392
27	0xbe0b75c1	-0.13619138
28	0x3df6334a	0.12021501
29	0xbc7b9282	-0.015354754
30	0xbe043c74	-0.12913686
31	0xbc229f36	-0.009925654
32	0x3ba0dee0	0.0049093813
33	0x3e3a7c58	0.18211496
34	0x3e0bc416	0.1364902
35	0x3dab472e	0.08363186
36	0x3e8e12f5	0.27748838
37	0xbd5de0ed	-0.054169584
38	0x3e08fc04	0.13377386
39	0xbec8b2ec	-0.39199007
40	0x3d1414e7	0.036152747
41	0x39ba5b11	0.00035544534
42	0xbf062eba	-0.5241505
43	0x3da70c0c	0.08156595
44	0xbc1639fc	-0.009169098
45	0xbe12170b	-0.14266603
46	0xbdf7c0d6	-0.120973274
47	0x3e50e0c9	0.20398249
48	0x3d65fb09	0.05614761
49	0x3c9a7d7d	0.018858666
50	0xbebcda43	-0.3688527
51	0xbe2a5142	-0.1663256
52	0x3d8307f2	0.06398
53	0x3db3fdbe	0.08788632
54	0xbca4ac17	-0.02010159
55	0x3d1d9812	0.038475104
56	0xbdd1e434	-0.102486044
57	0xbe168c2c	-0.14701909
58	0xbeda4a74	-0.42634928
59	0xbda02e0d	-0.078212835
60	0xbe6f53f9	-0.23371877
61	0x3d36b224	0.044603482
62	0xbed26fb3	-0.41100845
63	0x3e36674e	0.17812845
64	0x3e589836	0.21151814
65	0x3c72a4b9	0.014809781
66	0x3ddd6a7f	0.10811328
67	0x3d8b9193	0.068148755
68	0xbbbfc119	-0.0058518765
69	0xbd9ee67f	-0.077588074
70	0x3e92e7fd	0.28692618
71	0x3dcf6776	0.101271555
72	0xbd707110	-0.058701575
73	0xbc39efd5	-0.011348684
74	0x3d9647c4	0.07337907
75	0x3dc1e086	0.094666526
76	0x3eb82ed2	0.3597322
77	0x3ced958d	0.029001975
78	0x3db38007	0.08764654
79	0x3dfa72da	0.122289374
80	0x3e0a0e0e	0.13481924
81	0x3e808290	0.2509961
82	0x3dd07103	0.10177805
83	0xbeb2e77d	-0.34942237
84	0x3d8f2522	0.069895044
85	0x3cf284ab	0.029604277
86	0xbe378574	-0.17922002
87	0xbd27e4a4	-0.040989533
88	0xbc67f856	-0.014158329
89	0x3e2b7a04	0.16745764
90	0x3de80d85	0.11330704
91	0xbd85fb58	-0.06542081
92	0x3eba8733	0.36431274
93	0x3d946756	0.07246272
94	0xbd44cdba	-0.04804776
95	0x3d888ad2	0.06667103
96	0xbda26f94	-0.07931438
97	0x3e07e039	0.13269128
98	0x3e583df2	0.2111738
99	0xbe83a74c	-0.25713575
100	0x3ea0336d	0.31289235
101	0xbeafc2a2	-0.3432818
102	0x3e44b41a	0.19209328
103	0xbe20cb09	-0.15702452
104	0xbdcccbc7	-0.09999805
105	0x3d025862	0.03182257
106	0x3e869f01	0.26293185
107	0x3dea3406	0.11435704
108	0x3c3c3edd	0.011489597
109	0xbe06eefd	-0.13177104
110	0xbe19891c	-0.1499371
111	0x3e45c71e	0.19314238
112	0xbedb56c6	-0.4283964
113	0x3da77bde	0.08177923
114	0x3cc89b20	0.024488032
115	0x3e2c5358	0.16828668
116	0x3e1553be	0.14582726
117	0xbdf1624a	-0.11786325
118	0xbea9421c	-0.3305825
119	0x3e3260c0	0.1741972
120	0xbc99e678	-0.018786654
121	0xbdf0788a	-0.11741741
122	0x3e2a41d2	0.16626671
123	0xbddfd2bb	-0.109288655
124	0x3ca1636a	0.019700725
125	0x3e458d70	0.19292235
126	0xbd1f41a5	-0.038880963
127	0xbec3a3d0	-0.38210917
128	0x3e517c76	0.20457634
129	0x3dff87de	0.124770865
130	0x3e1a86cd	0.15090485
131	0x3aff69e0	0.0019486509
132	0x3e1505f2	0.14553049
133	0xbc3cb2dd	-0.011517254
134	0x3e91d1b1	0.28480294
135	0x3ce46ded	0.027884448
136	0xbe0777b9	-0.13229264
137	0xbea929f5	-0.33039823
138	0x3ccc1c5f	0.024915872
139	0xbd9c9aa6	-0.07646684
140	0x3dcd10d5	0.10012976
141	0xbe8319b6	-0.25605553
142	0x3dd61436	0.10453074
143	0x3e91cd7e	0.2847709
144	0x3cfdf237	0.030999286
145	0xbeb9a31d	-0.36257258
146	0x3d6773d1	0.056506936
147	0xbe09fe65	-0.1347595
148	0x3e588f55	0.21148427
149	0xbd63cea2	-0.055616982
150	0xbe4eb0a3	-0.20184569
151	0x3d77e9f5	0.060525853
152	0xbde26d0d	-0.11055956
153	0x3e8b66a4	0.27226746
154	0x3dd29f23	0.10284259
155	0xbe5550bc	-0.20831579
156	0x3d3979db	0.045282226
157	0x3d9872bb	0.07443758
158	0x3d9fd4e7	0.0780428
159	0xbec821c4	-0.3908826
160	0x3b7e2abf	0.0038782803
161	0x3e18f23a	0.14936152
162	0x3e599022	0.21246389
163	0xbde6224c	-0.1123701
164	0x3e720301	0.23633958
165	0x3d053a81	0.032526497
166	0xbe4bc649	-0.19899859
167	0xbea82554	-0.3284098
168	0x3d8c0eb4	0.06838742
169	0xbdb54f54	-0.08853021
170	0x3eb92527	0.36161157
171	0x3dcaf1dc	0.09909412
172	0x3dec3de4	0.11535242
173	0x3d8294a3	0.063760065
174	0xbe300d46	-0.17192563
175	0xbc252765	-0.010080193
176	0xbe4635de	-0.19356486
177	0x3e21fef7	0.15819918
178	0x3e0e1804	0.13876349
179	0x3e612ec4	0.21990496
180	0x3c0df2d0	0.008663848
181	0xbd92b8b4	-0.071641356
182	0xbe0d57b3	-0.13802986
183	0x3e148b21	0.14506198
184	0x3d6c31f6	0.057664834
185	0xbeb7abc5	-0.35873237
186	0x3c9bc12e	0.019013014
187	0xbe87d2b1	-0.26527932
188	0x3d679bdc	0.056545123
189	0x3ebd2976	0.36945695
190	0x3e6cfb9e	0.2314286
191	0x3e8636ac	0.26213586
192	0x3e5c3219	0.21503486
193	0x3d89964f	0.06718122
194	0x3d854780	0.06507778
195	0x3e255003	0.16143803
196	0x3d575a15	0.052576143
197	0xbebcb11b	-0.3685387
198	0xbe648159	-0.22314967
199	0xbc117a78	-0.0088792965
200	0x3e35cfd8	0.17755067
201	0xbd50734f	-0.050891217
202	0x3db21934	0.08696213
203	0x3e05a87d	0.13052554
204	0xbd2b848b	-0.04187445
205	0xbd4da60b	-0.05020718
206	0x3e2e9b31	0.17051388
207	0x3e96a9ab	0.2942632
208	0x3e72cc1d	0.23710676
209	0x3e65444a	0.22389331
210	0x3e103a27	0.14084683
211	0xbb4e8f0c	-0.0031518368
212	0xbe7860f9	-0.24255742
213	0xbe98cd51	-0.29844144
214	0xbe84ba84	-0.2592355
215	0xbe52bf7d	-0.2058086
216	0xbe0cf7e9	-0.13766445
217	0x3c9e8e33	0.019354915
218	0x3ec929e8	0.39289784
219	0x3e0dc866	0.13845977
220	0xbdf32bf2	-0.11873616
221	0xbb993380	-0.0046753287
222	0x3d167816	0.036735617
223	0xbe72b7bf	-0.23702906
224	0xbc47ffc3	-0.012206974
225	0x3caa2c4c	0.020773076
226	0x3d032f7c	0.032027707
227	0xbca75a6e	-0.020428862
228	0x3ea5df27	0.32396814
229	0x3e8555b4	0.2604195
230	0xbdb20e96	-0.08694188
231	0xbd6b0c81	-0.05738497
232	0x3cbe8f8b	0.023261806
233	0xbd9d2bc6	-0.07674365
234	0xbe2faecd	-0.17156525
235	0x3dc04d5b	0.093897544
236	0x3d98aa30	0.07454336
237	0xbe8bc9d9	-0.27302435
238	0xbdb7496e	-0.089495525
239	0xbc1b1e68	-0.009467699
240	0xbcff22cc	-0.031144522
241	0x3d2fd765	0.042930026
242	0x3cafaec4	0.02144564
243	0xbe6c357f	-0.23067282
244	0x3dd363b7	0.103217535
245	0xbe90cff5	-0.2828366
246	0x3c8462f9	0.016160475
247	0xbc7aae80	-0.015300393
248	0x3dcc1d9a	0.099665835
249	0xbe693f41	-0.22778036
250	0xbe872dd9	-0.26402166
251	0xbeb097b8	-0.34490752
252	0x3e570bb6	0.21000561
253	0xbd33935b	-0.0438417
254	0x3d05e74c	0.032691285
255	0xbd3cd7fd	-0.04610442

model.4.bias f4 [4]
0	0x3eea382a	0.45745975
1	0x3ed25718	0.41082072
2	0x3eefd3f4	0.46841395
3	0x3ee31882	0.44354635
