models/7/q_final_n318.pt (torch, 131223 bytes, 6 tensors)

model.0.weight f4 [128, 185]
-0.2268306 -0.31815132 0.22007154 -0.031067502 -0.219157 -0.10411512 0.37666973 -0.39596295
-0.2433387 0.26810953 0.2750452 -0.065201156 -0.1902303 -0.30800194 -0.31275332 -0.18560016
-0.17453036 -0.077043846 0.3174985 -0.20671979 0.2199544 -0.0023356173 -0.28026927 -0.09272894
-0.053885024 0.1264718 -0.5366507 -0.04833754 0.1134581 -0.21640208 0.24371974 -0.12707765
-0.08465731 -0.7511599 0.04914636 0.05626117 -0.028496897 -0.17207357 -0.15455352 0.1726861
-0.1618564 -0.025104519 0.07243457 0.015471306 -0.4097345 -0.7661231 0.26637492 -0.04566307
0.17034325 -0.14370576 -0.2848905 -0.092079245 -0.13543643 0.0003786228 -0.07179479 0.19972143
-0.046872158 -0.021270247 0.10556215 -0.20104788 0.14841008 -0.0865174 0.11906244 -0.25824845
-0.1901857 -0.14211345 0.040028248 -0.06551923 0.07639206 -0.16235463 0.18692188 0.0029075067
0.17877638 -0.0051393355 -0.14197248 -0.12616868 0.13490745 0.033618264 -0.11064396 0.15304758
-0.27168623 -0.32671687 -0.7581609 0.1903231 0.0033102997 0.088558145 0.13553937 -0.4439108
-0.2227353 0.21092351 -0.26305798 -0.04666075 -0.020031307 0.06523447 0.064256825 0.114113025
-0.24890135 -0.5610944 -0.11819122 0.24569683 -0.241925 -0.32954082 -0.51355946 0.10571103
-0.104525454 0.07049836 0.015653186 0.011821439 0.17281048 0.27616432 -0.015058315 -0.06593384
-0.08667318 -0.006173286 -0.020608228 -0.022934673 0.20920965 -1.0847908 -0.73378897 -0.19922912
-0.22304034 -0.04647653 -0.005940591 -0.16307497 0.10409959 -0.58991766 -0.03387593 -0.19659372
0.18511434 -0.23496208 0.051281348 0.27794036 -0.4967285 -0.26980707 0.11143634 -0.30467713
0.24497846 -0.58142525 -0.27706552 -0.3258727 0.11012869 0.05482934 -0.020740815 -0.11217588
-0.10735581 0.0065109655 0.05770847 -0.024356635 0.18250027 0.12242065 -0.3550836 -0.3357288
-0.043602295 0.32041314 -0.57947856 -0.8556819 -0.4439802 -0.33549064 0.27111647 -0.47140765
-0.036971785 -0.7444206 -0.71223444 -0.14393397 0.065137096 0.06528112 -0.41599566 0.037376195
-0.13786392 0.12532674 -0.03257414 0.010024355 -0.04934778 -0.09925484 0.26118794 -0.13869764
-0.14767924 -0.006789331 -0.2687027 -0.26924282 0.2668115 0.09285399 -0.021666298 -0.078160636
-0.13978313 0.093768954 -0.39302203 -0.4228278 0.54518396 -0.17603666 -0.010706029 0.2650839
-0.14246708 -0.1925615 -0.08170943 0.21453996 -0.19007148 -0.27274805 -0.12452932 -0.5757113
0.2855613 -0.27649826 -0.14490503 -0.5195406 -0.3365967 0.0068239244 -0.19037463 0.12762637
-0.3045376 -0.1178361 -0.10352049 0.17164063 -0.222187 -0.47845316 0.17888531 -0.29262727
-0.09287966 0.055724196 0.14020629 -0.2647508 0.4127663 0.21110058 -0.054183256 -0.43137926
-0.077483945 0.20998625 -0.12872714 -0.027155692 0.03161438 -0.49400315 0.0099174455 -0.38185003
0.18633085 0.012854886 -0.37628815 0.15565309 -0.41356215 0.18406272 -0.045393717 -0.50996786
-0.018912083 -0.31363553 0.044578232 -0.0055989157 -0.14024454 -0.26966894 -0.4617725 0.067129664
0.18421344 -0.6749023 0.06448373 -0.090189375 -0.430924 0.013678524 0.15032889 -0.09179966
00000000: 4846 68be bbe4 a2be 6f5a 613e 4681 febc
00000010: b16a 60be 4f3a d5bd dbda c03e a8bb cabe
00000020: c82d 79be a745 893e b9d2 8c3e 2f88 85bd
00000030: bbcb 42be 6eb2 9dbe 3421 a0be f80d 3ebe
00000040: 16b8 32be 2ac9 9dbd 2a8f a23e 5aae 53be
00000050: ba3b 613e 2811 19bb 747f 8fbe ace8 bdbd
00000060: 8bb6 5cbd d381 013e f161 09bf 96fd 45bd
00000070: b85c e83d 8298 5dbe ab91 793e a520 02be
00000080: d060 adbd 044c 40bf b24d 493d 1d72 663d
00000090: 5372 e9bc 0e34 30be 4743 1ebe a0d4 303e
000000a0: afbd 25be fea7 cdbc 9358 943d 5c7b 7d3c
000000b0: b8c8 d1be a520 44bf 4b62 883e 3309 3bbd
000000c0: 766e 2e3e 9a27 13be 2bdd 91be 0b94 bcbd
000000d0: d9af 0abe e481 c639 2609 93bd c683 4c3e
000000e0: 05fd 3fbd f13e aebc f830 d83d 7fdf 4dbe
000000f0: d0f8 173e 0930 b1bd 02d7 f33d 2439 84be
00000100: 0ac0 42be 3086 11be a9f4 233d f22e 86bd
00000110: 7173 9c3d 4b40 26be 7368 3f3e de8b 3e3b
00000120: 2811 373e df67 a8bb 3c61 11be 5d32 01be
00000130: 2e25 0a3e 4eb3 093d 4d99 e2bd 81b8 1c3e
00000140: 751a 8bbe 6f47 a7be d516 42bf 0fe4 423e
00000150: 9df1 583b f95d b53d d5ca 0a3e 4748 e3be
00000160: b914 64be 55fc 573e 89af 86be 581f 3fbd
00000170: b218 a4bc a699 853d 1599 833d 17b4 e93d
00000180: ffdf 7ebe e2a3 0fbf 3d0e f2bd f397 7b3e
00000190: 30bb 77be 93b9 a8be a278 03bf 067f d83d
000001a0: 7111 d6bd 7261 903d 1c3b 803c b5ae 413c
000001b0: 3bf5 303e 6965 8d3e 27b7 76bc 5208 87bd
000001c0: b581 b1bd 4749 cabb 96d2 a8bc 7fe1 bbbc
000001d0: 0e3b 563e 6dda 8abf 98d9 3bbf b802 4cbe
000001e0: b064 64be 2d5e 3ebd 4aa9 c2bb 20fd 26be
000001f0: 2a32 d53d d804 17bf 7dc1 0abd dd4f 49be
00000200: 9d8e 3d3e e699 70be 640c 523d 334e 8e3e
00000210: 3353 febe 2724 8abe bc38 e43d a4fe 9bbe
00000220: a2db 7a3e 49d8 14bf 88db 8dbe c9d8 a6be
00000230: 278b e13d bb94 603d a4e8 a9bc 78bc e5bd
00000240: 5ddd dbbd f059 d53b b75f 6c3d 9187 c7bc
00000250: 5ae1 3a3e aeb7 fa3d 85cd b5be a5e4 abbe
00000260: 5298 32bd 310d a43e b558 14bf f80d 5bbf
00000270: 5f51 e3be 6ec5 abbe c7cf 8a3e 585c f1be
00000280: ba6f 17bd 5992 3ebf ff54 36bf 6d63 13be
00000290: 9966 853d 1cb2 853d 62fd d4be c817 193d
000002a0: 332c 0dbe a755 003e 766c 05bd 313d 243c
000002b0: e620 4abd 1f46 cbbd 6dba 853e c106 0ebe
000002c0: 3a39 17be 0979 debb 6693 89be 32da 89be
000002d0: 849b 883e 3c2a be3d 857d b1bc af12 a0bd
000002e0: 4f23 0fbe f009 c03d 2f3a c9be e37c d8be
000002f0: 2d91 0b3f f442 34be 5768 2fbc 14b9 873e
00000300: e4e2 11be d82e 45be 4657 a7bd 5db0 5b3e
00000310: 19a2 42be a2a5 8bbe 3a09 ffbd d161 13bf
00000320: 1735 923e 2e91 8dbe fc61 14be 9d00 05bf
00000330: 6756 acbe 3a9b df3b 91f1 42be 7db0 023e
00000340: 5aec 9bbe 0e54 f1bd 8d02 d4bd 90c2 2f3e
00000350: fd84 63be d0f7 f4be b62d 373e 3ed3 95be
00000360: b137 bebd 0e3f 643d 3d92 0f3e 6b8d 87be
00000370: 1b56 d33e c02a 583e 43ef 5dbd bedd dcbe
00000380: e7af 9ebd a306 573e 0cd1 03be 9d75 debc
00000390: 157e 013d fbed fcbe c87c 223c d981 c3be
000003a0: 84cd 3e3e 4d9d 523c d7a8 c0be 8663 1f3e
000003b0: 6bbe d3be f07a 3c3e c3ee 39bd 418d 02bf
000003c0: 83ed 9abc d694 a0be aa97 363d 1c77 b7bb
000003d0: 449c 0fbe 0c12 8abe 726d ecbe 477b 893d
000003e0: 73a2 3c3e 66c6 2cbf 0c10 843d 35b5 b8bd
000003f0: 12a2 dcbe e31b 603c d1ef 193e 7601 bcbd

model.0.bias f4 [128]
-0.10024548 -0.028266022 -0.031405162 -0.042506676 -0.0604068 -0.04178082 0.0027306234 -0.04454114
0.07141474 -0.12874144 -0.1397476 -0.11974773 -0.14363389 -0.09830464 -0.089614965 0.08561036
0.12529776 0.12761857 -0.0612952 -0.16842735 -0.13282119 -0.008226597 -0.113850564 0.047469713
-0.09487909 0.008691954 -0.12267104 -0.12719245 0.0149105955 -0.041361764 0.032667115 -0.1608012
-0.05028781 -0.1112611 0.024978371 -0.097678356 -0.087371655 -0.05851892 -0.08665769 -0.13640724
0.056054253 -0.08224452 -0.25108027 -0.051134046 -0.18719783 -0.043018337 -0.059725072 0.052939445
-0.009494531 -0.0143278055 -0.028530192 -0.076589644 0.026279308 -0.019119479 -0.08401455 0.005196875
-0.048846576 -0.084935345 0.042180546 -0.11658747 -0.11098494 -0.036771264 -0.0690042 0.00089403766
-0.12816535 -0.10207678 -0.13491185 -0.17539194 -0.027508508 -0.014392753 -0.06969304 -0.04600373
-0.08311921 -0.02620921 -0.15630755 -0.07101324 -0.035767592 -0.018977506 0.07891477 0.03639433
-0.047232185 -0.07704844 -0.2029817 -0.13133538 -0.15428959 -0.084644295 -0.068367 0.040775947
0.02248653 -0.11508616 -0.09353626 -0.027780512 -0.08757703 -0.026076641 -0.1808251 -0.037079215
-0.014735391 -0.066561855 0.106645435 -0.116423495 -0.12255302 -0.04543105 -0.08473587 -0.057188462
0.038803853 0.0048043956 -0.051556066 0.034772497 -0.03319333 -0.02112626 0.030422352 -0.021909816
-0.1124 0.0048557995 -0.1218886 -0.14503671 -0.029428892 -0.04091139 -0.062031757 -0.15469173
-0.10555658 -0.07308813 -0.104457214 -0.034704987 0.029413164 -0.19998091 0.05395099 0.044194277
00000000: 814d cdbd 258e e7bc b3a2 00bd 7b1b 2ebd
00000010: 1f6d 77bd 5d22 2bbd 42f4 323b c570 36bd
00000020: e441 923d ccd4 03be ff19 0fbe 4c3e f5bd
00000030: c314 13be f153 c9bd 0d88 b7bd 7c54 af3d
00000040: 0e4e 003e 71ae 023e ad10 7bbd 3878 2cbe
00000050: 4702 08be d9c8 06bc 7c2a e9bd 9a6f 423d
00000060: f84f c2bd b368 0e3c f43a fbbd bd3e 02be
00000070: 924b 743c f46a 29bd f4cd 053d 12a9 24be
00000080: 97fa 4dbd dcdc e3bd 719f cc3c 970b c8bd
00000090: e9ef b2bd 89b1 6fbd 9679 b1bd 57ae 0bbe
000000a0: 2599 653d d16f a8bd 988d 80be ef71 51bd
000000b0: cab0 3fbe ff33 30bd 47a2 74bd 08d7 583d
000000c0: f38e 1bbc 2cbf 6abc 26b8 e9bc 08db 9cbd
000000d0: b447 d73c 74a0 9cbc d20f acbd 8c4a aa3b
000000e0: 5913 48bd 95f2 adbd 82c5 2c3d 69c5 eebd
000000f0: 124c e3bd 779d 16bd 1352 8dbd da5d 6a3a
00000100: c73d 03be a10d d1bd 5526 0abe f299 33be
00000110: 8659 e1bc 95cf 6bbc 39bb 8ebd 686e 3cbd
00000120: 683a aabd b2b4 d6bc 160f 20be 646f 91bd
00000130: 0a81 12bd b776 9bbc 119e a13d 3912 153d
00000140: 8976 41bd 93cb 9dbd 6fda 4fbe c87c 06be
00000150: 17fe 1dbe fd59 adbd ff03 8cbd ae04 273d
00000160: ac35 b83c 4bb2 ebbd f08f bfbd f593 e3bc
00000170: 965b b3bd ae9e d5bc 372a 39be 60e0 17bd
00000180: b66c 71bc 9551 88bd ec68 da3d 716f eebd
00000190: 14fd fabd e915 3abd 008a adbd 733e 6abd
000001a0: caf0 1e3d 316e 9d3b 742c 53bd 9b6d 0e3d
000001b0: bbf5 07bd fa10 adbc 4c38 f93c 377c b3bc
000001c0: f931 e6bd 661d 9f3b bba0 f9bd 8184 14be
000001d0: dc14 f1bc b492 27bd 0315 7ebd 8267 1ebe
000001e0: 0c2e d8bd 3baf 95bd aaed d5bd d126 0ebd
000001f0: e0f3 f03c ccc7 4cbe b7fb 5c3d 0f05 353d

model.2.weight f4 [64, 128]
-0.17165121 -0.060290825 -0.05295357 0.047233354 -0.023849953 -0.056357156 -0.37482023 0.15152927
0.114182204 -0.018604621 0.09146133 -0.16718473 -0.047745626 0.24235167 -0.023984056 0.3022779
-0.17044944 -0.04381822 0.21838832 0.39955264 -0.11200152 0.14686896 0.027788384 -0.3288072
0.1901786 -0.020492624 -0.16410892 0.12137229 -0.16236277 -0.04288674 0.10949046 0.13054892
-0.22660059 -0.0603679 -0.027585981 -0.08810021 -0.021833109 0.09019469 -0.015054493 -0.1729079
0.10317532 -0.45965737 -0.070948415 -0.059389822 -0.10617025 0.20543905 0.047800075 -0.0878138
-0.19762892 0.12000778 0.103495255 0.019666033 -0.1865849 -0.04311826 -0.059531704 0.1901416
-0.17573503 0.23799223 -0.05854602 -0.22518535 0.073320985 -0.024273597 -0.4317027 -0.07562719
0.0062184334 0.10208409 -0.030003358 -0.030794196 -0.0010536494 -0.15591699 -0.0727473 -0.036277514
-0.41839004 0.08276254 0.065136686 0.24892871 -0.3409981 -0.30196697 0.09883186 -0.07354441
-0.0015209059 0.18346286 -0.023629185 0.3128793 -0.06001605 0.03883257 -0.2631407 -0.11097254
0.034886505 -0.11817621 0.14473271 -0.33986086 -0.22437805 -0.13166231 0.090589225 -0.25519302
-0.07056031 -0.24855503 -0.14148672 -0.032140505 0.337983 -0.1114274 0.078610785 0.056801952
-0.017812192 -0.4530253 0.0230686 -0.34155178 0.094213575 -0.16121334 0.061288733 -0.14316843
-0.009764455 -0.02957822 0.06017694 0.010821562 0.088674694 -0.11309598 0.16277356 -0.29148954
0.09851625 -0.16413292 -0.07959204 -0.26015368 -0.11199203 -0.19155718 -0.11741817 0.21236774
-0.051787447 -0.13501297 -0.024659507 -0.044195805 -0.1620115 -0.21845339 -0.21634504 -0.14556383
-0.25979042 0.08799967 -0.030143691 0.0012122284 0.07956757 -0.077674516 -0.031707946 -0.068285614
-0.15516607 -0.53467965 -0.11106429 -0.08194634 -0.31398502 0.23310831 -0.039153505 0.08592435
-0.29793727 -0.1037186 -0.1617619 -0.14738749 -0.13938612 0.0043788776 0.0025409034 0.095104024
-0.04766659 0.0051742685 -0.1925368 -0.17499197 0.039278805 0.015383143 -0.038831756 -0.029346308
0.19469032 -0.2654569 -0.24765247 0.06599933 -0.14613998 -0.047607407 -0.05350965 0.035929687
-0.22249429 0.026535371 -0.11265969 -0.029141558 -0.050074205 0.04664777 0.02396194 0.17858697
-0.010578414 -0.054243546 0.09657936 -0.084592246 0.11464342 0.044888236 -0.07510162 -0.19204411
-0.0365436 -0.011359897 -0.29187584 -0.10330213 -0.015645191 -0.019985082 -0.038824383 -0.019148396
-0.20018499 -0.07610974 -0.05905032 0.26826346 -0.11800082 -0.11913553 0.03382483 -0.15334563
-0.21612908 -0.07060844 0.012077371 0.004324267 -0.116066456 -0.02940254 -0.08561973 0.03657826
-0.03569762 0.0027676956 -0.25429016 -0.099643774 -0.07487342 0.044858377 -0.20896025 0.101091795
-0.15280834 0.1239911 0.045399077 -0.08303192 0.07362114 -0.0570704 -0.10438096 -0.031973094
-0.09575122 0.05088178 0.32841748 0.13686678 -0.010512071 -0.27456993 -0.18674703 -0.030264707
0.028500581 -0.118439674 0.09339691 -0.09382034 0.04771558 0.07631796 -0.094217844 -0.08255904
0.013289242 -0.06547129 -0.15137427 -0.2562262 0.07500832 -0.0141368 -0.036402192 -0.28329346
00000000: 56c5 2fbe 83f3 76bd d8e5 58bd c377 413d
00000010: fa60 c3bc c3d6 66bd 70e8 bfbe 7d2a 1b3e
00000020: 5cd8 e93d b868 98bc 1450 bb3d 7932 2bbe
00000030: eb90 43bd 092b 783e 367a c4bc 2bc4 9a3e
00000040: 4c8a 2ebe bc7a 33bd 30a1 5f3e 2a92 cc3e
00000050: 0e61 e5bd d164 163e 77a4 e33c 6b59 a8be
00000060: 2ebe 423e 26e0 a7bc 2b0c 28be 0992 f83d
00000070: 6d42 26be 02aa 2fbd 893c e03d 9eae 053e
00000080: fc09 68be 5544 77bd fffb e1bc e26d b4bd
00000090: 59db b2bc feb7 b83d 1fa7 76bc c50e 31be
000000a0: 954d d33d 3658 ebbe 674d 91bd be42 73bd
000000b0: ca6f d9bd 9d5e 523e 03ca 433d b9d7 b3bd
000000c0: 3c5f 4abe a4c6 f53d 52f5 d33d a91a a13c
000000d0: 1d10 3fbe c69c 30bd 84d7 73bd 7bb4 423e
000000e0: e2f3 33be 3cb4 733e f4cd 6fbd fd96 66be
000000f0: 5029 963d 6cd9 c6bc 2308 ddbe 6ee2 9abd
00000100: 00c4 cb3b 7711 d13d 9ac9 f5bc 1c44 fcbc
00000110: 9b1a 8aba b4a8 1fbe 89fc 94bd bb97 14bd
00000120: 3837 d6be 687f a93d 6266 853d 2be7 7e3e
00000130: 4e97 aebe 6a9b 9abe 5c68 ca3d 749e 96bd
00000140: 2259 c7ba b0dd 3b3e fe91 c1bc b731 a03e
00000150: 64d3 75bd e70e 1f3d 61ba 86be 9245 e3bd
00000160: 27e5 0e3d 5e06 f2bd d034 143e 3e02 aebe
00000170: 5cc3 65be 7cd2 06be d886 b93d a9a8 82be
00000180: ec81 90bd 3685 7ebe e5e1 10be c3a5 03bd
00000190: 1c0c ad3e 0c34 e4bd b1fe a03d 2aa9 683d
000001a0: e0ea 91bc eff2 e7be 5cfa bc3c e0df aebe
000001b0: 0cf3 c03d 1c15 25be e509 7b3d bf9a 12be
000001c0: 18fb 1fbc 064e f2bc 187c 763d ec4c 313c
000001d0: 149b b53d dd9e e7bd 1dae 263e 1e3e 95be
000001e0: e3c2 c93d 7612 28be 2701 a3bd dd32 85be
000001f0: 145c e5bd 9127 44be f078 f0bd ee76 593e
00000200: 131f 54bd d740 0abe bc02 cabc a906 35bd
00000210: 58e6 25be 3fb2 5fbe 8e89 5dbe af0e 15be
00000220: 4003 85be 2c39 b43d e7ef f6bc a3e3 9e3a
00000230: 52f4 a23d d113 9fbd 31e0 01bd 54d9 8bbd
00000240: dbe3 1ebe c4e0 08bf ad75 e3bd 7cd3 a7bd
00000250: a5c2 a0be f2b3 6e3e 6d5f 20bd 1bf9 af3d
00000260: 3c8b 98be 6b6a d4bd e9a4 25be bfec 16be
00000270: 3cbb 0ebe b07c 8f3b 4985 263b e6c5 c23d
00000280: 0b3e 43bd e98c a93b 5e28 45be 1831 33be
00000290: d0e2 203d 9409 7c3c 0c0e 1fbd ab67 f0bc
000002a0: e65c 473e f7e9 87be 9c98 7dbe a82a 873d
000002b0: b8a5 15be fcff 42bd ef2c 5bbd 022b 133d
000002c0: 8bd5 63be b560 d93c 20ba e6bd 47ba eebc
000002d0: 9c1a 4dbd bb11 3f3d d54b c43c 81df 363e
000002e0: 1651 2dbc 7b2e 5ebd 66cb c53d b33e adbd
000002f0: 2bca ea3d badc 373d e1ce 99bd 36a7 44be
00000300: beae 15bd dd1e 3abc c070 95be 1190 d3bd
00000310: 582a 80bc c1b7 a3bc 5106 1fbd 19dd 9cbc
00000320: 4bfd 4cbe 6cdf 9bbd c0de 71bd d459 893e
00000330: 6aaa f1bd 54fd f3bd e88b 0a3d a306 1dbe
00000340: f150 5dbe 289b 90bd 2ae0 453c 95b2 8d3b
00000350: 40b4 edbd 98dd f0bc 6659 afbd 16d3 153d
00000360: ab37 12bd 3a62 353b 5232 82be 0912 ccbd
00000370: 3c57 99bd 6bbd 373d adf9 55be 3709 cf3d
00000380: ca79 1cbe 0cef fd3d 62f4 393d a40c aabd
00000390: aec6 963d a7c2 69bd afc5 d5bd 38f6 02bd
000003a0: 3719 c4bd 6a69 503d 5626 a83e ce26 0c3e
000003b0: d23a 2cbc 6e94 8cbe 9d3a 3fbe b1ed f7bc
000003c0: 0d7a e93c 8090 f2bd e146 bf3d e124 c0bd
000003d0: 6971 433d 974c 9c3d 49f5 c0bd b714 a9bd
000003e0: 1fbb 593c d015 86bd db01 1bbe 1530 83be
000003f0: f69d 993d 099e 67bc 771a 15bd d70b 91be

model.2.bias f4 [64]
0.024908828 -0.14741282 -0.100229226 -0.19122855 0.06769397 0.17354545 0.13566227 -0.15683582
0.30881977 -0.114959404 -0.15356164 0.14564279 -0.13343963 -0.14352897 -0.16326992 0.041731536
-0.077112615 -0.029591257 -0.16237013 -0.13758865 0.036238298 0.032979723 -0.04614835 -0.029044995
-0.11703793 -0.035493392 -0.15685965 0.033556737 -0.14489138 -0.09971684 -0.21253431 0.037175845
-0.09386279 -0.05632177 -0.09323201 -0.19270839 -0.2566233 -0.22435349 -0.12200079 0.4099134
-0.14323686 -0.04860952 0.68223745 -0.017603278 -0.1949169 -0.17619486 -0.17787465 -0.061664116
-0.21333283 0.23122546 0.015929852 -0.14363688 -0.15986446 -0.04211028 -0.10501445 -0.21693107
-0.1514406 -0.21283051 -0.14866266 0.08931006 -0.12411928 0.12147627 -0.17336382 -0.06972643
00000000: 990d cc3c 63f3 16be fb44 cdbd 6bd1 43be
00000010: 23a3 8a3d e6b5 313e 0deb 0a3e 9299 20be
00000020: a01d 9e3e d66f ebbd 433f 1dbe 6223 153e
00000030: 66a4 08be 42f9 12be 3b30 27be b0ee 2a3d
00000040: 38ed 9dbd 5d69 f2bc 5b44 26be 0ae4 0cbe
00000050: 9c6e 143d bf15 073d 0d06 3dbd c5ef edbc
00000060: 95b1 efbd 8561 11bd d19f 20be ca72 093d
00000070: 685e 14be 5838 ccbd 98a2 59be b345 183d
00000080: 223b c0bd a8b1 66bd 6df0 bebd 5955 45be
00000090: 2164 83be ecbc 65be 8ddb f9bd 2be0 d13e
000000a0: afac 12be c71a 47bd 1da7 2e3f c034 90bc
000000b0: 4c98 47be 6d6c 34be c624 36be 8393 7cbd
000000c0: ec73 5abe 5ec6 6c3e 527f 823c 8c15 13be
000000d0: 82b3 23be d47b 2cbd d111 d7bd 2e23 5ebe
000000e0: 3f13 1bbe 3ef0 59be 063b 18be 31e8 b63d
000000f0: 4032 febd 8dc8 f83d 4986 31be bbcc 8ebd

model.4.weight f4 [4, 64]
0.14437713 -0.17715105 -0.14204492 -0.0005156488 0.21072425 0.11288993 0.1829206 0.18302499
0.07932943 -0.025393197 0.14744468 0.21660641 -0.070734106 0.20016898 0.011344227 0.11652881
-0.13453005 -0.13558863 0.021315143 0.06563829 0.056990914 0.18169744 -0.024402143 0.10929335
0.14467649 0.17746185 0.015387995 -0.41706553 -0.10506512 -0.08999057 -0.14091691 0.2407671
-0.057221685 -0.05448454 0.15028276 -0.039866213 -0.11135568 -0.09697898 -0.10863071 -0.074557126
-0.014356319 0.06357141 0.20876986 0.049883585 -0.11698052 -0.1714288 0.00043862028 -0.15273489
0.008926408 0.23507479 0.125978 0.050517127 0.044230405 -0.059516456 -0.24084495 -0.082315296
-0.21131401 0.06264083 -0.0328394 0.03448567 0.050836716 0.009913417 -0.13315836 0.015896555
-0.18037498 0.09050692 -0.18889469 -0.037080225 0.20020223 0.12242477 0.16327095 -0.31764433
0.10134789 0.055932987 0.15048406 0.22027549 0.032118205 0.30838054 0.011672775 0.037186287
-0.24750786 -0.3812773 0.031854197 0.008544201 0.24104641 0.2438839 -0.10259315 0.12412825
0.08420289 0.110849544 -0.03632242 -0.13480604 0.030645823 -0.16417715 0.11197156 0.18451582
0.15149245 0.14750679 -0.05683489 0.07949973 -0.20502259 -0.08996048 -0.001205659 0.09419511
0.28241843 0.08561794 0.19963193 -0.03324848 -0.013863201 -0.008917437 -0.21819818 -0.0778328
-0.14544153 0.16589925 0.09941586 -0.0025006386 0.11293327 -0.2134091 0.034949884 -0.043634664
-0.24239697 -0.07557206 -0.01458941 0.06360001 -0.10532282 0.16658755 -0.06620008 -0.05390987
-0.046694793 -0.17903075 0.09433835 0.02125622 -0.049912874 0.14254601 0.2133173 0.042966634
0.07141312 -0.08829237 0.17667128 0.04133433 0.05266991 0.007916601 -0.059246026 -0.051415537
0.2654657 -0.14406504 0.032274213 0.10393229 -0.07779486 -0.065111704 -0.1972068 0.067737535
0.12582654 -0.11896045 0.034483295 -0.2688092 0.180465 -0.0868155 -0.109864466 0.21806264
0.09778558 -0.21317919 0.033369653 -0.042201452 -0.058053482 -0.13326724 -0.3047801 0.17827101
-0.09571505 0.27455202 0.20358941 0.14022222 -0.07875467 0.18789436 -0.26186997 -0.06854202
-0.32816085 0.119444735 0.31249794 -0.07259521 -0.09722732 -0.15553911 0.21806124 -0.13698605
-0.08417441 0.027813435 -0.029748527 -0.022135844 -0.3961265 -0.14230199 -0.045940347 -0.08503267
0.14003398 -0.070178896 0.17007506 0.09246521 -0.05033508 0.19186358 0.054203704 0.0456217
0.18130943 -0.010943409 -0.23551948 0.20828938 0.21142642 -0.079469 0.009016309 0.093695015
-0.101541825 0.25942817 -0.058145516 0.13662413 0.20513077 -0.20038839 0.31607032 0.24993007
0.046210013 0.11442367 0.020665774 -0.1628365 -0.01857847 -0.15568206 -0.069283724 0.09993662
-0.049371794 -0.35608974 -0.004528366 0.205336 -0.21650232 -0.098146304 -0.007264415 -0.06997999
-0.24248613 0.14214732 0.21570837 0.01957153 -0.02280509 0.17668441 -0.0532361 0.034507528
0.28023314 0.06678213 0.045538727 0.02702828 0.35060236 0.04520383 -0.3010266 -0.18142562
-0.31010854 -0.26044518 0.03392209 0.16004705 -0.14245102 0.22397092 -0.002945367 0.18647616
00000000: 99d7 133e 1667 35be 3974 11be 9b2c 07ba
00000010: 19c8 573e d632 e73d 8a4f 3b3e e76a 3b3e
00000020: 7877 a23d 6505 d0bc bdfb 163e 12ce 5d3e
00000030: 0bdd 90bd 19f9 4c3e 23dd 393c a8a6 ee3d
00000040: 3fc2 09be bfd7 0abe 189d ae3c 5e6d 863d
00000050: 4e6f 693d e50e 3a3e 01e7 c7bc 31d5 df3d
00000060: 1326 143e 8fb8 353e ee1d 7c3c 9d89 d5be
00000070: 622c d7bd fa4c b8bd 864c 10be a78b 763e
00000080: 4961 6abd 2e2b 5fbd b9e3 193e c14a 23bd
00000090: 720e e4bd ea9c c6bd c779 debd 68b1 98bd
000000a0: c436 6bbc ba31 823d c4c7 553e bb52 4c3d
000000b0: 7c93 efbd 088b 2fbe 9ef6 e539 8966 1cbe
000000c0: 1240 123c 72b7 703e 6000 013e 0ceb 4e3d
000000d0: f12a 353d 87c7 73bd 0fa0 76be ec94 a8bd
000000e0: b362 58be d649 803d 9b82 06bd d940 0d3d
000000f0: 293a 503d e26b 223c aa5a 08be 7e39 823c
00000100: 38b4 38be b15b b93d 9c6d 41be 6fe1 17bd
00000110: d001 4d3e d6b9 fa3d 8030 273e 47a2 a2be
00000120: 7c8f cf3d fd19 653d 7e18 1a3e e68f 613e
00000130: 618e 033d 0ee4 9d3e 2b3f 3f3c a650 183d
00000140: b372 7dbe c736 c3be 8c79 023d fafc 0b3c
00000150: dfd4 763e b3bc 793e 5c1c d2bd f436 fe3d
00000160: 9172 ac3d 1605 e33d d1c6 14bd 980a 0abe
00000170: f30c fb3c 0e1e 28be 5851 e53d b7f1 3c3e
00000180: d620 1b3e 050c 173e b4cb 68bd c1d0 a23d
00000190: 71f1 51be 333d b8bd 3407 9eba 5ee9 c03d
000001a0: 2699 903e 7558 af3d 506c 4c3e 8f2f 08bd
000001b0: 7b22 63bc 711a 12bc 586f 5fbe ce66 9fbd
000001c0: a0ee 14be 7ee1 293e 8b9a cb3d c1e1 23bb
000001d0: 8f49 e73d ea87 5abe 9c27 0f3d 43ba 32bd
000001e0: e936 78be 86c5 9abd 6c08 6fbc b940 823d
000001f0: 7eb3 d7bd ed95 2a3e e893 87bd 99d0 5cbd
00000200: 0a43 3fbd d653 37be 7734 c13d 8621 ae3c
00000210: 7171 4cbd 95f7 113e da6f 5a3e c8fd 2f3d
00000220: 0b41 923d a1d2 b4bd 51e9 343e 304e 293d
00000230: 67bc 573d a2b4 013c f6ab 72bd 1999 52bd
00000240: 1feb 873e c985 13be f731 043d 74da d43d
00000250: e952 9fbd 4959 85bd 94f0 49be fab9 8a3d
00000260: acd8 003e 89a1 f3bd 5b3e 0d3d 5ca1 89be
00000270: d1cb 383e 53cc b1bd 9f00 e1bd d04b 5f3e
00000280: ce43 c83d a54b 5abe 9eae 083d 6edb 2cbd
00000290: 7dc9 6dbd 3577 08be 230c 9cbe ad8c 363e
000002a0: 4106 c4bd 1592 8c3e be79 503e 6a96 0f3e
000002b0: 214a a1bd 6167 403e d213 86be c25f 8cbd
000002c0: b304 a8be 719f f43d bbff 9f3e ccac 94bd
000002d0: 1e1f c7bd a545 1fbe 724b 5f3e 1246 0cbe
000002e0: a263 acbd 00d9 e33c 2fb3 f3bc 3b56 b5bc
000002f0: 18d1 cabe 9db7 11be f22b 3cbd 9c25 aebd
00000300: 1165 0f3e f4b9 8fbd 2828 2e3e 665e bd3d
00000310: 282c 4ebd e377 443e b404 5e3d d2dd 3a3d
00000320: 2ea9 393e fc4b 33bc 052c 71be d049 553e
00000330: 2b80 583e a5c0 a2bd 24b9 133c 2ce3 bf3d
00000340: 29f5 cfbd c5d3 843e fe29 6ebd 32e7 0b3e
00000350: cd0d 523e 9d32 4dbe f8d3 a13e abed 7f3e
00000360: b646 3d3d f556 ea3d 454b a93c 9dbe 26be
00000370: e031 98bc 1e6b 1fbe a0e4 8dbd 92ab cc3d
00000380: 143a 4abd 6551 b6be b062 94bb 9a43 523e
00000390: c9b2 5dbe ee00 c9bd 540a eebb ab51 8fbd
000003a0: 494e 78be 118f 113e a8e2 5c3e 7954 a03c
000003b0: bdd1 babc c2ec 343e 190e 5abd c457 0d3d
000003c0: b87a 8f3e 12c5 883d d186 3a3d 696a dd3c
000003d0: 2782 b33e a727 393d 2920 9abe a3c7 39be
000003e0: 8cc6 9ebe 1259 85be e4f1 0a3d 60e3 233e
000003f0: aede 11be a258 653e 0f07 41bb 9bf3 3e3e

model.4.bias f4 [4]
0.3869648 0.28574944 0.26028344 0.3515383
00000000: 4020 c63e c04d 923e df43 853e d4fc b33e
