models/10/q_final_n376.pt (torch, 131223 bytes, 6 tensors)

model.0.weight f4 [128, 185]
00000000: 6d7d e0bd 7d79 98be 6262 273e 8bec 343e
00000010: 4140 b2bd 31a9 80be 0b6c 793e 663d 42bd
00000020: 5359 48bc 6e4a 40bd 01aa 4e3d 58b6 fd3d
00000030: 3601 f6be 57b0 5a3e 8d27 f7bd eace 623e
00000040: 124c 87be 2dfb 24be 77e3 533e c913 81bd
00000050: e3d2 f43d ec2a 7ebe fe16 c5be e957 6d3d
00000060: bd31 69be 7d7f 5f3c abd8 96be b789 c8bd
00000070: 1a77 983d 8b47 abbd c11d 643d 63ba 143e
00000080: b3f3 3bbe 8919 1bbe 135d 2f3d decf e63d
00000090: 8a7f 273d ac54 a8bd e083 143b 6bc7 1f3e
000000a0: aa5f 11be 31e7 143e dc18 31bd ca04 f73d
000000b0: 36b6 7c3d 933f 0bbf 966d 6f3d 3a2e 7bbe
000000c0: ff31 943e 4a99 c5be 539a ee3d 07a4 73be
000000d0: 7a64 efbd 6f20 b43c c509 483d 09e5 adbd
000000e0: e8a1 163e d585 fc3c 28de b1bd 92b2 8cbe
000000f0: 2b68 963c 1888 483c e8d1 4bbe 7e6f 523e
00000100: 53c0 87be e52d 4d3d 3eea 783d b23d 0e3e
00000110: 0e01 a0bd 2960 6ebe 9536 3b3e f2d1 163d
00000120: 865e edbc c26a c83b 0af7 123d 597c 553d
00000130: dae6 e0bd 621b e2be d3c6 cc3d 7e3c d53d
00000140: 707a 9ebe 1ebf 373e e513 26be 01a9 dd3c
00000150: e11d 1c3e ce6f 05be b53f 513c 75e3 0dbe
00000160: 102a dbbe 56ab 12be 80a5 65be 24eb 833e
00000170: 8ab6 c8bd 038f 4a3e fcb1 f1bc 554b 323e
00000180: e01b 18bf e291 323e ca43 36bc 24e6 1e3d
00000190: 6be1 ad3c a5de c6bd 0a81 48be 148a 123e
000001a0: 28e9 57be afcd 973d bc51 71bd 2f9a 8c3e
000001b0: 6e8e 823d 3de5 193e 18a7 6abc 69e4 143d
000001c0: 5550 9ebd 5cd1 2dbe d04a 7c3c f775 41bd
000001d0: 9d88 d1be ca98 cebb 2000 4e3e 7561 e1bb
000001e0: 0c67 5d3e 2005 fe3e 89e7 ccbe da00 81be
000001f0: 377b 77be def2 4abf 5f98 76bd 4faf da3b
00000200: 1f3c 00bf 6032 7a3e 42a6 983e 540e 2bbd
00000210: e727 7ebd cff7 62be de0e de3d 606e babe
00000220: aff8 fabd fabc 803e b683 4ebe 3bdf 25be
00000230: f764 e93d 00e8 1ebf c9fc d43d 7812 f53d
00000240: cfb5 0b3f dc84 e5bd 78d8 6f3d f194 fe3b
00000250: 2865 ac3d 588d 00be 902c 83be f1a2 e8bc
00000260: 66bc 2f3e 3b8c c23c 802a b1be 338c 583e
00000270: 075c f63d de91 953d d1db 6cbb 77b2 abbd
00000280: eae3 10be 8e9d 1dbe 0f5f 6abf e4e8 2dbe
00000290: 8210 a3bb 2066 94be 41f9 5a3e 0abe fd3e
000002a0: f37f 80be 62a9 713e c5a6 f03d 0771 0dbf
000002b0: 5a22 57be 2434 f8be 1cc8 293e 975e 1d3e
000002c0: ac56 ec3d e6d0 833e 518e 8abe 2cf5 903c
000002d0: 67e6 9b3e 8be3 9a3c 6e7b 653c 39f5 5d3c
000002e0: cbd3 e9bd 890d d5bd 774e f93d 065e 8a3d
000002f0: 1057 453d cb4a 30be 5a95 993d b138 5cbe
00000300: 114f 85bd 0cbc 09be 350c 68bf bfdb 1abf
00000310: fa0c 3ebe 2547 66bd 47e4 a53e e807 97be
00000320: c131 513d c6a9 c73c d1b2 223c 6b8a 4dbe
00000330: a1ed 58be a9f8 d3be c6a1 6e3e 8f53 383d
00000340: 640c 84be 558d 01bd 7210 2b3e 08ca 0bbe
00000350: f8f1 0abd f13c e0be ec21 34bf 850a a53d
00000360: cdcc 633e b1cf 2bbe f39a 19bf 3c79 873b
00000370: a2f4 b33d 7868 c63b bf6e 83be 2758 283e
00000380: 60f5 b0be a0cb 943e 18ec e1be dec4 b13b
00000390: bc0e 4b3d b277 023e 70c5 25bf 336c 67bf
000003a0: 24c0 80be 2f40 d8be e330 0ebe 651b 303f
000003b0: 82c6 aabe c710 883e 603d 5fbd 277b 95bd
000003c0: b101 89be ee41 80bd a438 e9be f299 ac3e
000003d0: 2e0c 9e3d c87b 8fbe 4a1b ba3d c05c c6bd
000003e0: a3f6 ab3d db23 80bd 853d bdbe 9a6b 13bf
000003f0: 89c9 d53d 4169 1cbd 5d3e 003e 15a6 97be
-0.10961423 -0.29780188 0.16346124 0.17668359 -0.08703662 -0.25129083 0.24357621 -0.047421835
-0.012228328 -0.04694598 0.050455097 0.12388295 -0.480478 0.21356331 -0.120680906 0.22149244
-0.26425225 -0.16111441 0.2069224 -0.06302602 0.11954286 -0.24821061 -0.38494104 0.057945166
-0.2277288 0.013641235 -0.2946218 -0.09791892 0.07444592 -0.08363255 0.055692438 0.14524226
-0.18354683 -0.1514646 0.042813372 0.11270116 0.040893115 -0.08219275 0.0022661611 0.15603416
-0.14196649 0.14541318 -0.0432366 0.1206146 0.061697207 -0.5439388 0.05845412 -0.24529353
0.28944394 -0.38593513 0.11650529 -0.2379304 -0.11689086 0.021988122 0.048837442 -0.084909506
0.147102 0.030825535 -0.08684951 -0.27479988 0.018360218 0.0122394785 -0.19904292 0.20550343
-0.2651392 0.050092597 0.060770266 0.13890722 -0.07812701 -0.2327887 0.1828254 0.036821313
-0.028975736 0.006116242 0.035880126 0.05212054 -0.109815314 -0.44161516 0.0999886 0.104119286
-0.30952787 0.17943999 -0.16218527 0.027058126 0.15245773 -0.13030931 0.012771537 -0.13856299
-0.4280553 -0.14323172 -0.22426414 0.25765336 -0.098004416 0.19781117 -0.029503815 0.1741155
-0.59417534 0.17438462 -0.011124561 0.038793698 0.021225652 -0.09710435 -0.19580474 0.14310485
-0.21085036 0.07412278 -0.05891584 0.27461383 0.063748226 0.15028854 -0.014322065 0.03635064
-0.07730166 -0.16974396 0.015398696 -0.04723164 -0.4092454 -0.006304835 0.20117235 -0.006878073
0.2162134 0.49613285 -0.40020397 -0.25195962 -0.24168096 -0.79276836 -0.060203906 0.0066737304
-0.5009174 0.24433279 0.29814345 -0.04176171 -0.062049773 -0.22164844 0.108426794 -0.36412334
-0.12254464 0.25144178 -0.20167431 -0.16198437 0.11396211 -0.62072754 0.103997774 0.11966413
0.5457429 -0.112069815 0.05855605 0.00776922 0.084177315 -0.12553918 -0.25619936 -0.028398009
0.17161712 0.023748508 -0.34602737 0.21147232 0.120292716 0.073032126 -0.0036141763 -0.08383649
-0.14149442 -0.15392134 -0.915513 -0.16983372 -0.004976333 -0.28984165 0.21384145 0.4955905
-0.25097618 0.2359977 0.11750559 -0.5525059 -0.21009198 -0.4847728 0.16580242 0.15368114
0.11539969 0.25745314 -0.27061704 0.017695032 0.3044922 0.018907329 0.014006479 0.013547235
-0.114173494 -0.10402972 0.12173169 0.06756215 0.048178732 -0.17216031 0.0749919 -0.21506001
-0.06509221 -0.1345064 -0.90643626 -0.60491556 -0.18559638 -0.056220192 0.32400724 -0.2949822
0.05107284 0.024372946 0.0099303285 -0.20072334 -0.21184398 -0.4140065 0.23303899 0.045001563
-0.25790703 -0.031628925 0.16705492 -0.13651288 -0.033922166 -0.43796495 -0.7036426 0.08058647
0.22246094 -0.16778447 -0.6000206 0.0041343253 0.087868944 0.006054934 -0.2567043 0.16439877
-0.34562206 0.29061604 -0.44125438 0.0054250797 0.0495746 0.12740973 -0.6475439 -0.90399474
-0.25146592 -0.42236468 -0.13885836 0.687918 -0.33354574 0.265753 -0.05450189 -0.0729888
-0.26759103 -0.06262575 -0.45551026 0.337112 0.07717167 -0.28024125 0.09087236 -0.096856594
0.083966516 -0.06256839 -0.36960998 -0.5758606 0.104388304 -0.038186315 0.1252379 -0.29618898

model.0.bias f4 [128]
00000000: 7a7d 2cbd a781 3c3d 646d a2bd 81c3 6dbd
00000010: 7e30 bdbd c416 80bc c7b1 47bc b9fc c5bd
00000020: 20ab 5cbd 4df4 28bd 19df 17be dedb 533d
00000030: 7a60 97bd 8579 b6bd 43bb cbbc 8ac1 d4bd
00000040: c59e 683d 6fe4 963d 8ad5 e8bd f5d3 03be
00000050: 0b6f 11be e0a1 eabb b697 e5bd a642 5bbe
00000060: 4bff 4cbd 0294 edbd fb4c 043d 83f5 8dbd
00000070: 426c 9cbd 1eb8 0abd 600c 09be b2a4 12bc
00000080: 4150 b6bd b06b 283c f582 b7bd 09c9 84bd
00000090: c3cc df3d f679 8a3b 0f06 e73d 05d8 9cbc
000000a0: 082c 51bc ce20 d1bd 66c4 5fbb 3ea5 07be
000000b0: dcaa 803b 0aea b6bd 8b24 19be 83b5 223c
000000c0: 7837 99bd 67e5 95bd 7b38 3ebe d721 8dbd
000000d0: 4e2d 873d 6348 67bc 57f6 c3bd bef0 683d
000000e0: fe27 0abe 94fa 76bd fccf ee3d 8584 4ebd
000000f0: 872e d5bd 0c73 f1bd 6806 743d fed6 373e
00000100: 46b1 85bd dc23 21be b887 19bd 1862 9cbc
00000110: 18e5 bbbd 89d4 1bbd 31fe 38bc 41d6 b33d
00000120: 5a15 c7bd 11dc 603d 0130 d5bc fe41 dbbd
00000130: a300 ddbc 5a73 ee3b b8f0 a8bd 4058 8bbc
00000140: e838 69bc 74d9 fb3c 147c 223d 46d8 84bd
00000150: 5270 8ebd a7bc dcbd 70b8 bd3d 84f3 1abe
00000160: e5fc f6bc e27e 72bd 6595 63be 5125 c83d
00000170: 93c4 45bd 3879 58bd 1a14 29bd 1b2d ae3d
00000180: dc7a d2bd 8420 ad3c 1121 a8bd 36f9 d7bc
00000190: f1bd 20bd 0351 3bbc b46b 89bd e871 94bb
000001a0: da92 2bbd 3a19 debd c575 efbd 0c7f 9b3c
000001b0: aa13 f5bc 93b8 9fbd 4d04 60bd 6afc 9dbd
000001c0: 52b4 aabd 8994 c3bc d6c0 50bd ed93 413c
000001d0: 151a 863d 879a 00be 577f 753d f6c6 b03d
000001e0: aaaa eabc c1bd fb39 75d3 98bd 8e3f a4bd
000001f0: 092b 0cbe aa33 8dbd 41a1 b0bd a362 3d3c
-0.04211185 0.046022084 -0.07931021 -0.058047775 -0.09237765 -0.015635855 -0.0121883815 -0.09667344
-0.053874135 -0.04124861 -0.14831199 0.051723354 -0.07391448 -0.08909897 -0.024869567 -0.10388477
0.05679204 0.07367789 -0.11368854 -0.12873824 -0.14202516 -0.0071604103 -0.11210577 -0.21412143
-0.050048154 -0.11600496 0.032299977 -0.06931593 -0.07637836 -0.033866994 -0.13383627 -0.008950399
-0.08902026 0.010279581 -0.08960525 -0.06483657 0.10927727 0.0042259647 0.112804525 -0.019145975
-0.0127668455 -0.10211335 -0.0034144162 -0.13246629 0.003926618 -0.08931358 -0.14955346 0.009930971
-0.07481283 -0.07319146 -0.18576233 -0.0689122 0.06600438 -0.014116379 -0.0956847 0.056870215
-0.13491818 -0.060297564 0.116607636 -0.05041935 -0.10409265 -0.117895216 0.059576422 0.17953107
-0.06527953 -0.15736336 -0.037482947 -0.019089743 -0.091745555 -0.038044486 -0.011291073 0.087811
-0.09720869 0.05489737 -0.026023867 -0.107059464 -0.026977843 0.0072769346 -0.082490385 -0.017009854
-0.014234759 0.030743338 0.03966911 -0.064865634 -0.06955017 -0.1077817 0.09263694 -0.15131956
-0.030149886 -0.059203036 -0.22224958 0.097727425 -0.04828317 -0.05284998 -0.041278936 0.08504697
-0.1027734 0.021133669 -0.08209432 -0.02636395 -0.039243642 -0.011432889 -0.06709996 -0.0045301802
-0.041888095 -0.10844655 -0.11692385 0.01898148 -0.029916603 -0.077988766 -0.0546916 -0.0771416
-0.083351746 -0.023874538 -0.050965153 0.011815053 0.065479435 -0.12558948 0.059935894 0.08631699
-0.028645832 0.00048015828 -0.07462207 -0.080199346 -0.13688292 -0.0689462 -0.08624507 0.011559161

model.2.weight f4 [64, 128]
00000000: 2a51 7bbe bcfe eebd 9ab9 32be 7487 0bbe
00000010: e65a 013c 9740 bb3d 1051 33be 0502 44be
00000020: f89d afbd 37ec 04bd 2460 94be 7bfb 22be
00000030: 20a9 d5bc f911 c3bd fc03 7c3e 2023 223d
00000040: 5c25 6bbd b085 a6bc fa9d 97bc 09ff 43be
00000050: 995a 4cbe 8387 ee3d 950c 00be 827c 90bc
00000060: 6964 43be 112a a5bd 01e9 aabc aea0 7abe
00000070: b386 713d d45a a43d 301b 39bd e7c7 82bd
00000080: 0bc1 9a3d ba6f b2bd 9904 93bd 3460 1fbe
00000090: 299b e9bd 2a14 98bc 2c88 fdbc 368a f5bd
000000a0: 04d6 c33d 7081 f83a cadd 1e3d f4ba 3f3c
000000b0: af84 18bd 82e3 53bc a0fe c9bd 65b7 783d
000000c0: 9366 973d f60c 44bd 9acd 3bbd ea7b 92be
000000d0: 1c42 9dbd 6dd0 a83c 7450 91bd 15cd a7bc
000000e0: 2d03 febd 03a4 cabd 1c95 b63c 47e0 c7bd
000000f0: 2e09 0bbe 0e63 0bbe 564b 8abd 3e90 e5bd
00000100: d231 153d 5ee7 593d 5b60 e0bd 8f38 0fbe
00000110: e6d3 24be 120c 7f3d d3be babd 5e4b 87bc
00000120: d04c 84bd ddec fbbd b08b 323d 6861 b43b
00000130: 3b5d 093c bf03 62bd 9277 05be 948e db3a
00000140: d251 ccbb a6d1 11be eac9 0bbe cc19 60be
00000150: 7d2a 82bd a19b 67bd cc37 0f3c b19b fcbb
00000160: 8504 efbd b1a5 b5bd f2da f4bd 98e1 243d
00000170: 4b14 763c c387 20bc 5b2c dcbd a999 c5ba
00000180: 7fd6 8ebc 4873 6dbd 7e85 46be b9a9 473d
00000190: 8dbc ec3c 6735 433d b5ea 77bd cbef 37bd
000001a0: 0c11 99bd e1fd 17bd 7a80 113d 94a6 dcbd
000001b0: 7c9b 25be e477 24bd a276 ca3d 9f92 61bd
000001c0: 00ef b3bb 3d05 debc f0c2 883d 72db b03c
000001d0: 3585 363d 6bbc e5bd 108b 8b3d 1b19 4dbc
000001e0: 6d8d c4bd c336 7dbd 677b 33be 0e7b 21be
000001f0: 33de 0bbe 7429 30be fdd4 e23c ed8d a13c
00000200: 7499 2b3a a054 8b3d 2899 a3bc 8779 53be
00000210: 23f5 eabc 48d9 47bb 1265 a8bd 7db7 c8bc
00000220: 258f 97bd 42d8 abbc 757c b8bc 0075 eabd
00000230: 9508 c6bc 8de4 963d e6fc 243d bc78 77be
00000240: 9d75 0abd 0c83 e8bd ccf0 6d3d 4a48 d7bd
00000250: 03c0 52bd e8eb 82bc 7f39 b7bd eee2 66bd
00000260: 2357 eebd 69fa 843a 8913 033d a41c f73c
00000270: 9d25 95bd 804f 61bd 63de 3abe 80af 293d
00000280: 6917 303d c2cd 693c 012d 50bd 66c6 1bbd
00000290: ac90 273a 8634 8b3d 4bc1 b9bd 26dc 60be
000002a0: 528f 91bd 3b45 21be 4853 e53c dfcc 403d
000002b0: a6e2 eabd fa90 4bbd 0a5f 8cbd 3528 323d
000002c0: 4257 9fbc 2d61 e7bc dc4f d2bd b06b 47be
000002d0: c377 e6bc 2d7f 4c3d 2f07 6cbd d495 86bd
000002e0: 29ab 48be b364 53bd a8ff 38bc d671 273d
000002f0: b897 80ba 14bc a8bd 03c7 41bb 5417 5abd
00000300: ffe0 863d f32a d33b f9fd 10bd d27d 51bd
00000310: a0c4 83be 0a29 6dbc c476 37bd e800 89bd
00000320: 7e45 d2bd e305 9cbd 19ab 753d 7cc3 7c3d
00000330: 333d 9dbd 5d79 dbbd 7247 89bd 4b48 8bbc
00000340: 1514 56bd 7538 56bd 43c9 65be 36e9 54bd
00000350: 5164 123a af33 f3bd a365 6bbb da05 93bd
00000360: a209 c33c ca3c 0f3d 6649 9bbd 98d8 483d
00000370: 6716 9fbd 5ffe 0bbe aab2 0e3d d10d d53c
00000380: 0cbe fe3b dddc c93d 8900 80bd 9c22 f6bd
00000390: 36a3 7abd 5edd 87bd 61b6 e4bd a09b 2ebe
000003a0: 89f9 87bc 08ac 92be 74f9 1abd d3db 50bb
000003b0: 3c74 26be 65d2 12be c96f 64bd e7bb 393d
000003c0: cffa d4bd 013d 863c 7962 953d c8ce adbd
000003d0: 32c2 06be ec5b 823d f1b9 eebd 1813 0bbd
000003e0: ac61 7abd 89eb 58bd 98ac 9abd 69a4 1ebd
000003f0: a378 debd 1937 c4bd b11f c8bc 04e6 17bd
-0.2454268 -0.116696805 -0.17453614 -0.1362589 0.007895207 0.09143179 -0.17511392 -0.19141395
-0.08575052 -0.032451835 -0.289796 -0.15916245 -0.026081622 -0.095249124 0.24610895 0.03958428
-0.057408676 -0.020327419 -0.018507946 -0.19140257 -0.19956435 0.116469406 -0.125048 -0.017637495
-0.19081272 -0.08064664 -0.020863058 -0.24475357 0.05896635 0.080251366 -0.045191944 -0.063857846
0.07556351 -0.087127164 -0.07178611 -0.15564042 -0.114065476 -0.018564302 -0.03094872 -0.11989252
0.095623046 0.0018959474 0.038785733 0.011702288 -0.037235912 -0.01293266 -0.09863019 0.060721774
0.07392611 -0.047863923 -0.045850374 -0.28610164 -0.07678625 0.020607198 -0.07095423 -0.020483533
-0.124029495 -0.09894564 0.022287898 -0.097595744 -0.1357772 -0.13612005 -0.067526504 -0.11209153
0.036424465 0.053199165 -0.10955878 -0.13986419 -0.16096458 0.06226737 -0.09118428 -0.01651543
-0.06459963 -0.123010375 0.043590248 0.005504776 0.008384044 -0.055179354 -0.13033894 0.0016750866
-0.0062353397 -0.14240131 -0.13651243 -0.2188484 -0.0635576 -0.056544904 0.00874133 -0.0077089895
-0.11670784 -0.08869494 -0.11955823 0.040254205 0.015019487 -0.009797993 -0.10750648 -0.0015075702
-0.017436264 -0.05797127 -0.1938686 0.048745845 0.028898502 0.04765835 -0.06052657 -0.04490642
-0.074739546 -0.037107352 0.035522915 -0.1077396 -0.16172594 -0.0401534 0.09885909 -0.05507147
-0.0054911375 -0.027102107 0.066778064 0.021589015 0.04456063 -0.112175785 0.068136334 -0.012518193
-0.09597287 -0.061819803 -0.17527543 -0.15769598 -0.13658981 -0.17203313 0.027689451 0.019720996
0.00065459986 0.0680325 -0.019970492 -0.20651828 -0.028681343 -0.00304945 -0.08222403 -0.024501557
-0.074003495 -0.020977143 -0.022520283 -0.11448097 -0.024174014 0.07367811 0.040280245 -0.2416715
-0.03380357 -0.1135312 0.05809097 -0.10511835 -0.051452648 -0.01598163 -0.089465134 -0.05636876
-0.11637714 0.0010145429 0.032001052 0.030165024 -0.07282565 -0.055007458 -0.18248896 0.041427135
0.042991076 0.014270248 -0.05082417 -0.038031004 0.0006392102 0.067971274 -0.09070071 -0.2195898
-0.07107414 -0.15749066 0.027993813 0.04707038 -0.11469011 -0.049698807 -0.06854065 0.043495376
-0.019450787 -0.02824458 -0.10269138 -0.19474673 -0.028133279 0.04992597 -0.05762404 -0.06571546
-0.19596542 -0.051609706 -0.011291422 0.040880047 -0.0009810841 -0.08238998 -0.0029568083 -0.053244904
0.06585883 0.006444329 -0.035398457 -0.051145382 -0.2573595 -0.0144751165 -0.044790998 -0.06689626
-0.10267161 -0.0761831 0.059977625 0.061709866 -0.076776884 -0.107165076 -0.0670308 -0.017002245
-0.052265245 -0.052299935 -0.22440057 -0.05198022 0.00055844063 -0.11875092 -0.0035918735 -0.071788505
0.023808304 0.034970082 -0.07582359 0.049034685 -0.07767945 -0.13671254 0.034838356 0.026007565
0.00777412 0.098565795 -0.06250102 -0.1201832 -0.061190806 -0.06634019 -0.111675985 -0.17051554
-0.01659848 -0.28646874 -0.037835553 -0.0031869307 -0.16255277 -0.14338072 -0.05577067 0.045345213
-0.103994004 0.01638651 0.07294173 -0.08486706 -0.13160017 0.06365189 -0.11656559 -0.033953756
-0.061128303 -0.052959 -0.07552451 -0.038731012 -0.108628534 -0.095808215 -0.024429174 -0.037084594

model.2.bias f4 [64]
00000000: e443 27be 0c0d 4dbe 327e 443e d7ee 213f
00000010: b257 dabd e9d1 94bd 6bd8 c0bc d5ab 8abd
00000020: ec0d 18be 1a03 9e39 6266 82bd 14cc 80be
00000030: 80dc 59bc 7e8c 36be 4403 5bbe 62cb 66bd
00000040: 78ab 003c 1797 87bd c6ac 09bf cede 54bd
00000050: a150 41be 2f67 08be 6ea2 063f bb8c c5bd
00000060: 4e20 c3be ba4f 833d 7ff8 8ebc 0188 b53e
00000070: ac3a 81be a97e aabd 3071 f1bd d5c5 2bbe
00000080: ac36 4dbe bc61 eb3c 525e e5be d123 7ebd
00000090: 8258 033d 7de3 26bc 7e0d 12bd 5bad 15be
000000a0: 08aa 3cbe 4fac a03e 3c47 d0bd 5a16 c43d
000000b0: 5079 2dbd 3813 a43b 14d1 edbd f388 1cbd
000000c0: 6291 bc3c d260 edbd d297 423e 5a53 21be
000000d0: e60b 1abe 0179 c4be 09fd 84bd a1a5 423d
000000e0: 9376 4bbe 0bfe 28be e9f7 f8bd ac84 0bbe
000000f0: 621a 63bd a331 86be b3bd fd3b 12d3 65be
-0.16334492 -0.20024508 0.19188765 0.63255066 -0.10661258 -0.072666 -0.023540696 -0.067710556
-0.14849061 0.0003013842 -0.06367184 -0.251557 -0.0132972 -0.17827031 -0.21387964 -0.056346305
0.007853381 -0.06620615 -0.53779256 -0.051970296 -0.18878414 -0.13320611 0.525916 -0.09645983
-0.38110584 0.06411691 -0.017452477 0.35455325 -0.25240076 -0.0832494 -0.11789167 -0.16774686
-0.20040387 0.028733127 -0.44798523 -0.062045876 0.03206683 -0.010186073 -0.0356574 -0.14616911
-0.18424237 0.3138146 -0.10169837 0.09574576 -0.04235202 0.005007174 -0.11612144 -0.038216542
0.023018543 -0.11590733 0.19003227 -0.15754452 -0.15043601 -0.3837357 -0.06493575 0.047521237
-0.19869451 -0.1650316 -0.1215666 -0.13624829 -0.055445082 -0.26209745 0.007743561 -0.22443798

model.4.weight f4 [4, 64]
00000000: 64d5 2bbd ffa8 ee3a 9f4a 203e 3645 e03d
00000010: 9513 eb3d adb3 32bc 7606 973d c6a8 afbc
00000020: 1b37 203e 3c33 8a3d f747 03be 18ef 1f3e
00000030: 2f0c 593c 1f98 7bbc 2d9d 643d 695a 0e3d
00000040: 0681 863c 3b0b 10be 1f37 01be 396b 81be
00000050: 0848 0abe e9e2 cdbe 801c 493e 1708 2e3e
00000060: fa2b 0cbe 5bf3 ab3c 39da e0be f36b 123e
00000070: 4f62 883e 9ab3 70be 101e 84bd 37cf 7d3e
00000080: 86db 873b d089 813c 4676 87bd c164 05bf
00000090: 7208 3f3e f5c3 ce3d 3ef5 60be 8a26 5e3c
000000a0: 5bf0 193d 11c1 2d3e 3468 08be dba7 5c3e
000000b0: e892 bdbe 3859 653e 3963 45bd f62d 373d
000000c0: bdaa e93d f01a 7bba af8c 8d3d a1f8 38be
000000d0: 576e 5fbd 74a4 ccbd 6ff1 15bd 1216 0f3e
000000e0: 14d3 0d3e 7cc1 61bc 6d0b 73bd 5c9f 733c
000000f0: 1c61 57be edda 10be d53e 83bc 64d1 403e
00000100: 410e 0ebd 487c 253e ff86 f2be ef2f 083e
00000110: 0503 c7be 4ae1 16bd ab89 9a3d 1ab8 8f3d
00000120: 3650 7f3e 53e5 df3d 9ec8 f4be 22dc 523e
00000130: 3ad2 fdbe 2ac5 d53c e647 8e3e 326a 703d
00000140: 8df5 f03c e104 993e 7434 c5bd e552 4abe
00000150: 2971 74bd 2bbb 27be 19e7 233e 05b6 0e3e
00000160: b0e8 eeba 76ea 75be e5a8 2f3e becb b03b
00000170: 8eb9 493e fb99 803d 6015 5fbe 6d5e 9a3e
00000180: c894 21bc c0df 1b3e 6c17 e4bd bb6f 8b3d
00000190: bc14 b33d 6469 1b3e 7ffd 463e b245 14be
000001a0: db5a 44bb 18e3 433e 373f 30bd 4b3a 2a3e
000001b0: 9604 4b3b 322b 98bd 447d f63b 2aeb 8abe
000001c0: f48e febe 1770 20be a502 0f3e 9862 483d
000001d0: d6c7 a73e 3bb5 ecbd cc0d 6e3c 42d3 383e
000001e0: 9df8 a53e 2290 ce3d eee7 20be 5a9f 193e
000001f0: cf83 f03d 1677 58bd 0f52 143e 5ea8 843e
00000200: 9354 10bb d1b5 91bd bd55 7ebd 8c0a 233e
00000210: 5ef0 b43e 33da d9bc ca57 013d 1d08 213d
00000220: 6bb5 efbd 84f3 9c3e 9af0 d5be 28b4 f73d
00000230: 0caa 11be 9c3c 19bd d375 ed3d e4fb 83bd
00000240: 74e9 63be 891e 44be 397b 7cbe 7d2a 733e
00000250: 4542 a73d 3cc9 5ebc ab6c 863d 3928 ad3d
00000260: 4f88 4fbe 0156 71be b0f6 ea3c a82d e53d
00000270: 75ab ec3d 7155 abbe ca1c 7f3e 0cd0 4ebe
00000280: e8ab cebe ec01 e23c 2881 3dbe 2b45 b2bd
00000290: 288a babc 51a0 5cbe cacc 31be a445 28be
000002a0: f742 aa3e c01d 853b f8fd 1bbe 0c7b a3bc
000002b0: 0d34 143e f987 513e eb7c f33c 2af3 063e
000002c0: cebf 8bbd be27 b9bd 498c 6a3e d232 e93d
000002d0: e28b 6b3e fa0c a73d 70d6 0b3d 0421 d33d
000002e0: 1e5b 953e b709 733e a7d6 4a3e ca3b cabb
000002f0: d5da e8bd e384 9d3d e792 6a3e 4ef2 3f3e
00000300: 71f4 44bd c38c a73c 5165 a5bd 9b10 543e
00000310: bc90 04bd 9510 12be 7131 473e 53a7 92bd
00000320: ecc7 96be d110 eebd 734d 8bbe 791e debc
00000330: 7b92 0abd 6068 883d e492 673e f34b 91be
00000340: 9e4a 02bd aabc a63e 539f 6abc 593f 023e
00000350: 304d 663e c1e7 65be 0fb7 37bc 7bfe 9d3d
00000360: a87e 83bc 7952 b4be 605d 893e 6764 943c
00000370: 16e5 b8be d4ab bbbe f70a 2ebe 587d 89be
00000380: 98bd 57be 3ef4 6cbe 74bc 4abe a80e 703e
00000390: ceb5 103e b8a2 1a3e a8bb ee3d ed48 523e
000003a0: fc3f 89be 5fb8 5a3e 7b09 a0bd c4ab 463e
000003b0: 2bd0 febd f507 8a3e d9dd a6bd 96e9 213e
000003c0: 2cca f2bd 6cec 113e 06c4 da3d 6336 70be
000003d0: b9e0 1f3e e925 37be 6aa7 a13c e29e c2bc
000003e0: ca67 c83e 705e 253e 0024 63bd b058 24be
000003f0: 6a40 57be a675 e13d 453e 423e 613d 2dbd
-0.041951552 0.0018208324 0.15653466 0.10950701 0.11478344 -0.010907096 0.07374279 -0.021442782
0.15646021 0.067480534 -0.12820421 0.15618551 0.013247534 -0.015356093 0.055813957 0.03475419
0.016418945 -0.14066784 -0.12618683 -0.25277117 -0.1350404 -0.4021218 0.19639778 0.16995274
-0.1368865 0.020990064 -0.4391649 0.14298992 0.26637504 -0.23506013 -0.064510465 0.24786077
0.0041460423 0.015812784 -0.06614356 -0.52106863 0.18655565 0.100959696 -0.21968552 0.013558993
0.037582736 0.1696818 -0.13321 0.21548407 -0.37026143 0.22397316 -0.04819033 0.044721566
0.11409519 -0.0009578904 0.06911599 -0.18063594 -0.054548588 -0.099923044 -0.036607202 0.13973263
0.13850051 -0.01377904 -0.05933707 0.014869537 -0.21033138 -0.14146014 -0.016021172 0.18829876
-0.034681562 0.16160691 -0.4736862 0.13299535 -0.3886949 -0.036835946 0.07545789 0.070175365
0.24932942 0.10932412 -0.4780931 0.20591787 -0.49574453 0.026094992 0.2778923 0.058695026
0.029413963 0.29886535 -0.09629145 -0.19758184 -0.05967823 -0.16379993 0.16006126 0.13936622
-0.0018227305 -0.24015221 0.17154272 0.0053953817 0.1969969 0.062793694 -0.21785498 0.30150166
-0.009862132 0.15222073 -0.1113728 0.0680842 0.08744189 0.15176922 0.19432639 -0.14479712
-0.002996138 0.19129598 -0.043029036 0.166238 0.0030978075 -0.07430114 0.007522257 -0.2713254
-0.4971844 -0.15667759 0.13965853 0.04892215 0.3276965 -0.115580045 0.014529657 0.18049338
0.3241624 0.10086085 -0.15713474 0.15002194 0.117438905 -0.052847944 0.14484428 0.25909704
-0.0022023066 -0.07114757 -0.062093485 0.15921992 0.35339636 -0.026593303 0.031577863 0.039314378
-0.117045246 0.30654538 -0.41785127 0.12094909 -0.14225024 -0.037411317 0.11594739 -0.06444529
-0.22257024 -0.19152273 -0.2465638 0.23746677 0.08166937 -0.013597783 0.065636955 0.084549375
-0.20266841 -0.23567964 0.028682083 0.11190349 0.1155614 -0.33463624 0.24913326 -0.20196551
-0.4036553 0.027588807 -0.185063 -0.08704599 -0.022770956 -0.21545531 -0.17363277 -0.16432816
0.33254215 0.0040623844 -0.152336 -0.019956134 0.14472981 0.20462026 0.029722651 0.13178697
-0.06823693 -0.09040783 0.22905077 0.11386646 0.2300258 0.08156772 0.03414005 0.103090316
0.2917108 0.23734175 0.19808446 -0.006171678 -0.11369864 0.07691362 0.22907601 0.18744776
-0.04808468 0.020452863 -0.08075965 0.2070946 -0.032364592 -0.14264138 0.19452454 -0.07160821
-0.29449403 -0.11624301 -0.27207527 -0.02711414 -0.0338311 0.06660533 0.22614628 -0.28378257
-0.03180944 0.32565814 -0.014320212 0.12719478 0.22490382 -0.22451688 -0.011213078 0.07714554
-0.016051605 -0.35219172 0.26829052 0.018114282 -0.3611228 -0.36654532 -0.1699637 -0.26853442
-0.21068418 -0.23140046 -0.19798452 0.23443091 0.14131853 0.15101135 0.11656886 0.20535631
-0.2680663 0.21359394 -0.07814308 0.19401461 -0.12442049 0.26959196 -0.08147783 0.15811762
-0.118549675 0.14250344 0.1068192 -0.23458247 0.15613069 -0.17885555 0.01973315 -0.023757402
0.39141685 0.16149306 -0.055454254 -0.16049457 -0.21020666 0.11008768 0.18969066 -0.042294864

model.4.bias f4 [4]
00000000: 6b0d f93e 7b5f 073f f146 f63e 7ce7 f83e
0.4864305 0.52880067 0.48101 0.4861411
