models/5/q_final_n383.pt (torch, 131223 bytes, 6 tensors)

model.0.weight f4 [128, 185]
000000 c3 28 e6 3d 45 11 17 3d 43 7f e9 bd 32 9c 6f be
       0.112382434 0.036881704 -0.11401226 -0.23399428
000010 8e 0e 3a 3c 2e 23 e6 3d a1 04 1c be 41 1c 2f be
       0.011356009 0.11237179 -0.15236141 -0.17100622
000020 0b 2d 46 be 3a 69 9f be cc 11 88 3d 19 c4 cf 39
       -0.1935312 -0.3113497 0.066440195 0.0003962822
000030 c6 50 8d be e2 6b 22 bd dc bf f1 3e a9 84 93 be
       -0.27600688 -0.039653666 0.4721669 -0.2881215
000040 d6 05 fd 3d ea f7 a4 bb 06 85 1d bc 30 ce 6c 3d
       0.12354629 -0.0050344365 -0.009614235 0.057813823
000050 ae 40 81 bd 7a 02 8a bc 43 e7 e5 be e7 f8 fa 3e
       -0.06311165 -0.016846884 -0.44903 0.49018022
000060 e3 52 b0 3e a1 ff c6 3d 30 49 39 be a2 5c 08 bd
       0.34438238 0.09716726 -0.18094325 -0.033291467
000070 8f f5 90 be 90 fd 7a be 18 5a 93 bd 12 24 ae be
       -0.28312346 -0.24510789 -0.071949184 -0.34011894
000080 06 6b e7 bd 7c 1d 1a 3d 3e 9c 7f 3d e3 28 c5 3b
       -0.1129971 0.037625775 0.062404864 0.006016837
000090 c3 59 60 bc 0e 16 e5 3c b7 d2 a3 bc 2f c6 cd 3c
       -0.013693276 0.027964618 -0.019997938 0.025118915
0000a0 72 c7 a3 be ae d3 d4 3d ea 7b 07 3d 88 c4 0f bf
       -0.31988102 0.10391937 0.033077158 -0.5615926
0000b0 26 71 86 3d 1c 1c 71 39 c6 82 9b be 4e 61 03 3e
       0.0656455 0.00022994023 -0.3037321 0.12830088
0000c0 8d 36 68 be 62 0f 63 be 2c ad dc 3d 13 0a a3 3d
       -0.2267706 -0.22173837 0.107752174 0.07960906
0000d0 7d de 89 be 7f bf 9c 3d 98 10 d9 3c 7a d1 d5 bc
       -0.26927558 0.076537125 0.02649717 -0.026100863
0000e0 62 fd 4c bc 2d ab 3d 3e e7 0f f0 bd 77 a1 19 bf
       -0.012511583 0.1852233 -0.11721783 -0.60012
0000f0 e5 6a dc 3d 0e dc 64 3e 0c a9 9b 3d 1d 55 c6 bd
       0.10762576 0.22349569 0.076006025 -0.09684203
000100 6d 77 bb bd 73 03 b1 be e7 70 78 be 47 c6 8f bd
       -0.09153638 -0.34572944 -0.24261819 -0.0702024
000110 b9 87 0a bd a7 ef 22 bd db 5c 3f bd ca 1d 81 be
       -0.03382084 -0.03977933 -0.046719413 -0.2521804
000120 cb 90 3a 3d f6 3a 12 3d 27 6f d5 3d 5a 64 1c be
       0.04554824 0.03570076 0.10421591 -0.15272656
000130 2b d3 e0 3d f4 e0 3e bd 02 a6 c3 bd 5d 6b b3 bc
       0.10977777 -0.04660125 -0.09553148 -0.02190178
000140 c1 f4 79 be 9c 60 96 3d ea df 55 be 74 e6 bc be
       -0.24409772 0.073426455 -0.20886198 -0.36894572
000150 cf 9c 82 3d fc fd 15 be 9f 47 7f be 19 f6 26 bd
       0.06377565 -0.14647669 -0.24929665 -0.04076204
000160 a1 32 f8 3e 1f a3 94 bd 5f 2e 13 be ef 41 a5 3d
       0.48476127 -0.072576754 -0.14373158 0.080692165
000170 22 af 6c be 93 88 80 be e1 7c a9 3e ba b6 68 be
       -0.23113683 -0.25104198 0.33103088 -0.22725955
000180 e9 19 f9 be a1 67 84 be dc b3 15 3e fc 90 e3 bc
       -0.4865258 -0.25860313 0.14619392 -0.027779095
000190 b0 f7 67 bd 1a fb 1a 3e a7 4d 33 bf 1e 11 83 be
       -0.056632698 0.1513485 -0.70040363 -0.25598997
0001a0 03 80 6f be dc a5 28 bc f2 b7 04 bd f3 4e 34 bc
       -0.23388676 -0.01029345 -0.032401986 -0.011005151
0001b0 d6 51 dc bc aa 71 61 3e 7e 2e 57 3c 25 28 23 3e
       -0.026894491 0.22016016 0.013133643 0.15933283
0001c0 e0 14 b3 be c4 c3 d4 3d 1d 61 a2 be 76 44 53 bd
       -0.34976864 0.10388902 -0.31714717 -0.05157896
0001d0 7d ef 3c be cf 04 bd bd e6 a0 4d 3e 1f 49 d2 bd
       -0.18450733 -0.09229433 0.20080909 -0.10267853
0001e0 30 63 b3 be c1 c6 84 3d ec 48 25 be 2d d8 95 be
       -0.35036612 0.06483222 -0.16141099 -0.29266492
0001f0 c4 4a 8f bd ac 58 c8 3e 38 d4 8e be 3b b0 3d be
       -0.06996682 0.3913015 -0.27896285 -0.18524258
000200 93 68 7a 3e b5 43 be bc 2c d0 9c be 05 bc 82 3e
       0.24453954 -0.023225645 -0.30627573 0.25534073
000210 d7 8a 8c be 22 69 ff be 56 43 30 be 68 b7 09 3f
       -0.27449676 -0.49884897 -0.17213187 0.5379548
000220 ec 1c a8 bd e9 71 35 bd 3b 99 8f 3e c3 b0 52 bf
       -0.082086414 -0.044298086 0.28046593 -0.82300967
000230 08 dc 9f bd f7 a3 59 be 59 5e f8 bc 1a ff 82 bd
       -0.078056395 -0.21253954 -0.030318426 -0.06396313
000240 df 37 95 3e 22 37 b0 3d 59 16 24 bd 93 4f ea bc
       0.2914419 0.08604266 -0.040060375 -0.028602397
000250 13 c4 44 3d 74 9b da bd b8 7d 34 3e c3 a2 4b bf
       0.048038553 -0.106741816 0.17626083 -0.7954523
000260 d7 df 4d 3e c5 c8 93 be ac 2e f9 3c 5b 69 b2 3d
       0.2010492 -0.28864112 0.030417763 0.08711501
000270 94 0b 40 be 02 c9 91 3d 73 a5 97 3d 2b 26 b9 be
       -0.18754417 0.07118417 0.07404604 -0.36161932
000280 62 dc 8a be 10 26 05 3f 19 bb ed 3e 94 d1 f7 be
       -0.27121264 0.52011204 0.46431807 -0.48402083
000290 c2 61 d9 bc f7 8c 8e 3e 72 d8 79 3d 09 38 37 be
       -0.026535872 0.27841923 0.060997434 -0.1789247
0002a0 02 a1 a9 3e 9c 42 05 bf 41 1d 79 be 1a 5e 01 3d
       0.33130652 -0.5205476 -0.24327566 0.031583883
0002b0 6d b0 51 3f cd c0 8e be ea 13 34 ba 70 97 80 3e
       0.8190983 -0.2788147 -0.00068694225 0.25115538
0002c0 38 e5 e5 be 29 cb 5e 3e 28 7b bb be 0b 6b 81 bd
       -0.44901443 0.21757187 -0.36617398 -0.06319245
0002d0 e3 b8 fe 3d c5 79 29 3c 10 cd 0c 3f 8d bd e5 3d
       0.12437608 0.0103439735 0.550004 0.112177946
0002e0 ab 51 83 bd 81 7f e1 3c 24 ff cd be b8 6a 19 3e
       -0.06412061 0.027526619 -0.4023372 0.14982116
0002f0 05 02 09 3b 35 39 1b be f1 0d 9f 3d 8e 2b 85 3d
       0.0020905745 -0.15158542 0.07766331 0.06502448
000300 73 8d 42 be a3 50 ba 3d 21 2d 11 be 06 86 3f 3e
       -0.18999271 0.090974115 -0.14177372 0.1870347
000310 36 7b c3 bc 90 fd 75 be 26 68 08 3b 10 f7 d4 3c
       -0.023862462 -0.24022508 0.002081403 0.025996715
000320 b4 51 7f be 48 d1 8a 3d 09 4b 43 bd be c8 05 3e
       -0.24933511 0.067781985 -0.04767898 0.13064858
000330 45 02 7f be 05 75 89 be 10 f5 0a 3d 04 59 2b bd
       -0.2490321 -0.2684709 0.033925116 -0.04183294
000340 65 70 da 3e a4 50 cf bd 33 c2 6b be 98 c7 8b be
       0.42663875 -0.10122803 -0.230233 -0.27300715
000350 c5 17 53 3c ff c2 d0 3d 1b 33 83 be 00 3b 80 be
       0.012884085 0.101934426 -0.25624928 -0.25045013
000360 55 78 ec 3d 68 9b 9a 3e f3 ad 88 3d 23 92 76 bd
       0.11546389 0.3019669 0.06673803 -0.06019796
000370 44 9d 1f 3e 41 7d a6 3d 03 ba 78 be 2f a6 1f be
       0.15587336 0.08129359 -0.24289708 -0.15590738
000380 4a b2 84 3e 5b b7 10 be 04 d5 73 be 92 34 9c bd
       0.25917274 -0.14132445 -0.23811728 -0.076272145
000390 19 a8 3c be 1a 09 94 bd ba 75 40 bd 86 e4 9e bd
       -0.18423499 -0.072282985 -0.046987273 -0.07758431
0003a0 ff 0a 52 bc 14 5c a3 3d a3 14 82 be 72 fb 96 3e
       -0.0128200045 0.07976547 -0.2540637 0.29488713
0003b0 74 52 b0 3d 9d fd 69 bd b9 cc 1e be 57 79 8f 3e
       0.08609477 -0.05712663 -0.15507783 0.28022262
0003c0 84 cc fe bd 39 e2 4b be 73 08 fa 3d ae aa f8 bd
       -0.12441352 -0.19910516 0.12208643 -0.121419296
0003d0 d3 fa e2 be ec e0 f9 3e 29 5e 3f bd cd 36 96 be
       -0.4433199 0.48804414 -0.046720657 -0.29338685
0003e0 3a 0d dc bd 67 8e a7 3c 05 57 10 bd 51 d2 30 bd
       -0.1074471 0.020453645 -0.03523924 -0.043169323
0003f0 6a fd 28 be 99 df 38 be c9 05 15 3e d0 dd 1d 3e
       -0.1650292 -0.18054046 0.14552988 0.15416646

model.0.bias f4 [128]
000000 25 7c 12 be 48 44 ec bd 8a 54 41 bd 89 b6 40 bc
       -0.1430517 -0.11536461 -0.047199763 -0.01176227
000010 47 9a 1b bd ab 6d 10 bd 0b 4e ad 3c ca e3 fd bd
       -0.037988927 -0.035260838 0.021155378 -0.12396963
000020 47 d1 09 3d 62 c1 ef bd 43 61 da bc 45 50 11 be
       0.033646848 -0.11706807 -0.026657706 -0.14190777
000030 ff 8e f2 bc 25 cc 16 be 1e 19 ad bd 33 53 c4 3c
       -0.029609201 -0.14726312 -0.08452056 0.023965454
000040 c1 5a 30 be 1f fa 47 3e 92 53 75 3d 77 52 27 bd
       -0.1722212 0.19529007 0.059894152 -0.04085013
000050 de 59 4b bd d6 b2 e1 bd ef d0 93 bd cb 73 7a bd
       -0.04964625 -0.110204384 -0.07217585 -0.061145585
000060 11 7f bc bc a2 08 94 bd c0 f9 3b bb 83 9c ae bd
       -0.023009809 -0.07228209 -0.0028682798 -0.08525946
000070 14 0b 62 bd 48 25 db bd c6 9c b6 bd 83 75 42 bd
       -0.055186346 -0.1070047 -0.08916621 -0.04747535
000080 70 c0 a7 3d ea 23 2e bd 07 88 8d bd 14 33 c1 3a
       0.081910014 -0.04251472 -0.06910711 0.0014739954
000090 e7 c6 20 be 62 af 54 bd 91 da 4a be 44 9f 3b bd
       -0.15700875 -0.05192507 -0.19809939 -0.045806184
0000a0 30 77 e1 bb e7 47 5c 3d 9c ee 63 3d 8d 38 66 3d
       -0.0068806633 0.05377951 0.055647478 0.056206275
0000b0 a0 e9 71 3c 98 91 90 3d 15 1f 19 be 62 34 35 bd
       0.014765173 0.0705902 -0.14953263 -0.04423941
0000c0 f4 35 c4 bd fb ed 89 bd 8d b9 12 3d e4 a9 5d bd
       -0.09580603 -0.06734844 0.035821486 -0.0541171
0000d0 30 2a 2d bd 0c 32 03 3d de b5 38 bd 42 ae dc bd
       -0.04227656 0.03203015 -0.045095317 -0.107754245
0000e0 22 d2 86 3c 05 3f 69 bd 73 72 d1 bd 6a bb 12 3c
       0.016457621 -0.056944866 -0.102269076 0.008955816
0000f0 4f ff bc bc 57 87 97 bc e6 41 69 bd 25 f4 7d bc
       -0.02307096 -0.018497152 -0.05694761 -0.015500103
000100 f0 d6 11 3d 58 38 2d be 9a 68 30 be dc ce b7 bd
       0.03560537 -0.16916025 -0.17227402 -0.08975002
000110 37 a4 01 bb b6 e1 de bd 46 97 6b 3d cd 24 d2 bd
       -0.0019781718 -0.10882895 0.057517312 -0.102609254
000120 3f 70 36 3e 88 32 9a bd 48 17 da bd 6c a8 8f bd
       0.17816256 -0.07529169 -0.10648972 -0.07014546
000130 59 b4 87 bd c7 51 73 be bc 23 d4 bd 1a a4 d7 bd
       -0.066261955 -0.23761664 -0.10358378 -0.10529347
000140 6a 5c ef bd d6 53 43 3d ee d0 a0 bd 88 4c 7f bb
       -0.116875485 0.047687374 -0.0785235 -0.0038955528
000150 b1 b6 d5 bd cd e3 01 bc b3 54 24 be b9 a7 06 3d
       -0.10435236 -0.007927847 -0.16047935 0.032874797
000160 73 24 0e 3c db 71 31 3d 67 e0 84 bd 68 b7 07 be
       0.008675682 0.04332147 -0.06488114 -0.13253558
000170 df 71 16 be 27 8f 62 bc da 1d f4 bd 18 5a f2 bd
       -0.14691876 -0.0138280755 -0.11919756 -0.1183359
000180 8b 67 e3 bb 53 c6 dc bd f0 53 aa bd b1 fd 6f bc
       -0.0069398335 -0.10780015 -0.08316791 -0.014647887
000190 15 92 2b bd 39 65 b3 3b 4b d2 af bd 3a 71 1e be
       -0.04188736 0.005474713 -0.08585032 -0.1547288
0001a0 eb 1f 03 be e2 0d 09 3e 41 60 88 bd 5f 35 ea bc
       -0.12805144 0.13384202 -0.06658984 -0.028589902
0001b0 55 66 e7 bd 72 88 8c 3d e6 15 d3 bb 01 7a 0d bd
       -0.11298815 0.068619624 -0.0064418195 -0.03454018
0001c0 6b 97 6b bd 13 75 8a bd 08 e0 ac 3d 9e 46 4b 3c
       -0.05751745 -0.067606114 0.08441168 0.012406973
0001d0 10 10 80 bd 3c a9 9d 3c 47 7d 0c 3d 33 5e cf bd
       -0.06253064 0.019245736 0.03429916 -0.10125389
0001e0 3b 76 51 bb 9e 59 a5 bd e8 7c d8 bc 1b b3 4d 3c
       -0.003196134 -0.08073734 -0.026426747 0.012554909
0001f0 7e d7 92 bc e7 39 cd 3d a3 83 05 be da 86 c4 bd
       -0.01792502 0.100208096 -0.13038497 -0.095960334

model.2.weight f4 [64, 128]
000000 be 04 e2 bd 2e f6 8e bd a8 c8 2b 3c 59 80 09 3c
       -0.11036061 -0.06980549 0.010484852 0.008392417
000010 fc 93 7b bd cb 21 8a bd 4b d0 8e 3d 47 16 62 be
       -0.061420426 -0.06744727 0.069733225 -0.2207881
000020 40 bf 9f bd 92 85 96 bd 00 7a f8 bd b9 a6 5c 3c
       -0.0780015 -0.07349695 -0.12132645 0.013467484
000030 ba 62 27 bd fb 53 21 3c 00 5f 09 be 2f 7d 0b be
       -0.040865637 0.009846683 -0.13415146 -0.13621973
000040 f7 59 f6 3c 61 23 3a 3d ae f6 89 bd c0 17 21 bd
       0.030072195 0.045443896 -0.067365035 -0.03932929
000050 cf 80 89 bd 08 bd 80 bd e7 ca 0a bd ac 67 2e bd
       -0.067140214 -0.06286055 -0.03388491 -0.042579338
000060 7b 37 d4 3c c7 f9 19 3c 2e 45 0d bd bf 33 c1 bc
       0.025905361 0.00939793 -0.034489803 -0.023584245
000070 67 85 67 bd 29 26 82 bd d9 73 ae bd 7b 0d ba bd
       -0.056523707 -0.06354935 -0.0851819 -0.090846024
000080 9d d3 01 bc 90 88 ff bd f1 75 13 be 00 81 bb 3d
       -0.007923988 -0.12477219 -0.1440046 0.09155464
000090 6c 90 07 be bd 77 dd 3c bc d0 dc bc 0f 1b d2 bd
       -0.13238686 0.027034635 -0.026955001 -0.10259067
0000a0 7e a3 d2 bc dc 2d 8e 3c 02 2b ef bc e0 36 dc bd
       -0.025712725 0.017355852 -0.029195312 -0.10752654
0000b0 2c f4 df 3d 7c 08 51 bd 33 ec 33 3d 04 95 99 bd
       0.10935244 -0.051033482 0.04392643 -0.074991256
0000c0 69 24 f5 bd d9 15 1e be f2 be 5f bd 1e 7a 38 bd
       -0.11969835 -0.15438022 -0.05462546 -0.045038335
0000d0 3f b2 85 bc 6b 7f fd bd dc 9a af bd 4c 54 4e bd
       -0.016320346 -0.12377819 -0.08574459 -0.05037336
0000e0 93 9c f8 bd b1 b8 cc bd 28 d8 76 bd 48 c3 4f be
       -0.12139239 -0.099961646 -0.060264736 -0.20289338
0000f0 7c 97 c2 bc 65 03 ae 3c f5 33 af bd a0 68 b9 bc
       -0.023753874 0.021241853 -0.08554832 -0.022632897
000100 a1 6c ab bd 67 07 86 bd a7 8a a0 bd 1f bb 39 bc
       -0.08370329 -0.06544381 -0.07838946 -0.011336117
000110 db 0a 09 3d 8b db 56 be 77 26 6b 3d 50 7f 74 3c
       0.03345762 -0.20982186 0.05740973 0.014922932
000120 de e3 37 be ac 4c ff bc db 85 90 3c 15 3a e9 bd
       -0.17958018 -0.03116449 0.017641952 -0.113880314
000130 2a 9f de bd ba 3a 98 bd e1 7f a7 bc 6d 94 af 3a
       -0.10870202 -0.07433076 -0.02044672 0.0013395675
000140 3f 16 a1 3d 82 ae 14 3d 3b 26 ae bd 5f 33 6a bc
       0.07865571 0.036299236 -0.08503386 -0.014294474
000150 48 ba 0d 3d b8 f1 df bd 3a 6a 18 be fa 2f 09 bd
       0.03460148 -0.10934776 -0.14884272 -0.03349302
000160 98 38 d9 3c 1e b7 c8 bc 3c e5 2b bc c9 2c eb bd
       0.026516244 -0.02450138 -0.010491665 -0.114831515
000170 bd 07 b1 bd ff 6d 0c bd 25 c6 85 bd a3 dc 47 bc
       -0.08644054 -0.034284588 -0.06531934 -0.0121986
000180 de f1 df 3c 4e a8 ca bb 29 8f a3 bd 14 18 a6 bd
       0.027337011 -0.0061846143 -0.0798629 -0.08110061
000190 17 34 94 bd 59 dc 83 3d 58 8a 31 3b dc 48 03 be
       -0.07236498 0.06438512 0.0027090516 -0.12820762
0001a0 f2 e0 3d bc ba 27 ed bd c0 d6 40 be 85 01 b2 bc
       -0.011589276 -0.11579843 -0.1883192 -0.02172924
0001b0 ef 4d 03 be 44 4a d1 bd cf 13 f5 bd 8f 76 da bd
       -0.12822698 -0.10219243 -0.11966669 -0.106671445
0001c0 73 3e 83 3b dc 77 cf 3a 81 b9 fb bd 4e 30 17 be
       0.0040052473 0.0015828568 -0.122912414 -0.1476452
0001d0 5c ce 8f bd 61 81 9a bd ec 5c 53 3a ba c6 58 be
       -0.07021782 -0.07544208 0.00080628577 -0.21169558
0001e0 b5 22 a2 3d 02 40 8e bd 6c 01 25 bd 14 ee 8d bc
       0.07916776 -0.06945802 -0.04028456 -0.017325439
0001f0 dc 17 d0 3b ab 39 b2 bd 84 62 66 bd a6 98 4c 3c
       0.0063505005 -0.087024055 -0.056246296 0.012487566
000200 3a c0 17 be 9f 81 63 be 6a a9 9d bd dd 70 87 be
       -0.14819422 -0.22217415 -0.07698329 -0.26453295
000210 ec bb ab bb 86 70 e2 bd 60 70 d0 3d 16 a0 b8 be
       -0.005240908 -0.110566184 0.10177684 -0.36059636
000220 e1 70 87 be 78 f7 af be 64 fd 5f be 66 0a 18 3d
       -0.26453307 -0.3436849 -0.21874005 0.03711929
000230 48 28 3f be 5b 8f 6c be 52 c8 02 3e 48 09 9c be
       -0.1866771 -0.23101561 0.12771729 -0.3047583
000240 e0 00 95 be 7a 51 01 be a0 6a d5 bd a0 70 c3 be
       -0.2910223 -0.12628737 -0.10420728 -0.38171864
000250 75 6a 01 be 53 3f 60 be 51 00 9e 3b 74 72 c2 be
       -0.12638266 -0.21899156 0.004821815 -0.37977946
000260 56 28 a1 bd 7b 82 00 be 64 3d 9d be f1 90 dd be
       -0.078690216 -0.12549774 -0.307109 -0.43274644
000270 ab 30 48 bd 5d 32 a5 3c 99 a2 02 be 82 ee 64 be
       -0.04887454 0.020165617 -0.12757339 -0.22356609
000280 75 53 84 3d 40 a4 3e be 3e 2b df be 50 c4 93 3d
       0.06461231 -0.18617344 -0.4358768 0.07215178
000290 a9 6d 84 be aa 1c da 3d 89 e7 23 be 5f 1d 0d bf
       -0.25864914 0.106499985 -0.16006292 -0.5512294
0002a0 e8 ce c3 3d 03 78 bf 3d 0d 69 79 b8 f2 da f9 be
       0.095609486 0.09349062 -5.9464062e-05 -0.48799855
0002b0 e2 3d 14 3d ed d3 b1 be 3a 09 b8 3d 50 b7 0e 3d
       0.03619183 -0.34732 0.08986135 0.03484279
0002c0 55 69 92 3e 6e 4d 20 be f4 1e 88 bd 71 13 f6 3d
       0.28595987 -0.15654537 -0.06646529 0.12015427
0002d0 9f ac e0 bc a1 01 c4 bd 38 20 b3 be 62 5d a1 bc
       -0.027426062 -0.09570623 -0.34985518 -0.019697849
0002e0 ed 56 90 bd 4f 9c af 3d da 97 b0 bd 2d 13 c1 3c
       -0.0704783 0.085747354 -0.086227134 0.023568714
0002f0 fe 47 21 3e 16 1f 68 3e 78 6e 57 be 0b 90 d3 bc
       0.15750119 0.22668108 -0.21038234 -0.025825521
000300 46 17 1a 3e 4c 48 27 be 68 da dd 3d d7 f2 76 3d
       0.1504794 -0.16336173 0.10832673 0.060290184
000310 9d 6d b1 be 9b f7 92 3e 71 86 1e be 69 c8 bc bd
       -0.3465394 0.28704533 -0.15480973 -0.09217913
000320 e6 f8 b2 bd 46 78 b2 bd fe 11 64 be 7d 2a ad bd
       -0.0873888 -0.087143466 -0.22272488 -0.084553696
000330 77 f5 bc 3c 61 fa ba bc 6b 0e 82 bd 18 b9 87 be
       0.023066266 -0.022824468 -0.06350406 -0.26508403
000340 18 b0 85 be 2d 8e 86 3e 48 4b 31 be 8a 31 47 3d
       -0.2611091 0.26280347 -0.17313874 0.04863123
000350 79 f0 9e be d2 18 1d 3c f3 92 46 3d e5 02 cb bd
       -0.3104284 0.009588437 0.048479985 -0.099126615
000360 b2 8e 31 3e b9 a0 84 be a6 65 ea be 2e c6 6c bc
       0.1733959 -0.25903872 -0.45780677 -0.014451547
000370 9f ed c3 be ac e4 98 be 56 c4 1a be 1d 06 7a be
       -0.38267228 -0.29861963 -0.15113959 -0.24416395
000380 f0 a1 68 bd c5 d2 89 3d b5 90 04 be 9f 08 b8 be
       -0.05679506 0.06729654 -0.12945826 -0.35944077
000390 e6 4a d0 bd 55 1a 54 be bf f6 4c be 52 ec 8f be
       -0.10170536 -0.2071317 -0.20016001 -0.28109986
0003a0 d3 af 73 be 77 d9 f8 3d 4e 8a ea be 1c ee 06 be
       -0.2379754 0.12150853 -0.45808643 -0.13176769
0003b0 ba 23 9a 3e a6 0c c0 bd a5 82 d3 3d 21 8b 81 be
       0.30105382 -0.093774125 0.10327653 -0.2530146
0003c0 c9 8d 1b be 7b 6a 97 3e 36 d9 9b bd 6c f2 e2 3d
       -0.15190805 0.29573426 -0.07609789 0.110813946
0003d0 8e 1e dd bd 8b 89 57 bd 8c 3a 0b be fb a5 82 bd
       -0.107968435 -0.052621406 -0.13596553 -0.063793145
0003e0 87 8f 52 3e 89 b4 de bd fe 40 19 3d fd aa 3a 3e
       0.20562564 -0.10874278 0.037415497 0.1822929
0003f0 a9 61 06 be 2b 3f 20 3d 68 e9 55 3d 33 02 69 3e
       -0.13123192 0.03912274 0.052224547 0.22754745

model.2.bias f4 [64]
000000 97 84 46 3c 4e 30 c6 3b 56 ef e9 bd f3 54 3a 3f
       0.012116573 0.006048239 -0.11422603 0.7278587
000010 af da c9 bc 45 9d ba bb cc 62 4d 3e 02 4f 55 3d
       -0.02464041 -0.0056950175 0.2005722 0.0520773
000020 67 12 46 3e 9b 52 1e 3d 72 38 85 3e 8b f1 ef bd
       0.19342957 0.038652997 0.26019627 -0.117159925
000030 42 f6 a6 be 87 df 87 bd 4f 0a f5 bd 40 92 aa bd
       -0.32609755 -0.06634431 -0.11964857 -0.08328676
000040 8c 4d 84 3c 85 b6 1f bd ef 94 27 be 20 88 86 3d
       0.016150258 -0.038992424 -0.16365407 0.065689325
000050 75 1f 12 bd 18 d1 ba bd be 65 33 3e 3a db ed 3e
       -0.03567453 -0.09121913 0.1751928 0.4645632
000060 3e 5a 73 be cd e9 cf 3d a4 0c 3f be af 66 2d be
       -0.23764893 0.10152016 -0.18657166 -0.16933702
000070 0e 77 00 be ae 69 0b be 8d 9c d4 bd da a1 2a be
       -0.12545416 -0.13614532 -0.10381422 -0.16663304
000080 c9 54 21 be a3 0d 8a bd e8 d4 8b 3d 30 2f 46 3d
       -0.15754999 -0.06740882 0.06827718 0.048384845
000090 46 62 67 bd 57 4c 38 bd 99 ef 54 bc 97 1f 22 be
       -0.056490205 -0.04499468 -0.012996578 -0.15832363
0000a0 f4 ec 1d bd d4 56 29 3e 67 6f dc be bf fa 78 be
       -0.038556054 0.16537029 -0.43053743 -0.24314402
0000b0 51 17 9d bd 4a 89 90 be ff 97 d6 bd cf a1 14 3e
       -0.07670463 -0.28229743 -0.1047821 0.1451485
0000c0 b4 f3 a6 3d 57 f6 38 be 37 d2 aa bd 5b 57 07 bf
       0.081519514 -0.18062721 -0.083408765 -0.5286767
0000d0 db 62 a9 bd 92 cb 0d bd 6c ae 06 be ee 03 48 3d
       -0.08270808 -0.034617968 -0.13152474 0.048831873
0000e0 ad c7 ee bd c1 9c 61 bd e5 a3 53 be a1 0f e0 bd
       -0.11659179 -0.055081133 -0.2066799 -0.10940481
0000f0 d5 64 8e bc af 45 11 3d 39 05 13 be a8 10 ae bc
       -0.017382065 0.035466846 -0.14357461 -0.021248177

model.4.weight f4 [4, 64]
000000 b9 f3 d3 3d 47 2b 2b 3d 46 e6 e2 bd dc 3d cd 3d
       0.10349221 0.04178932 -0.110790774 0.10021564
000010 ab b2 69 be 33 bf 7d 3e 9f 0d 0a 3d ba 57 30 3d
       -0.22822063 0.24779968 0.033704396 0.043052413
000020 45 ec 55 3e ca 80 b3 3c 55 f3 1a 3e bc e6 04 be
       0.20890911 0.021911997 0.15131886 -0.12978643
000030 de d3 ed bd 72 aa 7d bc 72 57 72 3e 75 af 61 be
       -0.11612676 -0.015482532 0.2366617 -0.22039588
000040 1f 57 3a 3e 5a 86 14 3e 81 a2 23 3e 89 16 c9 3b
       0.18197297 0.14504376 0.15979959 0.0061367196
000050 9d 56 50 3e c7 c1 f3 bd ff db 2e 3e e5 2e 37 3e
       0.2034554 -0.119021945 0.1707611 0.17888983
000060 1f 65 4a be 89 9d a2 3b 3f 17 91 bd 3d 60 49 bc
       -0.19765137 0.0049626273 -0.07084512 -0.012291011
000070 6c 41 c0 be 59 d5 19 bd f6 a6 88 bd 22 b2 88 bd
       -0.37549913 -0.03755698 -0.0667247 -0.06674601
000080 aa 6e 81 3e 6b 64 6a 3b 81 65 8b be 4a 95 80 3c
       0.25279742 0.003576542 -0.2722588 0.015696187
000090 b2 cb 36 bd f2 eb 06 3d 58 1a c3 bd 09 80 91 3c
       -0.044627853 0.03293986 -0.09526509 0.017761247
0000a0 0a 9b af 3d 43 81 79 bd 09 9b 30 be c2 75 8f be
       0.08574493 -0.06091429 -0.17246641 -0.2801953
0000b0 02 33 ec 3c 6b 82 7c be 65 ed 97 3d c7 89 e4 3d
       0.028832916 -0.24659126 0.07418326 0.111590914
0000c0 34 b5 2b 3e dd 6c 05 be 62 3f 99 be fc b7 0c be
       0.16768342 -0.1302981 -0.2993117 -0.1374206
0000d0 ba 90 98 3d bc 86 8a be cc 41 99 bd 76 c5 9f be
       0.074494794 -0.2705592 -0.07483253 -0.31205338
0000e0 c3 b3 54 3e 93 ff ea bb 1e dd f9 bd 55 c4 80 be
       0.20771699 -0.00717158 -0.12200378 -0.2514979
0000f0 db 6b 0a 3e 96 fb b9 3c 89 31 c9 3d c2 76 ff 3d
       0.13517706 0.022702973 0.09823901 0.12473823
000100 77 2e ae bc 28 f0 b3 bc 7f 3e 27 be da de e5 3d
       -0.02126239 -0.021965101 -0.16332434 0.11224146
000110 24 40 85 bd 73 aa 00 3e 16 c7 2f 3d 58 cf f6 3d
       -0.065063745 0.12565021 0.042914473 0.120512664
000120 e0 17 33 3e 1e 27 13 3d 00 45 e5 3d 42 1c 87 bd
       0.17489576 0.035925977 0.11194801 -0.065971866
000130 01 94 13 be 21 ff 8e be 83 ff e3 3d 10 a4 ea 3d
       -0.14411928 -0.27929023 0.11132719 0.11457074
000140 13 6e 27 3e ee 36 2d 3e 4b 29 5f 3e f4 9d ff 3d
       0.16350584 0.16915485 0.21793096 0.12481299
000150 dd 35 55 be b7 87 b8 bd da a0 4c 3e ea ed 01 3e
       -0.20821328 -0.090102606 0.19983235 0.12688413
000160 25 4d 12 3e ef 27 c2 3d 99 4e 2e be 3e fd 70 bd
       0.14287241 0.09480273 -0.1702217 -0.05883526
000170 b1 f7 dd 3d dd 54 d3 bc 14 01 23 3e 29 6e 41 3d
       0.10838259 -0.025797302 0.1591838 0.047224198
000180 6e b4 2c 3e c7 64 17 3c 83 56 e4 bd 00 89 df 3d
       0.16865703 0.009240336 -0.11149313 0.109148026
000190 77 55 a5 3c e2 94 15 be ce 79 8b 3d 98 f5 c9 bd
       0.020182354 -0.14607576 0.06810342 -0.098612964
0001a0 86 66 52 3e 67 8a f9 bd d8 d2 3b be 17 e4 8c ba
       0.20546922 -0.12184601 -0.1834215 -0.0010749128
0001b0 4e 9c 31 3d 65 35 a2 bd 12 bb 42 bd 43 9c 12 3e
       0.043361954 -0.079203404 -0.047541685 0.14317422
0001c0 04 31 95 3d 84 53 3e bd 78 a8 1c bf 83 ab 48 bd
       0.072847396 -0.046466365 -0.6119456 -0.04899169
0001d0 c7 8b a3 3e 37 e3 98 3c ed 3f b3 bc 82 7a b7 3d
       0.3194258 0.018663032 -0.021881068 0.089589134
0001e0 25 99 b7 be 2c 49 a7 bd 50 c8 c2 bc e2 3b b3 bd
       -0.35859028 -0.08168253 -0.023777157 -0.08751656
0001f0 1e 08 76 bd e0 02 97 3d 9c 04 c7 3c 40 98 df 3e
       -0.060066335 0.07373595 0.02429419 0.43670845
000200 03 62 c6 bd ed ff b3 bd 37 d5 76 3e 48 21 05 3e
       -0.09686663 -0.08789048 0.24104773 0.13000977
000210 4b 11 b6 be e7 34 72 bd 68 a2 05 3e 25 ca 8d be
       -0.35560068 -0.059132483 0.13050234 -0.27693287
000220 32 4c 34 3d b4 bc 25 3e 34 d0 b6 bc 5c 18 0c bd
       0.044017978 0.16185266 -0.022316076 -0.03420292
000230 60 e4 5d 3c 77 67 30 3e 08 8b 8a 3e 80 ae 40 3e
       0.013543218 0.17226969 0.27059197 0.18816566
000240 27 a9 e8 3d d1 ba 33 be cc 12 56 3e 02 fb 52 bd
       0.11360388 -0.17551734 0.20905608 -0.05150891
000250 c1 4b f9 bd fe 02 67 be ab bb 48 3d c3 82 d7 3d
       -0.12172652 -0.22559735 0.0490071 0.10522988
000260 12 89 23 3e 6e 8a 89 3c 62 2a 94 3e cf 56 6f 3e
       0.15970257 0.016789641 0.28938586 0.23372959
000270 bc 13 69 be 87 01 c0 3d 1b 94 64 be d4 25 54 be
       -0.22761434 0.09375291 -0.22322123 -0.20717555
000280 b1 41 c8 bd a0 16 aa be f7 8f 96 bd 78 6f 66 3e
       -0.09778155 -0.33220387 -0.07351678 0.2250346
000290 5e 3a 8f be 67 e8 ad 3e e7 a5 25 3d 63 a6 22 bd
       -0.27974218 0.3396637 0.04044142 -0.03970946
0002a0 fd 5f 9e bd 72 7c 66 3e 81 6a 83 be 98 f6 07 be
       -0.07733152 0.2250841 -0.25667194 -0.13277662
0002b0 95 9f 19 3d 59 00 92 be 9e 3c f0 bc 78 a8 75 3e
       0.037505705 -0.2851589 -0.02932578 0.23990047
0002c0 ad 8d 93 3e 8d 9f 2b be 44 bc 09 bd dd 9b 0d bd
       0.28819028 -0.16760083 -0.03362681 -0.03457247
0002d0 a0 e3 3d be c9 6e 2c 3e ac 5b 62 3d b3 0a a2 bd
       -0.18543863 0.16839136 0.055263206 -0.07912197
0002e0 0a e8 72 bd 0e b4 56 be 60 fe 6d 3e 44 36 87 3e
       -0.05930332 -0.20967123 0.23241568 0.2640859
0002f0 66 8c 48 bd 30 7f 06 be 2c 54 2e bb 6d 73 3f 3e
       -0.04896202 -0.13134456 -0.0026600463 0.18696375
000300 ca 8a 89 bd e0 1d 85 3e 84 cd df 3d f5 07 26 3e
       -0.06715925 0.25999355 0.10927871 0.16213973
000310 cf 0f 19 be 27 d3 8f bc 5c 02 ad 3d ec 7f d3 be
       -0.14947437 -0.01755674 0.08447716 -0.41308534
000320 12 be e3 3c cb 73 bf 3d 40 4e a0 3d e1 4e 83 3d
       0.027800594 0.09348258 0.07827425 0.06411529
000330 40 33 2d be cd 75 b5 3e 64 78 e0 bd 73 d3 0f 3e
       -0.16914082 0.35441437 -0.10960463 0.14045505
000340 07 3e a3 3c 30 6b 8c 3e f1 46 7b 3e 83 6e d2 3d
       0.019927038 0.27425528 0.24538781 0.10274985
000350 d9 7b 97 be e0 bd 30 be 92 d7 88 3e fb 28 c1 3d
       -0.29586676 -0.17259932 0.26726967 0.094316445
000360 0f 0d 59 3e fc be ee 3c 9d 92 2d 3e 0b 24 4c be
       0.21196388 0.029143803 0.1695046 -0.19935624
000370 42 d6 5c be be f4 46 be 32 84 70 be 24 66 aa bd
       -0.21566108 -0.19429299 -0.23487929 -0.08320263
000380 86 c8 5f be 94 c2 e6 3d 06 1c 7b be ee 91 a2 3d
       -0.21853837 0.112675816 -0.24522409 0.0793799
000390 03 0d 0e 3e c1 34 e8 bd 7b 74 15 bb 19 da 47 bc
       0.13872151 -0.11338187 -0.0022805023 -0.012197995
0003a0 c5 fb 10 3b 69 4c 9f 3e 06 d5 88 bd 1b e5 b5 bd
       0.0022122723 0.31112984 -0.06681256 -0.08881589
0003b0 b2 9e e1 bd d0 5a 9b be 77 b2 b5 bd 45 3b 59 3c
       -0.11016597 -0.30342722 -0.0887193 0.01325876
0003c0 f5 72 ea 3d a1 50 a8 be 65 5d f3 bd 37 21 8c bd
       0.114477076 -0.32874015 -0.11883048 -0.06842273
0003d0 fb 4c ae ba 40 c4 c4 bd 76 0f 1a 3e 10 8e fa bd
       -0.0013298088 -0.09607744 0.1504496 -0.122341275
0003e0 49 eb 8e 3e 03 5c 49 3d 5f 43 05 bc 6c ed f2 3b
       0.27913883 0.049160015 -0.008133738 0.007413557
0003f0 3c d0 8f 3b 2f ba 86 3d 53 67 d5 3d 60 41 d1 3c
       0.004388837 0.065784805 0.10420098 0.025543869

model.4.bias f4 [4]
000000 df db 11 3f e0 09 09 3f c3 aa 0d 3f 03 a8 00 3f
       0.5697612 0.53530693 0.55338687 0.50256366
