models/3/q_final_n286.pt (torch, 131223 bytes, 6 tensors)

model.0.weight f4 [128, 185]
00000000: b7f7 853c aaf6 babe 5e06 adbe b418 ce3c
00000010: 40ac dabe 8217 9dbe 8da5 2c3e 8432 72be
00000020: 2e60 a93e 0ff3 bc3d ef89 21bf ade0 793d
00000030: 0a2e 4b3e 437c 8f3d af8a 85bd 4ca6 c6bc
00000040: 164f 87be cb62 2b3c ad64 503e 309f 25be
00000050: c381 93be 9e3c 023e 1678 a83c 3c4d 12be
00000060: 5535 22bd 9a69 2abd 2382 973a 819e e2bc
00000070: fb4b a3be e470 713e dba9 efbe a141 873e
00000080: 6970 67be 4e8f bbbd fbf1 663d 2d80 d33d
00000090: ff35 4dbd 60cb 193d 6250 efbe 9438 0e3d
000000a0: 8334 45bd 4f6c 82bd 70ac 833d 5f8a 29be
000000b0: e412 0dbc 064e 9b3d b19e babd f97b 73be
000000c0: 4352 b0bc f5c6 2c3e 06a4 9ebe ee15 27bd
000000d0: 524b 033e d30f 19be 2228 afbd 502d 813d
000000e0: de36 d0bd b42f 873e 9c6e 91be 7ef0 0abc
000000f0: f5ac 7e3e 0116 c0be 871e c53d 7d39 94be
00000100: 73ef 9dbd b6d7 2bbe 2c95 423e 2198 aebe
00000110: 77f6 3f3e 7903 72bd 4f55 423d 517d e7bd
00000120: 1ed6 95be 38b0 5ebd c082 13be bee7 a3be
00000130: de03 90bb 47d4 813e d1fc 60be 3fd2 263e
00000140: 21cd 1dbe ba1f 153c 675a 93be 4a0a 6ebe
00000150: 3505 a13e 6dbe 00bf 69a8 273e 7d22 2fbf
00000160: a82e e4be e2eb 6c3e 3ba2 47be c623 f2bd
00000170: c008 bbbe 8651 9e3e 1ffd 18be fe5a 0a3e
00000180: 83e9 803d 5743 5ebe f66d 00bd 82d9 ccbe
00000190: 8db8 913d d536 503e c809 77be 3796 833e
000001a0: 5642 6abe b648 8c3d f211 70be 9cc0 383e
000001b0: 7cb4 40be 1087 b8bd ce74 2c3d 01da 3f3e
000001c0: d645 2abf 5874 38be b433 e2bd b8d3 32be
000001d0: 1659 6b3e 46db 1d3e 9582 a2be 02a6 9abe
000001e0: 524e fabb 147d 05be 33ca 283d da73 843c
000001f0: 6cc9 d6be 19d3 29be e005 573e fb7d 853c
00000200: 247f d8be ef80 56be de16 ca3d 020f 6fbc
00000210: 3268 2f3e 0b72 a0be e523 8abd 5357 b8bc
00000220: 0ebb 7a3e c4ea 15bd 1972 abbe 73e5 60be
00000230: 55e4 c23d 4210 56be 0a7d 2a3e ff3b bdbd
00000240: 8135 42bd 4032 2ebe f789 093e 0bfa ef3c
00000250: 39c3 403e 1a48 e7be 809b a2bb c2e7 e1bd
00000260: 1aea 513e aad3 2fbc 7211 da3e 9eb2 01bf
00000270: b027 b4be 5c31 c23e 2359 d5bd a9b6 1b3e
00000280: 0ece acbd 8a6c 14bf 2136 d0bc a0ce 233e
00000290: ac50 11bf 355e 39bf 20d2 973e cdb1 5c3a
000002a0: f5f7 893d 811b a2bd 3abc 41bd 2f54 0c3d
000002b0: 9fc9 5abe 8ff6 813e 0de8 57be a3fb cebe
000002c0: 0a6f fcbc 1101 bb3d 840d 69be 9937 893e
000002d0: ed4e cbbe 3531 41be 591a b13d c4d3 58be
000002e0: 1d34 5ebd 8072 9d3d d9b8 0f3e 4c54 973c
000002f0: c789 82be 3cd4 3d3e fd74 f73d a297 4fbe
00000300: 91f0 dabc 106c 5d3e 46b8 4c3c 8fd8 8fbd
00000310: 9ebc 713d 1f6a 393d 2cbd 193d 63aa 94be
00000320: 7bf8 65bd fe40 6a3e 8947 7fbd bc73 6e3d
00000330: fb22 e33d 41b7 373e 6280 3e3e 36c2 20be
00000340: d666 acbe 612a 96bd af1d 07be 4270 3c3d
00000350: 9306 3d3e 7f72 e2bd b7d3 54bd 25e6 233e
00000360: 78f4 283d 4a55 42be 2b0a 90be b929 f33d
00000370: fd47 2f3e 5d16 8fbc 0b30 f2bd 1379 3b3e
00000380: eb64 e83d dfd0 14be d6ec 1d3e f984 b1bd
00000390: 375e 29ba 4388 6e3e d2ec 84be a06f 863e
000003a0: 4498 af3d 059a 663e 198b eabd 7f54 08bd
000003b0: 2c8d 83be 41d7 16bd f388 f7bd 55e4 873d
000003c0: 5f46 9d3e ebab aa3d e9ea 263e 849f 643d
000003d0: 4772 8cbe da97 cfbd 74d3 7c3c 2e99 f2bd
000003e0: 6488 893c 0a6a e23d 7dfb 953e 590a 2fbe
000003f0: 4106 103e 80d8 2abe 1478 13be 8768 0a3e
0.016353471 -0.36516315 -0.3379392 0.025158264 -0.4270954 -0.30681998 0.16860028 -0.23652083
0.33081192 0.09226047 -0.63101095 0.061005283 0.19841781 0.07006123 -0.065205924 -0.024249218
-0.26427525 0.010460566 0.20350905 -0.16174006 -0.28809938 0.12718436 0.020565074 -0.14287275
-0.039601643 -0.041604616 0.001155917 -0.027663471 -0.31893906 0.2357822 -0.46809277 0.26417258
-0.22601475 -0.091581926 0.056383114 0.10327182 -0.050100323 0.03754747 -0.46741015 0.034721926
-0.048145782 -0.063683145 0.06429374 -0.1655669 -0.008610461 0.07583241 -0.09112299 -0.2377776
-0.0215236 0.16872771 -0.30984515 -0.0407924 0.12821701 -0.14947443 -0.085525766 0.06307471
-0.10166715 0.26403582 -0.284047 -0.008480189 0.24870665 -0.37516788 0.09624963 -0.2895011
-0.07711687 -0.16781506 0.19002217 -0.3410044 0.18746363 -0.059085343 0.047444638 -0.11303199
-0.2926492 -0.054367274 -0.14405346 -0.32012743 -0.0043949923 0.25357267 -0.21971442 0.1629114
-0.15410282 0.0091018025 -0.2877991 -0.23246112 0.31449285 -0.50290567 0.16372837 -0.68412
-0.44566846 0.23136857 -0.1949548 -0.118232295 -0.36530113 0.30921572 -0.14940308 0.13511273
0.06294539 -0.21705376 -0.031354867 -0.40009695 0.071152784 0.20333417 -0.24124825 0.25700542
-0.22876868 0.06849806 -0.23444346 0.18042225 -0.1881885 -0.09010136 0.04210358 0.18735506
-0.6651281 -0.18013132 -0.11045018 -0.17463577 0.22983202 0.15415677 -0.3174025 -0.3020478
-0.007638731 -0.13035995 0.041208457 0.016168524 -0.41950548 -0.16584434 0.20998335 0.016295424
-0.422845 -0.20947622 0.09867643 -0.0145909805 0.17129591 -0.31337008 -0.067451276 -0.022502577
0.24485418 -0.036600843 -0.33485487 -0.21962528 0.09516207 -0.2090464 0.16649261 -0.09239959
-0.047414307 -0.17011356 0.13431536 0.029294034 0.18824472 -0.45172197 -0.0049623847 -0.110305324
0.20499459 -0.010731617 0.42591435 -0.50663173 -0.3518653 0.37928283 -0.10417392 0.15206398
-0.08437739 -0.5797812 -0.025416436 0.1599679 -0.5676372 -0.72409374 0.296525 0.00084188284
0.06736747 -0.07915402 -0.047298647 0.03425997 -0.21365975 0.25383422 -0.21084614 -0.4042636
-0.030814666 0.09131063 -0.22759062 0.2680023 -0.39708653 -0.18866427 0.086476035 -0.21174532
-0.054248918 0.07687855 0.14035358 0.018472813 -0.2549574 0.18537992 0.120828606 -0.20272687
-0.02672604 0.21623254 0.012495106 -0.07023727 0.05901777 0.04526722 0.037533924 -0.29036245
-0.056145173 0.22876355 -0.06232408 0.05821584 0.11090656 0.17941 0.18603662 -0.15699086
-0.33672208 -0.07332302 -0.13194917 0.046005495 0.18459539 -0.11056995 -0.05195972 0.16005762
0.04124877 -0.18977848 -0.28132758 0.11873192 0.17117305 -0.017466718 -0.1182557 0.18307905
0.113473736 -0.14532803 0.15422377 -0.08667941 -0.00064608775 0.23294167 -0.2596193 0.26257038
0.08573964 0.22519691 -0.11452312 -0.033283707 -0.25693643 -0.036826376 -0.12086668 0.06635348
0.3071775 0.08333572 0.16300549 0.05581619 -0.27430937 -0.10136385 0.015431274 -0.11845623
0.016788669 0.110553816 0.29293433 -0.17093791 0.14064886 -0.1668415 -0.14401275 0.13516437

model.0.bias f4 [128]
00000000: 68ea aaba c9eb 203d 5d7d ec3b 5da1 bcbd
00000010: d75f 38bd 49dc cdbd a2a8 b1bc edff 36bc
00000020: 8172 f4ba b40a 3d39 5ee8 e33c 8188 febc
00000030: 7642 85bd 6e81 b53d 6d2a c6bd 9449 913d
00000040: 3dac cebd ea6f bcbc 00d9 80bd 18dd 09be
00000050: 2a18 a2bd e8ad 2f3c 9a5d 30be 6063 503c
00000060: efe7 bdbd 6ca9 e4bd 9803 693c 8201 acbd
00000070: baeb 0bbd 0712 26bd 2d48 d3bd 9744 b3bd
00000080: 5130 6cbc 118e d1bd 11d2 453c df7d e3bd
00000090: a661 39be b2ec df3c 4b03 203d 4eda 8abd
000000a0: 7218 96bc 3ab6 31bd c5c9 f63d 3981 113d
000000b0: 889f d5bd 4427 88bd 9a6b 4abd 4e22 debc
000000c0: 79d4 a5bd a351 61bd 0eaf 923d 6b89 b8bd
000000d0: 7cf9 a8bd a390 c83b 5355 f7bc 727a 5d3c
000000e0: 5c41 a93d 14a8 3e3d 2a9e edbd 54c9 3dbc
000000f0: 3ee1 acbd 19c8 32bd 496e 6dbd f054 7abc
00000100: 9bb5 eebd 2117 cabd 6415 04bd 0e26 7b3d
00000110: 7e08 01be 8836 21be 1feb c5bd 5472 e43d
00000120: 3b42 353d 3b78 ad3c b692 20be b96a 5cbd
00000130: b777 fbbd 8e02 93bc 0356 27bc f651 14be
00000140: b71b 903b 3248 49bc 1557 f4bc 99b8 42be
00000150: c5a5 29be cf3b 45bc e9b7 a03d dced e9bc
00000160: 6f4e 50bd 8485 1cbc 4680 1bbd 4405 e03d
00000170: 2c9c f13c 3480 14bd 4a57 babd 793c 53bd
00000180: 70c4 04be 89f1 38bd 68d8 9d3c 5b6d 2cbc
00000190: 441b 6a3d 06cd 46bd 9da6 20be 8e55 8a3d
000001a0: 4e14 06be 83ca 4d3d 69fd 663d b461 a4bc
000001b0: dc06 2f3d 140d d6bb 6452 a4bd 7ae4 fcbd
000001c0: 526e 20be 7f55 a63d 34e2 12be c777 61bc
000001d0: 3f09 32bd 44c7 ddbd ee6c a3bd 27a9 03be
000001e0: 55c9 773d 41c7 ebbd b2dd 513d 5470 84bd
000001f0: 77ae 803d 3952 d8bc 63bd 6bbd 3637 98bd
-0.0013039829 0.039287362 0.007217093 -0.09210465 -0.045013275 -0.10051782 -0.021686856 -0.011169416
-0.0018649847 0.00018028432 0.027820762 -0.03107095 -0.06506817 0.088625774 -0.09676061 0.07094112
-0.100914456 -0.023002584 -0.062913895 -0.13463247 -0.07914765 0.010722615 -0.17223206 0.012719005
-0.092727534 -0.11165127 0.014222048 -0.08398725 -0.034160353 -0.040544536 -0.10316501 -0.08753317
-0.014415816 -0.10232175 0.0120740095 -0.111079924 -0.18103656 0.027334545 0.03906564 -0.067799196
-0.018322203 -0.043386675 0.12050203 0.035523627 -0.10430819 -0.06648114 -0.049419023 -0.027115967
-0.080971666 -0.055009495 0.07162295 -0.090105854 -0.0825071 0.0061207577 -0.030192053 0.013517963
0.082644194 0.04654701 -0.11602433 -0.011583645 -0.08441399 -0.04364786 -0.057966504 -0.01527904
-0.11655732 -0.09867693 -0.032246962 0.06131559 -0.12600896 -0.15743458 -0.096639864 0.11154619
0.044252615 0.021175494 -0.15680966 -0.053812716 -0.12278693 -0.017945554 -0.010213378 -0.1448439
0.004397835 -0.012285279 -0.02982668 -0.19015731 -0.16567142 -0.012038185 0.07847578 -0.028555803
-0.05085605 -0.009553317 -0.037964128 0.10938504 0.029493414 -0.036255077 -0.0909868 -0.051571343
-0.1296556 -0.04515222 0.01926823 -0.010524119 0.05715491 -0.04853537 -0.15688558 0.067545995
-0.13093683 0.05024196 0.056394015 -0.02006612 0.04273115 -0.0065323208 -0.08023527 -0.12348266
-0.15667084 0.08121776 -0.14344102 -0.013761467 -0.04346585 -0.108290225 -0.07979761 -0.12857495
0.06049474 -0.11512614 0.051236816 -0.064667374 0.062832765 -0.026406394 -0.05755366 -0.07432406

model.2.weight f4 [64, 128]
00000000: 7b3f 3cbe 8a67 4dbe 6fe5 01bc b920 563d
00000010: e6b5 22bc a7ec 82be 378b 91be feda 96be
00000020: ad7f 08be 28bd 343d 9c58 66be f22e fa3c
00000030: 165b bdbd c0c3 543d d5eb 233c 8a64 1e3d
00000040: 3ca5 26bd bf6f 2f3d b6eb eb3d 56e0 9bbe
00000050: eca9 52bd 69ef fbbc 5b5e e4bd 1d79 7dbe
00000060: 040d 27be 899c babd 1d50 603d d70a 31be
00000070: f9c1 b2bd 36f6 08be 867c 82bd 688d a33d
00000080: 6d73 50be cc77 1c3d 2bec 62be 96e8 4dbd
00000090: ccd8 a9bd dbc8 80be 6cd9 703e 3a97 0ebe
000000a0: 68fe 53be b24d 41bd 9a0a debe d94f e8be
000000b0: a2e9 7e3d aa9f c2be df3f 36be c9ad 2d3e
000000c0: aeb4 d2bd 91ee 123e 9864 28be 4b59 943a
000000d0: 678d 163d 1521 913d 68e9 78be dc56 0e3e
000000e0: 9cb8 6a3e 0b6e 6cbe acf5 ae3c c067 b3be
000000f0: 2222 d8bc 087c c5bd 74b4 1cbd 3365 dd3c
00000100: cc9d 963d 2cd8 d4bd d26c 8a3d 2e01 61bd
00000110: c120 87bc c16b 85be 103e 02be a476 cebe
00000120: a0d9 dfbd 3618 1fbe 653a 27be 1e28 52be
00000130: a2a7 c83c 1cb5 f7bc 9b68 78be 730c 383e
00000140: 033c d5bd 8d5b 62be 76b5 8bbd 625a 3fbd
00000150: 9a91 12bf 9d96 793d 8e36 883d 1803 06bf
00000160: 35c3 b4ba 63d0 463e d918 803e 62ad 2a3e
00000170: c70b 2cbe 05a5 0cbd d229 08bf 8b11 623d
00000180: 0409 da3c 8739 533d 619e 84bc 7ce7 d13c
00000190: 44dc 0ebe fae3 09be 3c6f 7dbd 4eda c43d
000001a0: d4e2 08be 86e5 653d f0f5 d6be c654 97bd
000001b0: 79fd ff3c 209b b33b f87e 1dbe 2295 f63c
000001c0: 5647 90be 341f 823d f9dc d2bd a843 a63d
000001d0: 8ded cfbc 6a49 a2bd 53b8 18be 2f62 75be
000001e0: 733d be3e 285f 053e a7a8 313c fc12 62be
000001f0: 070c 833c e0d3 183e f475 45be 5d3c 11be
00000200: 60e9 efbc d53c afbc 34a7 87bc a270 d7bc
00000210: 987b 36be e449 933e c2a3 3d3d b5a3 6dbc
00000220: c1f2 71bb 5042 24be 7b47 2c3d 4567 3dbe
00000230: 3f2f 893d 8e78 bdbd 0058 86bd 9c05 813c
00000240: 47a2 2fbe ebbc b5bd ee3c 0a3d 28bb 8dbe
00000250: 1643 9bba 9ca8 093d aaa6 44be c733 c1bd
00000260: 3c40 a8bc d976 43bc a922 733d fee1 babd
00000270: 1718 00bd 9afb 2b3e acb5 37bd 55a5 46be
00000280: a6bc 53be 7a11 afbe d5ae 81be b08c 6dbc
00000290: 35f5 b0bd a2d7 91bd c68d 333e c2a1 fbbd
000002a0: 1ff9 6b3c afe8 52bd 11ca cebd df22 873d
000002b0: 5b58 86bd 9f15 163e 78cf 7cbd fa59 01be
000002c0: 7168 3cbe 819e a0bd c035 dfbd 45dc e2bd
000002d0: fcbb 273d b43c 28be d899 213e fdeb b63d
000002e0: eeb0 713e 383c 2dbd fbe5 0abe 8b59 083d
000002f0: d2a0 463e 9a03 acbe 1f09 873c 6f6c b23d
00000300: 1532 98bd 796b 5dbe fd27 3cbe cadb febc
00000310: 1412 fd3c 21f6 d4be 4b2b 58be 89ee 22bd
00000320: 09af 8bbe 0f5b 183c 4257 b1bd 4807 fabd
00000330: 5ac2 bc3b 99d4 18be 82d1 983d 56d8 823d
00000340: e665 bdbc f5cb 3fbe 2307 ddbd 5064 1dbe
00000350: f494 ccbd c954 47be 108c 023d 83ec 6fbe
00000360: 76fa 3bbc b9fb 09be a947 f13d fe21 1bbe
00000370: 54cd 67be fb54 12be fd9f 143d dcf9 0abd
00000380: 5a6c 42be a1a7 25bd 3106 c43d bd34 a5bb
00000390: 8c7e 90bd a834 17be 34f1 893d 6d47 023e
000003a0: effe b43d d5ef 7c3e 74fa 79be abb2 36be
000003b0: c3ff 3bbe 79a7 853c 8029 f23d 149e 933e
000003c0: fbd2 0f3e 7536 983c 3947 e2bd 7f60 e2bd
000003d0: 83bc 2f3e 14fd 2dbe 19f9 493e e6eb 8f3d
000003e0: 60b4 2e3e 0aa8 96bd 8f36 64bd ebfc efbc
000003f0: 4930 59bd f9e9 37be 0319 17be a142 94be
-0.18383591 -0.20059028 -0.007928236 0.0522773 -0.009931063 -0.25571176 -0.28426525 -0.29463953
-0.13329954 0.044125706 -0.2249474 0.030539963 -0.09245889 0.051944494 0.010004957 0.0386701
-0.040684924 0.04283118 0.11519568 -0.30444592 -0.05143158 -0.030753808 -0.111508094 -0.24753232
-0.16313559 -0.09111888 0.054763902 -0.17289291 -0.087284036 -0.13375172 -0.06371407 0.079859555
-0.20356531 0.038200185 -0.22160403 -0.05027064 -0.08293304 -0.2515324 0.2352044 -0.13924876
-0.20702517 -0.047193237 -0.43367463 -0.4537342 0.06223453 -0.3801244 -0.17797802 0.16960825
-0.10288368 0.14348818 -0.16444623 0.0011318115 0.036755946 0.07086388 -0.24307787 0.13900322
0.22921985 -0.23088853 0.02135738 -0.35040092 -0.026383463 -0.09642798 -0.03825803 0.027025795
0.07354316 -0.10392794 0.06759037 -0.054932766 -0.01649511 -0.26058772 -0.12718987 -0.4032489
-0.109301805 -0.1553658 -0.1633087 -0.20523116 0.024493996 -0.030237727 -0.24258654 0.17973499
-0.10411837 -0.22105236 -0.0682172 -0.046717055 -0.5725342 0.06093465 0.066510305 -0.5234847
-0.0013791086 0.1941543 0.25018957 0.16667703 -0.16801368 -0.034337062 -0.5318881 0.05519251
0.026615627 0.051568534 -0.016188802 0.025623076 -0.13951212 -0.13465872 -0.06187366 0.09611951
-0.13367778 0.056127094 -0.4198451 -0.07389216 0.031248795 0.005481139 -0.15380466 0.030100409
-0.28179425 0.06353608 -0.102960534 0.08118373 -0.025381828 -0.07924159 -0.14914064 -0.23963235
0.37156257 0.1302458 0.0108434325 -0.22077554 0.015996946 0.14924574 -0.19283277 -0.14183183
-0.029286087 -0.021391312 -0.01655922 -0.026298825 -0.17820585 0.28767312 0.04629875 -0.014504363
-0.0036918374 -0.16040921 0.042060357 -0.18496425 0.066984646 -0.092515096 -0.065597534 0.015749745
-0.17151748 -0.08873924 0.033749513 -0.2768185 -0.0011845555 0.033608064 -0.19204202 -0.09433704
-0.020538442 -0.011930191 0.059359226 -0.09125136 -0.031272974 0.16795197 -0.04485099 -0.19399007
-0.20677432 -0.3419302 -0.253287 -0.014498875 -0.086405195 -0.07121207 0.17534551 -0.12286712
0.014402657 -0.051491436 -0.10097135 0.06598448 -0.06559821 0.14656685 -0.061721295 -0.1263198
-0.18399216 -0.07842732 -0.10898924 -0.11077169 0.04095076 -0.16429406 0.15781343 0.0893173
0.2360265 -0.042293757 -0.13564293 0.03328852 0.19397286 -0.33596498 0.016483841 0.08712088
-0.074314274 -0.21623029 -0.1837463 -0.031110663 0.03089241 -0.4159403 -0.21110265 -0.039778266
-0.2728198 0.009299054 -0.08659221 -0.1220842 0.005760473 -0.1492485 0.074618354 0.06388919
-0.023119878 -0.18730147 -0.10792377 -0.15370297 -0.09989348 -0.19465937 0.031871855 -0.23430066
-0.011473289 -0.13474931 0.11781246 -0.15149686 -0.2263692 -0.1429023 0.03628539 -0.03392969
-0.18986645 -0.040443067 0.095714934 -0.0050416873 -0.07055387 -0.1476618 0.06735459 0.1272256
0.08837687 0.24700864 -0.24411947 -0.17841594 -0.18359284 0.016315209 0.11824322 0.28831542
0.14045326 0.018580655 -0.11048741 -0.110535614 0.17161755 -0.16991073 0.1972393 0.07027416
0.17060995 -0.0735627 -0.055716094 -0.029295405 -0.053024564 -0.17960347 -0.14755635 -0.28957084

model.2.bias f4 [64]
00000000: ae51 ddbd d33d e1bd 6729 213e 1c3c 5dbd
00000010: 190e 56bd a71c d2bc 95cf 7e3d 0d24 20bd
00000020: de05 5bbd a5cc 37bd 0604 933d 1060 eabd
00000030: d173 bebd cd9a 8bbd 4961 8b3d 4042 2b3d
00000040: 2a79 92bd 7a17 0f3f f958 98be 2008 66be
00000050: 5a09 cd3c 688d 083d 9037 43bc cae4 b83d
00000060: 4f88 083d 0cc6 553e 0100 b0bd c9d1 5a3d
00000070: 777f df3d f5ac 713e e352 ac39 5827 66be
00000080: 6904 9fbd 9cd0 b23c d1eb ecbd fed7 0abe
00000090: c694 ca3c a1db 38bd f403 66be e49f 90bd
000000a0: d683 7dbe 6fee a53c 408d 8bbd 7c1d 9abd
000000b0: 8097 48bd 50af dfbc 0a4f 2e3f ab60 8cba
000000c0: 3fdf 56be 8c3c 9e3e f9fd 25be 0d77 d4bd
000000d0: 28bf 983e 1273 fc3d 37e5 08be a550 21bd
000000e0: aeb9 8e3e 60e3 e2bc c17a 1ebd f707 f9bd
000000f0: 2dad 38bc 5b14 113e 66e5 09be 0a1f 813d
-0.10806595 -0.1099812 0.1573845 -0.054012403 -0.05225954 -0.025648428 0.062209684 -0.03909688
-0.053472392 -0.0448729 0.07178502 -0.11444104 -0.09299434 -0.06816635 0.06805665 0.041811228
-0.071520165 0.558952 -0.2975538 -0.22464037 0.025028873 0.03333798 -0.011915103 0.09028013
0.03333312 0.2087633 -0.08593751 0.053422723 0.10912984 0.23601134 0.00032868152 -0.22475946
-0.07764513 0.021827988 -0.11568416 -0.13558957 0.024729144 -0.04513133 -0.22462445 -0.07061747
-0.24757323 0.020255296 -0.06814051 -0.07525155 -0.048972607 -0.027305275 0.68089354 -0.0010709962
-0.20983599 0.3090557 -0.16210164 -0.1037427 0.2983334 0.123266354 -0.13368689 -0.03938355
0.27876037 -0.027696311 -0.038691286 -0.12159722 -0.011271757 0.14167921 -0.13466415 0.06304748

model.4.weight f4 [4, 64]
00000000: 5813 243d 1451 0cbe 6f04 5c3e 6b8e 453d
00000010: 65e5 97bd e5d8 f6bc e43a 4d3e f436 dcbd
00000020: 237c d3be 49ec 97be b4e9 493e 4590 d8bd
00000030: 93db fc3d 7f3b 66bc 71dd ed3d 215d bbbe
00000040: ab2e e83d 3e17 103e e52d 19be 0143 94be
00000050: 5ed9 4c3c 733c b9bd 834d d83a da9c 883c
00000060: 8b1f 06be ad9f 113c 2bc0 41bc 6b30 41be
00000070: 46bb 1d3e 70ea 033d 71e6 1dbd c15d d63d
00000080: 307f dcbc 0680 c13d eba0 a0bd 1ff3 503e
00000090: 7142 393e 9d64 653d d9bd 19be 903a 8dbd
000000a0: e713 f3bd d090 6b3e 198c 4cbd f196 033e
000000b0: 3b68 5ebe c860 89bd 4e51 1c3e cfad 67be
000000c0: aa56 dabe 344c 313d 0056 753d f093 fb3c
000000d0: fc94 043e 1432 4b3e b2c9 2b3d 49f0 c0bd
000000e0: a8b4 393e fa90 4bbe 357a 173e c4d2 17be
000000f0: 7170 ef3c a8bd 09bc 0b09 583d a8d9 433d
00000100: 604f 7c3e a974 09be 4267 2a3e 77c9 8c3d
00000110: 36a0 61bd 214c 91be 612d bc3c 3efc 783d
00000120: 0182 9a3e e39b 9a3d 018b d4be c645 ce3d
00000130: dca7 90be 9a0b fe3d c231 4a3e 1b55 223e
00000140: 54d8 153e 2a37 ea3c 2ca9 34be 132d ac3e
00000150: 2bcd 843d 5b8b f7be b2d1 ef3c 7638 493e
00000160: 2264 873d 8704 0c3d 798a 0a3d e5ad 9e3d
00000170: b7f5 6c3e 954c e13c a7fc 2cbd 6082 a0be
00000180: 645b 993d 31cf 5bbd ce22 8dbd b0c7 f5be
00000190: 1e87 603e 780f 4abd 7e06 c3bd 7e09 e93d
000001a0: 6e66 33be 7737 c5bb 0f83 553c 93cc ec3d
000001b0: cf4b a43e 33de adbd 6ff8 383e 7cbe 443e
000001c0: b308 9d3e 4e6e 7d3d 868c 7d3e 7050 1b3e
000001d0: fab5 383e ff0b 56be 6d88 813d 6c80 373e
000001e0: 3543 3a3e d189 8dbd 2ff9 99bd 77c9 c4be
000001f0: 4855 8ebd 9bf5 1c3d 425a b63d cda7 383e
00000200: a10b 763e cf2e 86be 3dee d03d 1252 47be
00000210: 64d3 c43d f830 773d 3513 393e f702 5bbe
00000220: 5a99 ef3d 0607 47bd 06e1 cebd 7919 673d
00000230: 8d6a f5bd fb28 b03e 3a95 833e f735 80be
00000240: 0fff 29be 5e80 213d 820d 2bbe 7e14 e23d
00000250: 4959 67be 1ea1 393e 45de 03be 95b4 18be
00000260: a998 0bbe 107e 473e b2c1 4c3e 7ad4 10be
00000270: 04f2 d23c 8e61 cc3c a3a0 693c 1407 633e
00000280: 4f62 c23c b58a 47be 89fb 103d 624e 663d
00000290: 2140 243e b795 8dbc 5d46 65be 0e54 133e
000002a0: 3c40 013d 44bb 19be adb0 c93d 9060 6ebe
000002b0: 2504 a53e ab38 c63e dddc 3a3e 52bc 3a3d
000002c0: dd43 9d3d 95bd b33d f499 c1bd 403d 3b3c
000002d0: 5b5f 553e 2687 01bd 07c5 c13c 9489 5a3e
000002e0: 5463 ae3c bcaa 5bbe b429 2c3e 4219 08be
000002f0: 85c2 5f3b a586 163e 63f2 6abe 3c46 e5bd
00000300: a176 aebd 9c0f eb3d 148f 133e ddb5 1c3d
00000310: fcff a53d bb3a 933e c853 8b3d 38af b9bb
00000320: cbb6 3cbe 598e 52be ce42 2b3d 1579 393d
00000330: 1364 b33d 48e1 b03e 4101 a03d 78d9 e23d
00000340: 7bb2 a6bd a18e e43d 0798 fbbc f652 7cbd
00000350: 16be 5f3e c18a 1b3e 3a82 fa3c 4ad2 9a3e
00000360: f83b 6fbe 27b7 a33d af3d 09be 5a74 343e
00000370: 0ae3 7d3e fb69 ee3d 16f2 4a3d 1c84 523e
00000380: e2ad 083d 633c ad3d 9515 efbd 3478 a2bc
00000390: 04b2 d5bc 59ce 5bbd 937f 8ebe d6bb 2e3a
000003a0: 9cd8 3cbe fdcf 313e b1ad c73d da84 c3bd
000003b0: b91d f4bd 8ba8 9f3e 9dc5 0f3e 3da7 ac3d
000003c0: ed57 973c 899b 33bd 19f7 423e bbca abbd
000003d0: ab30 7a3d 1da9 5c3e 0c9c e9bc 59ae 933d
000003e0: dbf7 1b3d 1e94 c3be 15ed d1bc abf2 173e
000003f0: 052c 49bc 830b 963d 21d4 6d3e 5c67 7f3e
0.04005751 -0.13702804 0.21486066 0.048231523 -0.074168004 -0.03013272 0.20041996 -0.10752669
-0.41305646 -0.2967246 0.19718057 -0.10574392 0.12346568 -0.014052271 0.11614502 -0.3659449
0.11337026 0.14071366 -0.14958914 -0.2895737 0.012502996 -0.09044733 0.0016502592 0.016676355
-0.1309797 0.008888167 -0.011825602 -0.18866126 0.1540347 0.032206 -0.038549844 0.10467101
-0.026916116 0.09448247 -0.07843193 0.20405243 0.18091752 0.056004155 -0.15013827 -0.068959355
-0.118690304 0.2300446 -0.049938295 0.12850548 -0.21719448 -0.06707913 0.1526539 -0.22624896
-0.42644244 0.043285564 0.05989647 0.03071019 0.12947458 0.19843322 0.0419404 -0.09420831
0.18135321 -0.19879523 0.14792712 -0.14826494 0.02922842 -0.008407034 0.052743 0.047814995
0.24639654 -0.13423409 0.16640952 0.06874364 -0.05508443 -0.28378394 0.022970857 0.060787432
0.3017731 0.07549264 -0.41512302 0.10071902 -0.28253067 0.124045566 0.19745544 0.15852778
0.14633304 0.028590757 -0.17642659 0.3362814 0.06484445 -0.48348507 0.029274795 0.19650444
0.06610896 0.034184005 0.033823464 0.077480115 0.23140608 0.027502337 -0.042233136 -0.31349468
0.074881345 -0.05366439 -0.06891404 -0.48003912 0.21926543 -0.04933116 -0.09522723 0.113787636
-0.17519543 -0.006018575 0.013031735 0.11562457 0.32089087 -0.08489647 0.1806352 0.19213289
0.306707 0.061872773 0.24760637 0.15167403 0.18038169 -0.20903014 0.06324849 0.17920083
0.181897 -0.06911052 -0.07518231 -0.38434955 -0.0694986 0.038320165 0.08903934 0.18032761
0.24027874 -0.26207587 0.1020169 -0.19464901 0.09610632 0.060349435 0.18073733 -0.2138785
0.11699171 -0.048590682 -0.101015136 0.056420777 -0.119832136 0.34406266 0.25699788 -0.25041172
-0.16601203 0.03942906 -0.16704372 0.11039065 -0.22592653 0.18127868 -0.12877758 -0.14912637
-0.13632454 0.19481683 0.19995764 -0.14143553 0.025750168 0.024948861 0.01425949 0.22170669
0.023728518 -0.19486506 0.035396133 0.056227095 0.16040088 -0.017283304 -0.22390123 0.14387533
0.0315554 -0.15012842 0.09848151 -0.23279023 0.32229725 0.3871511 0.18248315 0.045589752
0.076789595 0.08776394 -0.09453192 0.011428177 0.20837156 -0.03162303 0.02365352 0.21341544
0.021287598 -0.21451849 0.16812783 -0.13290885 0.0034143042 0.146998 -0.22944026 -0.11195037
-0.085187204 0.114775866 0.14410049 0.038259376 0.08105466 0.28755745 0.068030894 -0.0056666397
-0.18429105 -0.20562114 0.041811757 0.04528149 0.08759322 0.34546876 0.07812739 0.11076635
-0.08139511 0.11160017 -0.03071214 -0.061602555 0.21849856 0.15189649 0.030579675 0.30238563
-0.2336272 0.07993918 -0.13402437 0.1762251 0.2479364 0.11641308 0.049547277 0.20558208
0.033368953 0.084587835 -0.11674038 -0.019832708 -0.026085861 -0.053663585 -0.27831706 0.0006665563
-0.18442005 0.17364497 0.09749926 -0.09546824 -0.11919732 0.31183276 0.14040227 0.08430336
0.018474543 -0.0438495 0.19039573 -0.08388277 0.06108157 0.21548887 -0.028516792 0.072109886
0.03807817 -0.38198942 -0.025625745 0.14838664 -0.0122785615 0.073264144 0.23225452 0.24941772

model.4.bias f4 [4]
00000000: 5f30 db3e 5e03 cf3e eb4e c93e 6134 e33e
0.42810342 0.40432256 0.39318022 0.443759
