models/6/q_final_n351.pt (torch, 131223 bytes, 6 tensors)

model.0.weight f4 [128, 185]
00000000: 2be1 363d 246c 9f3d 8514 3bbd d7b0 0fbe
00000010: 01b7 72be c840 ccbd ae20 c13d 38e6 dd3d
00000020: 2a39 b5be 65b4 18be d0c9 b3bc a428 923d
00000030: ec05 04be 4078 983c 08c9 38bd 1b3f f93d
00000040: 1cbc 453d b238 debd 9aa2 6c3d f16e a3be
00000050: e552 58be bfc4 723e b7d8 48bd d8f5 f1bc
00000060: 7007 93bd 11ab c63c 7a1b 1dbe c05a 083e
00000070: 73f3 8bbe d4cb a5be c618 f8bd 32ea 1a3e
00000080: 291a 44bc 556e e739 edb0 4c3e dd39 adbc
00000090: cea5 b0bc b277 53bc 934f 0bbe a5d6 453d
000000a0: 355a d4bc ce16 85bc 3f32 30be ab2a af3e
000000b0: 59d8 ce3d a529 c5bc 552b ffbe 8c43 e53d
000000c0: 5c50 e4bc baca 3ebd f158 90be e9c6 2c3e
000000d0: a527 693e a722 d0bc 2cb7 15bd a872 08bf
000000e0: ad81 0bbe d6db c33d 2275 3c3e 70bc f5bd
000000f0: 8769 efbd 6535 7cbc f600 b8be 8e10 ed3c
00000100: 0de6 ca3e d45e eabe 4bcc 93be b4ef d5bd
00000110: 7497 76be 23ad 393e 0207 3dbe bd20 07bd
00000120: 94e0 1e3e 4bda 1a3d d7f2 27be ad0d b6bd
00000130: 97b5 493d 3234 0dbe 45f3 293e a64f c7bd
00000140: 0cac 1ebd 7a2f 943e 702a 10bf 3067 96bf
00000150: 7f29 86bc b68c d4bc 52cc 7f3d 6986 103e
00000160: f4c9 94be a7ec 913d 7313 213e 557b 0fbe
00000170: def0 013c 6786 77be 1c45 173e 6917 81bc
00000180: c6d7 86bd f00b 9fbc 9eab b3bd 561a 96bd
00000190: b7e7 7cbb 92e3 103e cb37 25be 0ca0 eabe
000001a0: e36f 173e 2b03 b4bd 5478 463d a92f 9fbe
000001b0: 3a59 b5be 9a81 bc3d 4314 2f3c 5ede 1b3d
000001c0: 128e 343e c907 24be 3c49 04be 9e74 9ebd
000001d0: b145 94be 071e 37bd d503 6a3e 9d43 5e3c
000001e0: ee15 b7bf cc72 973e fcb8 18be 96ab 3fbc
000001f0: 0301 9ebe 5337 c33d 618d 663e 7458 57be
00000200: a064 543d fb11 dabd f791 24bf 90fc 6b3e
00000210: 7eec 1cbf 5800 153e c10f 07be c3c0 39bf
00000220: ec07 753d 644e d43c 3679 093d 1c86 2fbd
00000230: 40f7 00bf 302c 1abd d030 5d3e d348 c93d
00000240: e3cd 53bf eaf4 87be 77fd e63d b109 273e
00000250: 1349 8abe 2eb7 12be b908 ad3e 210f aabe
00000260: d0c7 84bd 490f 36bf b4be 3d3d 5a7f 083f
00000270: 769b 8abc 2ee2 17bf 8fa7 533d 9b19 7bbd
00000280: 2e73 b13d 4a22 afbe 2ab9 1fbe dda4 f6be
00000290: f1f2 373d 0411 663e 9a09 ad3c 2fd1 c1be
000002a0: 4505 febe 9e38 26be 347e aa3e fc51 91be
000002b0: 4692 11bf 1044 3cbe 66bf afbe 07c4 dd3e
000002c0: caf3 19bf 4547 f1be cb2d 82bf 48ff b7be
000002d0: f7d7 093f 3090 813e 2f36 69bf 9cf3 a53d
000002e0: 7a13 c13d f010 9dbe dc23 31bd 6113 9a3e
000002f0: 702d 643d d285 193d 1db0 64bd d090 3ebe
00000300: c7ed 473e 1358 123e 6172 06bf 9c26 603e
00000310: 4d4c d3bd 77ae 84bd c036 aebe 6942 f3bd
00000320: 6693 b0bd c6d2 fabb 8dc4 1ebc e0ab 043e
00000330: d455 fbbd 6bdf efbd 0aa7 65bc be0f 003e
00000340: cdf2 c1bd 2218 c73c 23c6 64bd 2826 3ebe
00000350: a79c ef3d 7cf1 523c 7b9b b33d 7686 2bbd
00000360: 177c 65be 172f 9dbd 0153 543d 2f2b 34be
00000370: 80c8 053d 7208 70bd ff7a 47bd e58d 153e
00000380: e830 f6bd 9566 20bd 8e17 4c3d ce19 37bd
00000390: c0e4 53be 52d4 c0bc ccb9 1b3e c077 cfbe
000003a0: 0ba5 04bd 44f1 1abe 9a7a 633e 7b02 00be
000003b0: 6dfe 3cbe 0476 dbbc 3c20 163d 504a 16be
000003c0: c63e 0bbd bf62 28bd 0e70 f63d d2ad 633c
000003d0: ae5b afbe 9440 d8bd a767 763c 20dc 2dbe
000003e0: c8f0 62be 29ae 85b9 cda4 8c3e 7de3 41be
000003f0: 6980 453d 4b12 39be e013 02be 464e a3bc
0.04464833 0.07784298 -0.045673866 -0.14032303 -0.23702623 -0.099732935 0.09430061 0.10834926
-0.35395175 -0.14912565 -0.021946818 0.07136658 -0.12892884 0.018612027 -0.045113593 0.121702395
0.0482751 -0.108506575 0.057772256 -0.3192058 -0.21125372 0.23707865 -0.0490348 -0.029536173
-0.07179153 0.024251493 -0.15342513 0.13315868 -0.27334175 -0.3238207 -0.121141 0.15128401
-0.011969128 0.00044141957 0.19989367 -0.021145755 -0.021563437 -0.012906956 -0.13604574 0.048300404
-0.02592192 -0.016246226 -0.17206667 0.3421224 0.10099859 -0.02406771 -0.49837747 0.11194524
-0.02787035 -0.046580054 -0.28192857 0.16872753 0.2276903 -0.025407149 -0.03655164 -0.5329995
-0.13623686 0.09563415 0.18404058 -0.11998832 -0.116900496 -0.01539359 -0.35938233 0.028938558
0.3962864 -0.45775473 -0.288668 -0.1044611 -0.24081212 0.18132453 -0.18459705 -0.032990206
0.15515357 0.037805837 -0.1640123 -0.08889327 0.049245443 -0.13789442 0.16596706 -0.097319886
-0.038738295 0.28942472 -0.56314754 -1.175024 -0.016377209 -0.025946002 0.062450714 0.14113773
-0.29060328 0.07125216 0.15730076 -0.14011891 0.007930962 -0.24172364 0.14772457 -0.015758233
-0.06584124 -0.019414872 -0.08772968 -0.07329242 -0.0038590261 0.14149311 -0.16134565 -0.4582523
0.14788775 -0.08789667 0.048454598 -0.3109105 -0.35419637 0.09204407 0.010685983 0.038053863
0.1763232 -0.16018595 -0.12918562 -0.07737087 -0.2895942 -0.04470637 0.22853024 0.013565925
-1.4303567 0.2957977 -0.14914316 -0.011698624 -0.30860147 0.09532037 0.2251487 -0.21029836
0.051853776 -0.10647961 -0.64285225 0.23045564 -0.6129836 0.14550912 -0.13189603 -0.72559756
0.059822008 0.025916286 0.03356286 -0.042852506 -0.50377274 -0.037639797 0.21600652 0.09828343
-0.82736033 -0.26554042 0.11278813 0.1631229 -0.27008876 -0.1432769 0.33795717 -0.33214667
-0.06483424 -0.71117073 0.046324447 0.53319323 -0.016919833 -0.593295 0.05167347 -0.061303716
0.08664547 -0.34205848 -0.15597978 -0.48172656 0.04490942 0.22467428 0.021122742 -0.37854907
-0.49613395 -0.16232535 0.3329941 -0.28382862 -0.5686382 -0.18385339 -0.34325713 0.4331362
-0.6013762 -0.47124687 -1.0170225 -0.35936952 0.5384516 0.2530532 -0.910983 0.081031054
0.09427543 -0.30676985 -0.04324709 0.3009291 0.055707395 0.037481137 -0.055832017 -0.18609929
0.19524299 0.1429141 -0.5251828 0.21889728 -0.103172876 -0.06478589 -0.34026146 -0.11877901
-0.08621864 -0.0076545207 -0.009690416 0.1295619 -0.1227223 -0.117125355 -0.014016876 0.12506005
-0.09470139 0.0243035 -0.05585302 -0.18569243 0.11699801 0.012874957 0.0876989 -0.04187628
-0.22410618 -0.07674997 0.05183697 -0.17594598 0.032661915 -0.058601804 -0.048701283 0.1460491
-0.12021047 -0.03916033 0.04982715 -0.044702344 -0.2069273 -0.023538742 0.15207595 -0.4052105
-0.03238396 -0.15131098 0.22214738 -0.12500946 -0.1845643 -0.026789673 0.036651835 -0.14676785
-0.033995412 -0.041109797 0.120330915 0.013896422 -0.34249634 -0.10559192 0.015039361 -0.16978502
-0.22162163 -0.00025497496 0.27469483 -0.18934436 0.048218165 -0.18073384 -0.12702894 -0.019934785

model.0.bias f4 [128]
00000000: 86df ff3c b7b0 313c 597a ce3b d852 fdbd
00000010: c615 72bc 52dc ea3c 0b59 c6bc 29cb e5bc
00000020: 7401 87bd cdb2 8abd aefa 1cbd c30d 89bd
00000030: 1574 2fbc 54a2 fcbd aaee 27be 27df 04be
00000040: 16e7 dfbd 9f27 63bd de1e 19be 94a0 96bd
00000050: f7a7 1b3e 3db7 d0bd 9466 8bbd befa f73d
00000060: 9b78 923c 78a9 b4bc 4107 f9bd fb6d 90bd
00000070: b21d c23b 7f9a bbbd 688a 87bd 9f25 423c
00000080: 8aae d1bd b53d 1bbd a0d4 893b e78d 5fbd
00000090: 26bd a3bd b0ea 49bd f295 0ebd de4f 0e3d
000000a0: fcd0 c2bc 5c23 9c3b c1ba 433d 21e7 0fbe
000000b0: d533 3bbe bef1 71be 8232 36be 64af a8bd
000000c0: 68ff deba fd87 b2bc eda2 55be ef55 583c
000000d0: b7c9 f2bd b81c 6dbd f5e7 973d fb2b 70bd
000000e0: ccb0 373d c45f a23c dac3 7cbc 130b 0abd
000000f0: 8fc8 abbd b63d 23be 807c 013c bd4a 13be
00000100: 7b02 2ebd c6b2 82bc 4a1b 62bc 6a15 43bd
00000110: 34c2 e0bd b02e 2cbe bb4a bc3c 7ac7 edbd
00000120: 43b2 4abd d284 07bd b866 99bc 374c f4bd
00000130: 477b b33c 3367 8cbd 3b29 bdbd 113b a6bc
00000140: 0d07 4a3d 60bd e33c 5b20 2c3d 6c3b 88bd
00000150: 5a47 5cbd 67c3 afbd 9f38 9cbd 7df6 e1bd
00000160: 6808 e4ba 7cab 10bd e280 2ebd fd31 d0bd
00000170: 36a6 dbbd e536 f9bd 6a33 d1bd a347 c5bd
00000180: f13c 2abd 3262 123d 7744 8f3d 5ba6 8bbd
00000190: 9a18 f63d 0400 16be 608a abbd 0f04 25bd
000001a0: fdd4 c0bb 8582 93bd 3ecb b53d 07b9 ff3c
000001b0: bfb3 e6bd dc8b 84bd 47ac 20be 78b3 873d
000001c0: 85a1 21be 72a4 7ebd c0ec 703d 2fb6 923d
000001d0: b3ff 19be b655 94bd 868f 823a c467 14be
000001e0: 635e 27be 3c55 1dbd dee8 66bd aebb bdbd
000001f0: 96b6 d4bd 0bac 06be 0a64 e3bd 52d2 3abd
0.031234514 0.010845355 0.006301206 -0.12369317 -0.014775699 0.02866951 -0.02421238 -0.028050976
-0.06592074 -0.06772385 -0.038325004 -0.06692078 -0.010708828 -0.12335649 -0.16399637 -0.12975751
-0.10932748 -0.055457707 -0.14953181 -0.073548466 0.15200792 -0.101912 -0.068066746 0.12108372
0.017879775 -0.022053465 -0.12159587 -0.07052227 0.00592395 -0.09160327 -0.06618196 0.01184979
-0.10238369 -0.037900645 0.004206255 -0.054578688 -0.079950616 -0.04929608 -0.034810968 0.034744136
-0.023781292 0.0047649574 0.047785524 -0.14053012 -0.18281491 -0.23627374 -0.17792705 -0.08236578
-0.0017013373 -0.02179336 -0.20862933 0.013204082 -0.1185488 -0.057888716 0.07417289 -0.058635693
0.04484634 0.019821055 -0.015427554 -0.033701967 -0.08387863 -0.1594151 0.007903218 -0.14383979
-0.042482834 -0.015954386 -0.0138004515 -0.047627844 -0.10974541 -0.16814685 0.022984853 -0.11610313
-0.04948641 -0.03308565 -0.018725738 -0.11928599 0.02190937 -0.06855621 -0.0923638 -0.020291837
0.04932313 0.027800262 0.042023044 -0.06651959 -0.053778984 -0.08582192 -0.07627987 -0.11033342
-0.0017397525 -0.03531979 -0.04260338 -0.101657845 -0.107250616 -0.121686734 -0.102148846 -0.09632804
-0.041562025 0.035738178 0.069954805 -0.06818839 0.12016411 -0.14648443 -0.08376002 -0.040287074
-0.005884765 -0.07202629 0.08876656 0.031216158 -0.112647526 -0.064719886 -0.15690719 0.06626028
-0.15784271 -0.062168546 0.058819532 0.07163655 -0.15038948 -0.072429106 0.0009960986 -0.14492708
-0.163446 -0.038411364 -0.056374423 -0.09264313 -0.10386388 -0.13151567 -0.11103065 -0.045610733

model.2.weight f4 [64, 128]
00000000: 9f51 26be 686c 81bd d0d8 093e 91cc 26be
00000010: d8ec e5bd 44f5 cabe 6a80 5d3d 1466 bcbc
00000020: 4244 4cbe 3ce5 653d 8112 a8be a18d e63d
00000030: 16aa 853c bce5 413e 8d7f 67be 2383 653b
00000040: 3130 773e 148a 23be 0ff9 2d3d 82c3 2b3d
00000050: f86b 88be 16ae 12be 2445 b8be a701 083c
00000060: f63f 82be 9b6f cbbc 236e 8a3e 0c22 91bd
00000070: 81e6 8e3e 92b6 ea3b b117 dcbe ed7f be3c
00000080: 521e 64bd 9aaa 1c3e 1ad5 9c3c cac2 e6bd
00000090: 34ce 403e 3d97 283d 9348 cdbd 9fd2 32bc
000000a0: cc2e c43d d575 43be 65b7 f9bd 95c1 a03d
000000b0: 7459 993d 0cdb edbd e94d 5dbe adbe 223e
000000c0: 5bc2 0bbf c07c 5ebe 1d29 d5b9 ab90 b3be
000000d0: 9bc4 bbbe 0d8d 3bbd a4da 703e 6a94 013c
000000e0: d4a8 febc 46a1 fe3d 2d04 6f3d 2735 de3c
000000f0: 3c77 f4bd f639 f3bd 6e57 ef3c 406b 11be
00000100: bcc9 ecbd 4fd0 c1bd 3131 2cbe 82fa f2bc
00000110: 6a57 f03b 01ff 21be eec8 64be 7806 1abc
00000120: 34cf b03d c249 aebd 0523 87be 8852 093e
00000130: a275 8abe c806 71bc 335d 02bd 8e85 22be
00000140: 9d2a a4be beb8 393e 03df 3ebe f333 09bf
00000150: 6602 88be a99d 9cbe 4297 533d e41b 083d
00000160: 388c 383d 9912 d6be 835f 55be ae08 3cbd
00000170: 26eb df3c 1d49 77be 9108 4f3d fd1c 803d
00000180: dfe6 0d3d 07fe a2be 7c37 0fbe bfde 873d
00000190: 6dce 43be e862 c5be 34dd c43d d05d 4abd
000001a0: 1314 c0be 546a 053d 5666 59be c543 92be
000001b0: 22d4 ae3d c2d8 17bd d174 dfbd 8bfa 283e
000001c0: 5265 77bd ce95 eebe 7113 c3be 09fe 79bd
000001d0: 2119 5dbe acd1 88bd 3bd6 06bb fdfc ebbe
000001e0: 1322 db3e 8ebe 28be c517 37be 4f6c a0be
000001f0: dc3c 77bd dac3 ebbd 88a1 d7bd 7f20 6ebe
00000200: 69d6 d6bd 8a83 853e 0457 91be cd43 6dbd
00000210: 6544 d4bd 3aca 07bd 9886 5abe 3b08 153d
00000220: 32e2 adbe 1448 68be cdf5 1cbe 710e 1b3e
00000230: 999a 123e b2f1 543e 8a70 09bd 631f 1fbe
00000240: 2d52 11bc eba0 943e a0c8 1a3e 2034 563e
00000250: 481d 143d 9f6f d6bd b1cc 423e 8634 e8bd
00000260: 6b7e a7be b8ca 073e 6a03 8ebc 77b3 ee3d
00000270: a50a d7bd c990 d63c 1d23 67be a91a 08be
00000280: 08fa 8abc 8287 02be f7aa 6fbe 300e 3dbd
00000290: f017 55be f401 aebd ee6d c53d e0cc 923d
000002a0: 2c22 10be 4914 93be f35d 70be 82cc 493e
000002b0: 2e93 a93d 7c6d b3bd bb12 9fbe 4b69 01be
000002c0: b4bf 12be d68b 9bbd 3d6e d1bd ed70 183d
000002d0: fff9 67bd 3d7c 53bc 5371 293e 88ec b9bd
000002e0: 696d 8ebe faa5 8cbe 9b64 5cbd 80e0 fa3d
000002f0: 8d87 99bd 300f 34bd 4831 94be aa1a 87bc
00000300: 2669 52be c7d4 b2be bd24 aebe af25 c33e
00000310: e999 6ebe 12e3 34ba 81f7 11be 3d42 093e
00000320: 7fc8 1ebc ab54 95bd 2006 bcbd 00d3 b43d
00000330: 5760 b0bd b6cf 5abe 2d82 913e b31c 11be
00000340: e85a d8bd 50c0 7d3e 3ae8 84bd f4d5 efbd
00000350: 5a6d 4e3d 4251 f039 8133 8f3d 6238 47be
00000360: c7ee f6bd fbf5 59be d8ab 223d f7e0 1fbd
00000370: 1ee2 9ebd fb0d 93be 12d1 0d3d c2f2 94bd
00000380: 6824 7dbd 25a7 893e bb47 92be b111 2c3e
00000390: ea1c 57bd b4ef e13d 283b 84be 8019 a6bc
000003a0: 08fb 3dbd f58d 7bbe 7389 7abe f385 39be
000003b0: acfe 45bd 585b 0bba 04d3 e9bc 90fc 43be
000003c0: 37fc 96bc e781 643d 9b4b 5a3e 69fc 133e
000003d0: cedd 26be 2c5e 93bd eb97 d1bd b8e6 c3bd
000003e0: 0f0f 53be 4c54 4cbe dd12 98bd f770 87be
000003f0: 500a 923d e705 613d c91e b6be c071 ebbb
-0.16242073 -0.06319505 0.13461614 -0.16288973 -0.11226815 -0.39640248 0.054077543 -0.022997893
-0.19947913 0.056126818 -0.32826617 0.11257482 0.016316455 0.18935293 -0.2260725 0.003502079
0.24139477 -0.15970641 0.04247385 0.041934498 -0.26644874 -0.14324221 -0.3599025 0.008301175
-0.25439423 -0.024833491 0.27037153 -0.07086572 0.27910236 0.0071628774 -0.42986825 0.02325436
-0.05569298 0.15299454 0.019144583 -0.11267622 0.1882866 0.041159857 -0.10023608 -0.010914474
0.09579238 -0.19087918 -0.12193183 0.07849423 0.07487765 -0.116140455 -0.21611752 0.1589305
-0.5459344 -0.21727276 -0.00040657158 -0.3507131 -0.36673436 -0.045788813 0.23520905 0.00790892
-0.031086363 0.12433104 0.05835359 0.027124954 -0.11936805 -0.118762895 0.029216494 -0.14201069
-0.11561915 -0.0946356 -0.1681564 -0.029660467 0.0073346393 -0.15819933 -0.22342274 -0.009400956
0.08633271 -0.08510162 -0.26393905 0.1341039 -0.27042872 -0.014711089 -0.031827163 -0.1587126
-0.3206376 0.1813688 -0.1863976 -0.53594893 -0.2656433 -0.30589035 0.051657923 0.033229724
0.045055598 -0.41811064 -0.20837216 -0.045906715 0.027333807 -0.24148984 0.05054528 0.06255529
0.034644004 -0.31834432 -0.1398601 0.06634282 -0.19121714 -0.38552022 0.09612504 -0.049405873
-0.37515315 0.032572106 -0.21230444 -0.2856733 0.08536555 -0.03707195 -0.10910953 0.16501825
-0.06039936 -0.46598667 -0.3810077 -0.061033282 -0.21591617 -0.06680617 -0.0020574469 -0.46091452
0.42799434 -0.16478941 -0.17880161 -0.31332633 -0.060360774 -0.11511965 -0.105288565 -0.23254584
-0.10490114 0.2607692 -0.283867 -0.057925988 -0.10364608 -0.033151843 -0.21340406 0.036384802
-0.33961636 -0.22683746 -0.1532814 0.15142228 0.14316787 0.20795324 -0.03355459 -0.15539317
-0.00886969 0.2902902 0.15115595 0.20918322 0.036160737 -0.10470509 0.19023396 -0.11338143
-0.32713637 0.13260925 -0.017335612 0.11655324 -0.10500077 0.026192086 -0.22571988 -0.1329142
-0.016964927 -0.12747005 -0.23405062 -0.04615611 -0.20809913 -0.08496466 0.09640108 0.07167983
-0.14075536 -0.28726414 -0.23473339 0.1970692 0.082800254 -0.08761117 -0.31068978 -0.12637822
-0.14330941 -0.07595031 -0.102261044 0.03721707 -0.0566349 -0.012908039 0.16547136 -0.09078318
-0.27817848 -0.2747038 -0.053806882 0.12249851 -0.074965574 -0.043959796 -0.2894385 -0.016492207
-0.20547923 -0.3492796 -0.34012404 0.38114688 -0.233009 -0.0006900291 -0.14254571 0.13404174
-0.009691357 -0.0729154 -0.09180856 0.088293076 -0.08612125 -0.21368298 0.2841963 -0.14171104
-0.10564214 0.24780393 -0.06489606 -0.1171073 0.050397255 0.0004583691 0.069922455 -0.19455102
-0.12057262 -0.2128524 0.039714664 -0.039032903 -0.07757972 -0.28721604 0.034623213 -0.07272865
-0.061802298 0.26885334 -0.2857035 0.16803624 -0.05251781 0.11032048 -0.25826383 -0.020275831
-0.04638198 -0.24565871 -0.24466495 -0.18117504 -0.048338577 -0.00053160405 -0.028543003 -0.19139314
-0.018430812 0.055787947 0.21317904 0.14451756 -0.1629555 -0.07195696 -0.10234054 -0.095654905
-0.20611213 -0.19954032 -0.07425473 -0.26453373 0.07130873 0.05493727 -0.35570362 -0.007185191

model.2.bias f4 [64]
00000000: 3da5 3dbe 36dc 13be 21c2 8fbe 7049 f4bd
00000010: 9ccc c8bb 599d 37be cd5a 7bbd 5961 17be
00000020: 637b 8abe 1eaa ecbc 188e 793e cc68 283e
00000030: 727f 63be 076a 35be b78a e7ba 6607 debd
00000040: 1c54 753d 7e0f 5fbe 7810 ab3e cab9 42be
00000050: c548 64be 88a5 05be e3d6 d2bd d08a 6bbd
00000060: 02c9 a5bd df7e 743e aa73 51be 4381 353d
00000070: eab0 ccbe 6f4b dbbd d649 bf3c d557 e9bc
00000080: 684e 74bd 8934 313f 1555 50bd 1d33 b7bb
00000090: 1884 05bc 92c7 c03e 7652 56be 1deb 12bd
000000a0: 23e9 8c3e 6b9b bebe 366c f4bd a1f6 abbe
000000b0: ba28 1ebe 3193 cb3c cdec acbe c837 1dbe
000000c0: 4326 98bc efdb 88bc 7833 073f 17be d5be
000000d0: aabf 9ebd cf05 cbbd 70e3 38be 2547 55bd
000000e0: 4a13 943d 50f7 4abe a552 1e3e 3939 e9bd
000000f0: 36db cabd 2d8b fdbd 861d c6be d0fe 56bd
-0.18520065 -0.14439473 -0.28077796 -0.119280696 -0.006127907 -0.17931117 -0.06136589 -0.14783229
-0.27047262 -0.028889712 0.2437061 0.16446227 -0.22216585 -0.17716227 -0.0017665242 -0.10841255
0.059894666 -0.21783254 0.33411002 -0.19016185 -0.22293384 -0.13051426 -0.10294893 -0.05750543
-0.0809498 0.23876522 -0.20454279 0.044312727 -0.39978725 -0.10707747 0.023350637 -0.028484264
-0.059645087 0.6922079 -0.05086239 -0.00559081 -0.008149169 0.3765226 -0.20929894 -0.035868753
0.2752162 -0.3722795 -0.11934702 -0.335866 -0.15445223 0.02485046 -0.33774415 -0.1535331
-0.018572932 -0.016706435 0.5281291 -0.4174659 -0.07751401 -0.09913217 -0.1805551 -0.0520698
0.072302416 -0.19820905 0.15461214 -0.113878675 -0.099050924 -0.12380061 -0.386944 -0.052489102

model.4.weight f4 [4, 64]
00000000: 6804 a13d ed1c 9f3e b1a9 663e d836 2abe
00000010: d88e 9dbd 1195 f1bd 0d1d 3e3d 018a 703d
00000020: 4074 9dbe 9064 98be e8a5 823e e68c 5c3e
00000030: 44eb 803d 776c 5c3e b649 c1be 0818 eb3d
00000040: c29c a0ba cf53 23bd b0ff 863d 7ed4 a8be
00000050: f6df 77bd 825a b9be 553c 4a3e fe3b acbd
00000060: 3c13 81bd 8f20 8a3e bc32 b43c f078 b9be
00000070: 6f7f a1bd 20c7 003e c1df 993d 4a79 e23c
00000080: 9aac 2c3d ef9e 483e 08f0 d73d cd12 2abe
00000090: 8edc 2d3e 6113 7d3d bce3 af3d 355c 963e
000000a0: 834d d43d 64d4 953e 9ae4 ebbe 1613 d8bd
000000b0: 8678 90bd 6943 70be 967b ba3d 2351 9dbd
000000c0: 5dda 2a3e c9a9 ba3e c5f9 08bd 12de 88bd
000000d0: 274a 463e a2eb 873d 11cb 973d 5afe 183e
000000e0: 0d10 ca3e 3e1f 633c d54e db3d 89fe cd3c
000000f0: bc8b 0cbd b14b cd3c 4c40 60be b491 3f3d
00000100: dfb6 233e 96fe b93d 5dad db3e 7c1e 2dbe
00000110: 8f1e 04be 77fc cdbd ec19 b0be 1e36 493d
00000120: db5d bf3d e3f0 c4be 9197 4b3e 61a3 91be
00000130: 1d75 813e 34bc ff3c 954c 7abe 5c99 a13e
00000140: 48ed 84be 1bb2 b03e b8ab c53d f577 723e
00000150: bac7 e7bc 0144 4ebd 5bd1 a0be bcdb 8fbe
00000160: f8d1 ad3d 0354 513e d9bd b33c 1f0e cdbc
00000170: 0f3d f7bd bbbb 0cbf a8e3 9abe cb02 023e
00000180: f1e1 f73d 2470 1e3e 962e c2bc 68e3 1e3d
00000190: e480 393e 7b46 cf3d 8fc7 a03e 101e 3d3e
000001a0: 723c 113e 78e2 ab3e 54af 00be 3896 90bd
000001b0: bb54 943e 5b69 3b3e a741 543b 8198 eb3d
000001c0: c259 6d3d ad24 c93d a3ea f93d e79f eebd
000001d0: 45e1 9a3e a77c 763d eb5d d1be 8dd7 4a3e
000001e0: 59af 86be 9907 743c 44e2 203e d7cc 6bbd
000001f0: 1e5f 443d 23e5 b83d bfce 15be a916 a53d
00000200: eef8 a2be 007a 32be 9610 a3be 8781 acbe
00000210: 26d2 3bbe 7476 333e ea7d e9bd 022e 763e
00000220: 2f73 593d c45a 53be ee47 723d cf0a 00bd
00000230: bb0d 953e 94b7 803d c3a5 71bc 365d 07bf
00000240: f5dd b43c 5d8c 5f3c 0039 433e 697d f7be
00000250: 9ba9 56bd 90a6 8dbd 982d 19be 71c7 303e
00000260: 00a2 693e f7f9 cfbc 0750 87bd b4db 7ebd
00000270: 1242 96be 1776 333e 035e 323e 7305 243e
00000280: 6b7e 11be 46f4 1a3e 91fd 6c3d b4b4 563e
00000290: 9273 1f3e 918b 213e 1eaa 4fbe 1eef 313d
000002a0: c8ea b53d 8e75 f4bd 10c4 96bd 87f8 cbbd
000002b0: 7a55 75be 0800 d5be ceaa 9bbe 9b45 77bd
000002c0: 3f20 3e3e df97 47be ed45 3d3d 89b2 66bd
000002d0: a9c2 633e ff68 453d b492 ddbc 341c ffbd
000002e0: 4058 17bd 0d0b 653e b1a1 2e3e 3fee 4fbd
000002f0: 2b26 3fbc f57c d7bd 96a0 313d 7105 2f3e
00000300: 4bca c1be 2e28 c8be 563c 26be 6870 69be
00000310: 34e2 d9be 8ca0 263e aaf5 293e b776 5cbe
00000320: 5d25 9d3e 6c1f a93d 6bb8 283e 850d 303e
00000330: 13bb 093e c672 d63b 088a 2fbe 8462 5e3e
00000340: c317 22be 608e 52be 5c23 033e 6eba 64be
00000350: 0953 febd cc92 7fbe cce1 24bd 4786 e1bd
00000360: 464c 88bd c2f7 743c 5ff8 14be ab0a 803e
00000370: 3da2 ee3c ca81 8bbd 725b 0bbb 3855 483e
00000380: 9090 a03e eb11 4a3e 648e 043d 0e65 923e
00000390: 20ea 9e3c 4ecc 8e3c 3e8d 6abb b14e 683d
000003a0: 1418 843e 0731 ebbd ed84 bfbe ef10 4bbe
000003b0: d607 313e 91bc 823d efb6 99be 29c9 97bc
000003c0: f93b dc3d 02bc df3e 8c98 003e 6b1b 6abe
000003d0: 2c76 283d 78b4 063b 3c80 c4bd 6d39 543e
000003e0: ae16 e03e 0812 31bd 3bd0 da3d 606b e43b
000003f0: a46f 1d3c 9aa5 a8bd c9fd a4bc 5415 863e
0.078621686 0.31076756 0.2252567 -0.16622484 -0.07693261 -0.1179601 0.046414424 0.05872536
-0.30752754 -0.29764223 0.255172 0.21538123 0.06294873 0.21525751 -0.3775155 0.11479193
-0.0012253749 -0.039874848 0.06591737 -0.3297462 -0.06051632 -0.36201864 0.19749577 -0.0840988
-0.06302497 0.26977965 0.021996848 -0.3622508 -0.07885634 0.1257596 0.07513381 0.027645726
0.042156793 0.19591878 0.10543829 -0.16608734 0.16978666 0.06178606 0.08588359 0.29367223
0.10366347 0.29263604 -0.46072847 -0.10550515 -0.07054238 -0.23463215 0.091056034 -0.07681491
0.16684861 0.3645766 -0.033441324 -0.066829816 0.19364224 0.0663674 0.07411779 0.14940777
0.3946537 0.013862429 0.107083954 0.025145786 -0.03431295 0.025060507 -0.21899527 0.046769813
0.15987729 0.090817615 0.42905703 -0.1690616 -0.12902282 -0.100579195 -0.34394777 0.049123876
0.093440734 -0.38465032 0.19882037 -0.2844496 0.25284663 0.031217672 -0.24443276 0.31562316
-0.2596228 0.34510884 0.096518934 0.23678572 -0.02829348 -0.050357822 -0.31409726 -0.28097332
0.08487314 0.20442204 0.021941112 -0.025031148 -0.12072193 -0.54973954 -0.30251813 0.12696378
0.12103642 0.15472466 -0.023703855 0.03879109 0.18115574 0.10120865 0.3140225 0.18468499
0.14183214 0.3357122 -0.12566882 -0.07059902 0.28970894 0.18301909 0.0032387765 0.11503697
0.057946928 0.098214485 0.122029565 -0.11651593 0.30249992 0.06017747 -0.40891966 0.19808789
-0.26305655 0.01489439 0.15711313 -0.057568397 0.047942273 0.09028079 -0.14629649 0.08060963
-0.31830543 -0.17429352 -0.31848592 -0.33692572 -0.18341884 0.17525655 -0.11400969 0.24040988
0.053088363 -0.20640093 0.05915063 -0.031260308 0.29112038 0.06285015 -0.014748993 -0.52876604
0.022078494 0.013644305 0.19064713 -0.48337868 -0.052407842 -0.06916535 -0.14958799 0.17263581
0.22815704 -0.025387747 -0.06607061 -0.062221244 -0.29347283 0.17525516 0.17418675 0.16017704
-0.14208381 0.15132245 0.057859007 0.2096737 0.1557143 0.15775897 -0.20279738 0.04344093
0.088826716 -0.11936484 -0.07361615 -0.09959512 -0.23958388 -0.41601586 -0.3040375 -0.060369115
0.18566988 -0.19491528 0.046209265 -0.05632261 0.22242226 0.048195835 -0.027047493 -0.12456551
-0.036949396 0.22367497 0.17053868 -0.05076432 -0.011666815 -0.105218805 0.043366037 0.1709192
-0.3784965 -0.39093155 -0.16233954 -0.22796786 -0.42555392 0.16272181 0.1659762 -0.21529661
0.30692568 0.08257946 0.164766 0.17192657 0.1345027 0.006544444 -0.17142498 0.21717268
-0.15829377 -0.20562124 0.12806457 -0.22336742 -0.124181814 -0.24958342 -0.0402544 -0.110119395
-0.06655173 0.014951648 -0.14547871 0.2500814 0.029130096 -0.06811865 -0.0021264222 0.19563758
0.31360292 0.19733398 0.032362357 0.28592724 0.019398749 0.017431404 -0.0035789753 0.05671567
0.2579962 -0.114839606 -0.37406102 -0.19830678 0.17288145 0.063836224 -0.3002238 -0.018528538
0.107536264 0.43698126 0.12558192 -0.22862022 0.041128322 0.0020554345 -0.09594771 0.20725031
0.43767303 -0.043230087 0.10684248 0.006970808 0.009609137 -0.08234711 -0.020140545 0.26188147

model.4.bias f4 [4]
00000000: 4061 0f3f d531 fb3e 7c6d 093f ff44 f63e
0.56007767 0.49061456 0.53682685 0.48099515
