models/4/q_final_n324.pt (torch, 131223 bytes, 6 tensors)

model.0.weight f4 [128, 185]
00000000: fc8f aabd b7d4 cd3d 4d6e 883d c3e7 ed3b
00000010: 6251 07be dac8 2b3e 25ac 643c 31f2 00be
00000020: 05dd 18be f48f 9fbd 11a4 a33d 99cb dbbc
00000030: 4f28 e8bd b2ee e3bd f33e 48be 2136 ea3d
00000040: 5343 2d3d 34ea c2bd 2d08 033c dd8e 23be
00000050: 84bd 1d3d 7b6c b5bc 40ff 873c 4c4a 153d
00000060: e9fd b7bc 9d2f a43d 52f5 733d 2c7a e2bd
00000070: ab51 91bd 0130 cebd 5ce3 bc3d e898 9e3c
00000080: 30d0 c2bd 5e54 dd3d 5472 c4bd f89b e4bc
00000090: 5137 31bb 53d2 2f3e 1ba7 4d3d 0369 8cbc
000000a0: b610 a8bd 6599 6ebe 1c8a 853d cac3 17bd
000000b0: 60fc c4bb f14a ef3d a8ea a03d b161 463e
000000c0: 73c2 0bbe 78cf 9fbd 360a 17be 08f0 d0be
000000d0: 660a 373d 14c7 6ebd 88cd 21be 2094 f9bd
000000e0: f62f 913b 70a2 b4bd fdb4 453b f20d ca3d
000000f0: 2724 7e3d 70a8 00be 9a9f 083d 686e bf3c
00000100: 9f9d 2abe d7b0 8d3d b85c ebbd 3094 65bd
00000110: 486f 993c f95f 223c 400c 15be e809 28bd
00000120: 2401 00be b902 863c 00a7 1d3e c443 b63d
00000130: 85a8 bbbd 0c57 2bbe cb24 efbe a211 02bc
00000140: a714 463d 3a2b 64bd ea77 013e 975e e63d
00000150: a3eb c93d 537f 1b3d 6e65 08be 62d7 8e3c
00000160: 5b69 b1be 2773 893d 91a0 53bc cf25 823d
00000170: 1850 27be 934b 2e3d fe0d 073e 8fb0 bdbb
00000180: a987 5abe 53cf 993d cb79 c9bc 90e3 2fbe
00000190: c1c6 023d 4cfb 4c3d ab53 1a3d 512f 0f3e
000001a0: f341 9dbc 6c0f b8bc 5e9c d1bd 0921 c43d
000001b0: 591d ef3d c7c6 83bd 828d 88bc bd3c ca3e
000001c0: 02df 6dbe 3a79 56be d5d1 c9be cfc3 8abf
000001d0: 1e38 02bc 3ea8 4cbb 3a17 03be d521 113e
000001e0: ba50 213d a87e 383c a11b 2b3d 7ae3 2bbe
000001f0: d5cc c23d ad5d f53c 70dd d1bc dc7b 1a3e
00000200: d712 883d d62b 1abe 9f6b 92bd 315e a33c
00000210: c8bc 883d 28a7 403d ffab 24be c820 2d3e
00000220: 5bde 8fbe 5fab 883e a534 d03d df0c 543d
00000230: 50bc a13e e4a8 14bd 64f1 dabc a1f8 88bd
00000240: f4cc 073e 78f3 843e acb2 533c 2ae6 0f3d
00000250: 49aa 653f 2de9 b1bf cf1f b9be fc93 10bf
00000260: fccd ecbf 1da8 74bd f73a 9dbd 0e1f 80be
00000270: de60 a33e cecf 6a3e d223 fabe 28d6 513e
00000280: 8630 21bd 33e2 18be a179 ca3e dffa e63d
00000290: 70e8 203e 90ef 20bb a9bc b6be 0173 24bf
000002a0: ddfd 0bbe 093d 653d c679 e43d 1c35 a7be
000002b0: 2565 203f 04ed 91be 208e d03e 08f1 62bd
000002c0: 454b 8d3d 14ec 8b3e 8ff7 05bf fd39 843c
000002d0: 81d7 2b3e 7d98 593e 4d91 e93e 7801 34bd
000002e0: ee32 193b 2e25 64be e45f b7bb 3fdc 0c3e
000002f0: f587 2bbe cc59 2dbe 0842 5abe ab42 dfbd
00000300: fb09 0abd eb90 6c3e 59ef 5fbe 2a27 1e3e
00000310: 483f a8be 2285 9f3d 7c62 31be 6261 4b3e
00000320: 6cfd 39bd 2e1c 56be 0f48 8dbd a35c 4b3d
00000330: f9fe 01bd f30c 3abe 7605 44be 1fc4 a6bd
00000340: 5f3b 4b3e c0ad 91bd 70d0 79be 7d5a 83be
00000350: e5d5 253e a992 4a3e b066 15be 3eef 0c3c
00000360: b4d7 013e 2b33 f5bd 5042 16be c965 aa3d
00000370: e294 1a3e 1bb9 ecbd 928c 19be 8e0d fa3c
00000380: 89c3 c8bc 6e28 0ebe 084a 52be 4692 5cbe
00000390: bdd1 103d f1e6 fbbb 2b1c cd3a 09a5 d4bd
000003a0: b799 a1bc b11a 55be 34b2 063d 67c0 9d3e
000003b0: 1518 17be c53a 68be 0982 83bc cf47 973e
000003c0: 9b97 fbbe 5053 393e f865 e4be 6e4f 55be
000003d0: 9035 11be ac93 cb3e eac4 c9be 05fa 4cbd
000003e0: 079c f73c ba92 b4be 4ffd 0d3b 5cb5 64bc
000003f0: 09c9 c6bd afe5 833e 5f13 2dbe 2792 93be
-0.08328244 0.10050338 0.06661663 0.007260294 -0.13214639 0.16775838 0.013957058 -0.12592389
-0.14928062 -0.07791129 0.079902776 -0.026830481 -0.11335813 -0.11129512 -0.19555263 0.114361055
0.042300534 -0.09517327 0.007997555 -0.15972467 0.038510814 -0.022146454 0.016601205 0.03644781
-0.022459941 0.08016894 0.059560128 -0.11058459 -0.07095655 -0.1006775 0.09223053 0.01936002
-0.09512365 0.108071074 -0.09592119 -0.027906403 -0.0027041028 0.17170076 0.050208192 -0.017139917
-0.08206312 -0.23300703 0.06520483 -0.037051953 -0.0060115308 0.11684216 0.07857257 0.19373204
-0.13648395 -0.078032434 -0.14749989 -0.4080813 0.04468765 -0.058295324 -0.1580106 -0.12186456
0.004430766 -0.08820045 0.0030167692 0.09865941 0.062046196 -0.12564254 0.033355333 0.023368075
-0.1666169 0.06918495 -0.11492294 -0.056049526 0.01872982 0.009910577 -0.14555454 -0.041025072
-0.12500435 0.01635872 0.15395737 0.08899644 -0.09163002 -0.16732424 -0.46707758 -0.007938774
0.04835954 -0.055705287 0.126434 0.1124851 0.09859397 0.037963223 -0.13319942 0.017436687
-0.34650692 0.06711417 -0.0129167 0.06354868 -0.16339147 0.042552542 0.13188931 -0.0057888697
-0.21340813 0.07510247 -0.024594208 -0.17176652 0.031927828 0.050044343 0.03767745 0.13982894
-0.019196486 -0.022468291 -0.10234903 0.095766135 0.116755195 -0.06434398 -0.016669039 0.39499465
-0.23229602 -0.20944682 -0.39417902 -1.0841006 -0.00794795 -0.003122821 -0.12801829 0.14173062
0.039383627 0.011260666 0.041774396 -0.16785994 0.09511725 0.029951895 -0.025618285 0.15086311
0.066442184 -0.15055785 -0.07149433 0.019942375 0.06676632 0.047034413 -0.16081236 0.16907036
-0.2809933 0.26693246 0.10166291 0.051770087 0.31588984 -0.03629388 -0.026726432 -0.06688047
0.13261777 0.25967002 0.012921017 0.03513161 0.8971296 -1.3899285 -0.3615708 -0.56475806
-1.8500361 -0.059730638 -0.07677262 -0.25023693 0.3190984 0.22930834 -0.48855454 0.2049185
-0.039352916 -0.14930038 0.3954592 0.112783186 0.15713668 -0.0024556853 -0.3569081 -0.6423798
-0.1367106 0.05596641 0.11156039 -0.32657707 0.62654334 -0.2850114 0.40733433 -0.055405647
0.06899122 0.2732855 -0.5233087 0.016140932 0.16781427 0.21249576 0.45618668 -0.043946713
0.0023376304 -0.22279808 -0.005596148 0.13755892 -0.16751082 -0.16928786 -0.21314251 -0.10901388
-0.033700924 0.23102157 -0.21868648 0.15444627 -0.3286078 0.07789065 -0.17322725 0.19861367
-0.045407698 -0.20909187 -0.0689851 0.049648892 -0.0317373 -0.18169002 -0.19142708 -0.08142876
0.19846867 -0.07113218 -0.24395919 -0.25654975 0.16194876 0.19782509 -0.14589953 0.008601962
0.1267994 -0.1197265 -0.14673734 0.08320195 0.15095857 -0.115587436 -0.1499503 0.030524042
-0.0245073 -0.1388261 -0.20536053 -0.21540174 0.035356272 -0.0076874425 0.0015648653 -0.103830405
-0.019726617 -0.20810963 0.03288479 0.30810854 -0.1475528 -0.22678669 -0.016053217 0.29546973
-0.49139103 0.18098187 -0.44609046 -0.20831081 -0.14180589 0.39761102 -0.39408046 -0.050043125
0.030225767 -0.35268193 0.0021665876 -0.013959255 -0.09706313 0.25761172 -0.1690192 -0.28822443

model.0.bias f4 [128]
00000000: 6d0d 85bd 2faa cabd 443f 3cbd a49a 3abd
00000010: 938d 3fbe 9e4e 04be 041d 50be 9c84 f9bd
00000020: fc25 1bbe 7931 1cbe c69f 943d 502a 11be
00000030: 59de f3bd a044 3dbd e55e aebd 21ee 133d
00000040: c4e3 0abd 593d 72be 149c 0e3d 395c f8bd
00000050: a881 fa3c fae5 0f3d 3fb1 0bbd b854 a0bc
00000060: ecba 4abe a435 d8bd 42ab 1dbc 8b95 04bd
00000070: b8b8 7bbd b433 97bd d38d bebd f582 3bbd
00000080: 93c6 51bd 33ec adbd cde5 903d 5d34 99bd
00000090: ddf5 68bd 76a3 933d dc21 e2bd 0422 543c
000000a0: b444 c0bd d05e 2e3e 108a 14be c665 093c
000000b0: 90eb a63d 1462 e9bb 2a4b 9bbd 6575 36be
000000c0: 0652 0cbe 5400 41be f86a 25bd 8901 5fbc
000000d0: aa98 53bd c10d 99bc e4e3 2c3c ec76 49bd
000000e0: af41 f4bc 9912 3bbd 7cda 2fbc df8a c7bd
000000f0: 8810 77ba 0bb8 eabd 3697 1cbe 84cd c2bd
00000100: 7456 6ebd 3aa3 4d3a 2e60 3ebd cfcf febd
00000110: b147 dbbc 4fd9 46bd bdf7 c63d 076b 79bd
00000120: 9275 4cbd ebe1 babd b728 1abe 69ef 10bc
00000130: 68f0 febd 1562 21be 84d5 88bc b5a8 58bd
00000140: 27ed a8bd bfcf aebb 3b98 f4bb de16 7cbd
00000150: 82b5 66bd 6a78 c9bd 3907 cfbd b19e 9ebd
00000160: 980d c7bd f7eb 11be 6b8d 97bd ae29 aabd
00000170: b5f7 a6bd 9323 e6bc cda4 d9bc d568 343b
00000180: 398f 0bbe 08af f9bc df64 4fbe 153d 2a3d
00000190: cbfd e4bb 1cdb 52bd 20e5 0fbd e926 7a3d
000001a0: 85c5 a93c 211c 9bbd cdf3 dcbd 88f3 f9bc
000001b0: 9414 18be b977 8c3b af0d 57bd c67c 543c
000001c0: 47d7 4139 6406 b93d 8d56 dbbd 4055 f8bc
000001d0: 81b8 d63c 843b e3bd d4fb 20be d947 35be
000001e0: 1055 c9bd 44e7 0cbd 5f09 31bd 4355 b7bc
000001f0: c534 93bc e0d0 90bd 92fb 933d 1f9f 32bd
-0.064967014 -0.09895741 -0.045958772 -0.045557633 -0.1870635 -0.12920615 -0.20323569 -0.12183496
-0.15151209 -0.15253247 0.07257037 -0.14176297 -0.11907644 -0.046208024 -0.085141934 0.03611577
-0.03390862 -0.23656215 0.034816816 -0.12126965 0.030579403 0.035131432 -0.034104582 -0.019571647
-0.19797868 -0.10557106 -0.009623351 -0.032369178 -0.06145546 -0.073829085 -0.093043946 -0.045779187
-0.051214766 -0.08492317 0.07075081 -0.07480691 -0.0568751 0.07208912 -0.110416144 0.012947563
-0.09388104 0.17028356 -0.14505792 0.008386081 0.08150399 -0.0071222875 -0.07582696 -0.1781822
-0.13703164 -0.18847781 -0.040385216 -0.013611206 -0.051659264 -0.018683316 0.01055238 -0.04918568
-0.029816477 -0.045672033 -0.010733243 -0.097432844 -0.00094247656 -0.11460885 -0.15292057 -0.09511855
-0.058187917 0.0007844452 -0.046478443 -0.1244198 -0.026767584 -0.048547085 0.09715221 -0.060893085
-0.04991681 -0.09125122 -0.15054594 -0.008846142 -0.124481976 -0.15760072 -0.016703375 -0.052895267
-0.08248358 -0.005334824 -0.0074644363 -0.061545245 -0.056325443 -0.0983742 -0.101087995 -0.07745112
-0.0971939 -0.1425017 -0.0740002 -0.08308731 -0.08152715 -0.028093135 -0.026567841 0.0027528305
-0.13628854 -0.03047897 -0.20253323 0.04156216 -0.0069882623 -0.05147849 -0.03513062 0.061072264
0.020724067 -0.075737245 -0.10788689 -0.030511633 -0.148516 0.004286733 -0.052503284 0.012969201
0.00018486111 0.09034422 -0.107098676 -0.030314088 0.026211025 -0.11095336 -0.15721065 -0.17703189
-0.098306775 -0.03440024 -0.043221828 -0.022379523 -0.017969498 -0.0707109 0.072257176 -0.04360878

model.2.weight f4 [64, 128]
00000000: e56e afbe 71af e2bd e25e a53c 5815 3abd
00000010: 2f04 2abb fb0d 603c bd5f ffbd 613b 57be
00000020: f2d1 6cbe 371b c6bd 7aee 9a3e 8af0 acbd
00000030: 1be6 563e 2c4b 32be 9c23 9bbe 865d 0abc
00000040: 2357 3fbe b452 39bc 2ca3 dabc ec5e 08be
00000050: 3ffd 433d e308 8ebd 55cb ee3d d909 c3bd
00000060: 87e2 b7bb f882 51bd cf3c a43d 3f5c f5bd
00000070: cd08 94bc 7e04 143e 074c 8dbd 605d ef3e
00000080: e205 d23d 142f 66bd f7bf d0bd 2993 943d
00000090: 67e1 d53d 15f3 7cbe af8c 94bd 99f0 a53d
000000a0: 13bb 323c ade8 20be 0763 ddbe 95d2 b03d
000000b0: b76a 34bd 8d65 debe 10d3 b03c cdf0 02be
000000c0: fec8 60be 1144 33be f9c0 8bbd 7b01 5b3d
000000d0: f45d f8bd 43ef 233e 6423 803d a891 f6bd
000000e0: bd9d 153d 629a e9bd ddea 6cbe 7d9f 9bbd
000000f0: a34d dbbc 8f13 93bd e1e7 3c3b c1df a1bd
00000100: d638 2c3d 4ed8 17bd 0db2 3c3b ca72 bfbe
00000110: ae5f 1bbe 797a 653e d770 1bbd dc48 123e
00000120: 8979 143e 5920 31be 2244 36be b879 f33b
00000130: e1f1 26be 12c1 61be 884c 9d3e a53e 23be
00000140: 3c48 e7bd 62bb c7bc e51c d9bd d86a e53d
00000150: c926 24bd 7d7c 8bbd 703d ed3b 6418 813c
00000160: e72d 03be 1144 30bc d574 7fbc d926 b1bd
00000170: cd00 453e cf21 b2be 52b2 ff3d b5a4 06bc
00000180: ce4a 39be 4963 233e 3ec1 1d3d f61f 8ebd
00000190: 67de 25bd af18 0e3e aab5 29be b28f 133c
000001a0: d8e6 e4bd cfee 17be 9fd7 e5bc 9b33 e1bd
000001b0: a745 af3d 0837 563d 2375 8d3e de54 14bb
000001c0: 3e17 19be d0e9 e7bd 8079 f7bc 9508 e73c
000001d0: b735 2cbe 97ee b2be 2edd e5bd 16ca 033c
000001e0: e452 63bd 1fa9 37be 5f44 99be 1d96 0bbe
000001f0: d54d 80be ddb8 53be 0e9b f1bd 4ff0 b5be
00000200: 13a0 a0bc 5e7e 2cbe 874c 59be a34a d6bd
00000210: f1f5 0bba 6aba 833d 9362 cc3d 5b2b 17be
00000220: 258c b4bc cc8d 86be 4fe2 893e 933d f43b
00000230: 4e7a 3a3d df12 ccbe d9e4 ba3d e93a 1e3e
00000240: 5bf2 e8bd eddd e2bd f5be 8bbd 00d3 3c3e
00000250: 987e 48be dcae 63bd 27a3 4a3e a4f7 283e
00000260: 0208 283d c6cb a0bd c4de 87bc 4a2c c3bd
00000270: 6b26 50bd 0a63 50be 034d d1bc 7bec a13c
00000280: ea7a 773e ad7e 253d 78b7 2cbe 2319 843c
00000290: a9be 18bd ee90 86be bdfa 32be 6f84 00be
000002a0: b25c d23d 406f febd b0de 89be 0fe1 ba3d
000002b0: bdc6 2abe 23a4 07bd ef52 0abe 282a 94bd
000002c0: 66f8 fbbc 6bfe 24bd f682 9b3c df99 afbd
000002d0: b8a7 85be 5238 1c3e 9be6 363d 7761 8dbd
000002e0: 8ee1 c0bd cd68 99be 3e88 313e eb9a a6be
000002f0: a1d2 953e 8248 143d 299b 02bc 38e8 aebe
00000300: b404 083d 7c20 88be 2a18 debb c51e 78be
00000310: 35d9 253e 5777 d5be 3a65 09bd 1995 24be
00000320: abef c7be 2c12 5d3c 1553 753e cbe3 883c
00000330: f3ab 9ebd d6b8 2bbe c39c 8e3d aa02 013e
00000340: b322 14bd af4f 63be 3d93 be3d 9039 4e3d
00000350: 12ee 3c3a 83ea 83bd c4a4 27be 10fb 3ebe
00000360: 3ee4 48be ebdb 9abd b5b8 febc b23e c73d
00000370: dff3 44bc 3faa 25bb 1d50 65bd 002f 603d
00000380: fe03 a03d b463 8fbb 09b5 b3bc 7ae3 f8bd
00000390: 40b8 aebd f0c9 e9b9 7298 d23d e033 0fbd
000003a0: a7e6 eabb 5514 80be fdd7 933d 4d39 f7bd
000003b0: 209c 55bd 8053 e73b c24e a33c affc 57be
000003c0: 6c08 aabd c4b7 9cbd bd71 a53c 1222 11be
000003d0: 770d 1c3e 4995 85be 884d 3c3d ef45 9cbd
000003e0: 7c17 053e 26bf 42be 2135 92be bad9 44bd
000003f0: 1a1c 233c 87dd ddbd e764 38bd 3ef0 33bd
-0.34264293 -0.11068619 0.020186845 -0.04543051 -0.0025942435 0.013675208 -0.124694325 -0.21018745
-0.23126963 -0.096731596 0.30260068 -0.08444317 0.20986216 -0.17411488 -0.30300605 -0.008445149
-0.18685584 -0.011311222 -0.026689135 -0.1331746 0.047848936 -0.06935289 0.11659876 -0.09523363
-0.005611721 -0.051150292 0.08019411 -0.11980485 -0.018070603 0.14454839 -0.06899267 0.46750927
0.10255028 -0.05619724 -0.101928644 0.07254631 0.10443383 -0.24702103 -0.07253396 0.08102531
0.01090886 -0.15713759 -0.43239614 0.08633915 -0.044047084 -0.43436852 0.021585017 -0.1278717
-0.21951672 -0.17506434 -0.06823916 0.05346821 -0.12127295 0.1600924 0.0625675 -0.120395005
0.036527384 -0.11406399 -0.23136468 -0.07598779 -0.026770419 -0.07181465 0.0028824734 -0.07904006
0.04204639 -0.03707152 0.002879265 -0.37392265 -0.15173218 0.22410001 -0.03794941 0.14285606
0.14499487 -0.17297496 -0.17799428 0.0074302815 -0.16303207 -0.22046307 0.3072245 -0.15941866
-0.112930745 -0.024381343 -0.10601214 0.112020195 -0.04007605 -0.06810854 0.00723999 0.0157587
-0.12810479 -0.010758416 -0.01559182 -0.08649988 0.19238587 -0.3479142 0.12485184 -0.00821798
-0.18094942 0.15955843 0.03851437 -0.0693969 -0.040495303 0.13876604 -0.16573206 0.009006428
-0.111768425 -0.14837192 -0.028056918 -0.10996171 0.08558207 0.052298576 0.2762843 -0.0022633593
-0.14950272 -0.11323893 -0.030209303 0.028202334 -0.16817366 -0.34947655 -0.11223827 0.0080437865
-0.055498973 -0.17935608 -0.29934976 -0.13631482 -0.2505938 -0.20675988 -0.117971525 -0.35534903
-0.01960758 -0.1684508 -0.21220599 -0.104634546 -0.00053390773 0.0643204 0.09979739 -0.14762633
-0.022039482 -0.26280057 0.26930472 0.0074536293 0.045526795 -0.39858148 0.091256805 0.1545216
-0.11374351 -0.11077485 -0.068235315 0.18439865 -0.19579542 -0.05558668 0.197888 0.16500717
0.04102326 -0.07851367 -0.016585715 -0.09529932 -0.05081789 -0.2035028 -0.025549417 0.019766083
0.24167982 0.04040401 -0.16866863 0.016125267 -0.037291203 -0.26282448 -0.17478462 -0.1255052
0.102715865 -0.12423563 -0.2692771 0.09124958 -0.16677375 -0.033115517 -0.13508199 -0.07234603
-0.030758094 -0.040281694 0.018983345 -0.085742705 -0.26104522 0.1525586 0.044653516 -0.069033556
-0.09418021 -0.2996277 0.17337129 -0.32540068 0.2926226 0.03620196 -0.007971563 -0.34161544
0.03320761 -0.26587284 -0.006777783 -0.24230488 0.16196139 -0.41692612 -0.033543803 -0.16072501
-0.3905004 0.013493102 0.23957475 0.016710183 -0.077476405 -0.16769728 0.06963494 0.12598673
-0.036165904 -0.22198366 0.09305427 0.050347865 0.0007207106 -0.06441214 -0.16371447 -0.1865046
-0.19618317 -0.07561477 -0.031093935 0.09728755 -0.012021034 -0.0025278477 -0.055984605 0.054732323
0.078132614 -0.004375899 -0.02193691 -0.12152763 -0.08531237 -0.00044591678 0.10282983 -0.03496158
-0.007168609 -0.25015512 0.07218931 -0.12071476 -0.052150846 0.0070595145 0.019935016 -0.21092485
-0.083023876 -0.07652238 0.020195836 -0.14173153 0.15239511 -0.26090458 0.045972377 -0.07630526
0.1299724 -0.1901823 -0.2855616 -0.048059203 0.00995543 -0.108332686 -0.045018103 -0.043930285

model.2.bias f4 [64]
00000000: efef 5abd f13f 00be 47cc 1d3e 15c6 903c
00000010: 6acc 053e b2d2 83be fb47 47be 0ca6 0cbe
00000020: c58a 8cbe 3b3a 1dbe 1cec 4c3d f759 68be
00000030: eacc 27bd 1faf 75bc 29a3 19be 7c59 5c3d
00000040: e8b8 b8bd 1a6c 14be 0859 24be 062c b0be
00000050: ab53 97bd 79f3 f9bd fac9 9b3e ac36 52bd
00000060: e8e9 4ebe 043e 3cbd 27c7 9d3d 0a3a 01bd
00000070: 28af 83be 4df4 fa3e 1d98 403b a96e edbb
00000080: 41fa 273d 579d 3dbe 1e43 47be 4a52 0e3e
00000090: ff2a 81be e7e1 01be cdc4 35be d41a 6abe
000000a0: 91c4 133f 8495 65be ee3a 2abe 5de0 99bd
000000b0: 37ed 7cbe 623e 72be 5052 b33e 79fa e03d
000000c0: 61f7 2abe fb99 3ebe 7740 153d 1180 c9bd
000000d0: af91 47be ff8e acbd 831b be3e dc90 4bbe
000000e0: 3bef 29be 0de1 7ebd cd0f 9f3d 6ac3 3cbe
000000f0: 4f58 41be 14b4 3dbe ce3d 83be a718 41be
-0.053451475 -0.12524392 0.15409957 0.017672578 0.13066259 -0.25746685 -0.19461052 -0.13735217
-0.27449623 -0.15354244 0.05002986 -0.22690569 -0.040966906 -0.014995365 -0.15003647 0.053796276
-0.09019643 -0.14494362 -0.16049588 -0.34408587 -0.07389005 -0.12204642 0.30427533 -0.05132167
-0.20206416 -0.04595758 0.07704001 -0.03154949 -0.2571957 0.49014512 0.0029387542 -0.0072458577
0.041010145 -0.18517052 -0.19459197 0.13898578 -0.25228116 -0.12683831 -0.17750855 -0.22861797
0.5772181 -0.22420317 -0.16624042 -0.07513497 -0.24699865 -0.2365661 0.35023737 0.10985274
-0.1669593 -0.18613426 0.03643843 -0.0983888 -0.19489168 -0.08425712 0.37130365 -0.19879478
-0.16595165 -0.062226344 0.07766686 -0.1843392 -0.18881343 -0.18525726 -0.2563309 -0.1885706

model.4.weight f4 [4, 64]
00000000: a918 16be 3d69 b3bd 3a48 003d 1826 8abd
00000010: f0bd 43be e7af 8ebd 682d a83d 886f a63d
00000020: 0aed dfbd 693d a5bd 2756 733e 9e80 013e
00000030: 4231 763c 2c13 1f3e 420c 143e 3107 36be
00000040: 87b6 8fbd a1d7 413e bf71 5f3d e754 6dbd
00000050: 62de 2b3e a4c9 fbbe 0483 4a3e cce7 90be
00000060: ece4 673b 5353 463e 4bdd afbe dbef 463e
00000070: 5150 a9bd b7f5 9c3d 2a03 7ebc 1296 16bd
00000080: ee56 303d 0403 3b3d 0cae 00bd ccc4 493e
00000090: 0680 3d3c 6001 c8be 9439 eabd 39b0 adbd
000000a0: c4f6 0d3e 6bd8 b0bd d544 c13e c1b5 55bd
000000b0: 482b eb3d 2c99 f8bd 9965 3d3d 1215 083e
000000c0: a502 11bd 9393 76bd 0450 983e 598a 863d
000000d0: 3820 99bd 19cd c83d c473 bb3c 6e97 0bbe
000000e0: 756d eabc 83cc d9bd e328 b33d a8c0 063c
000000f0: c16d 8e3d b559 b63d 1411 86be b0e0 7bbd
00000100: 5245 62bd 8f97 aa3c cacf f03c 27e7 aabe
00000110: 513e 513e d442 a0bc 5681 1dbd 9385 8dbe
00000120: c6f6 e4bc 3b52 c03c d2a8 0b3e b618 623e
00000130: 4a0d 92bd c8be 8b3d 278b 0f3e 0d7a 02bd
00000140: 018d d8bd bec9 2e3e 2b06 31bd 1fbd f7bc
00000150: 5bab 013e 0b5a 3fbd 72fa 793d aeb1 a63e
00000160: 5480 2b3d 9eca 293e 2f33 83bc b36c 193c
00000170: fbda f2be 97e6 e93d cda9 abbe 5166 95be
00000180: b267 293e d603 2b3d 181d b13c ce99 3f3e
00000190: ba97 f13c af46 8e3e 402b 4f3e f3af cdbd
000001a0: 162d 303e edd3 833e 0d34 4a3e 12fe b1bd
000001b0: cbcf 8ebe a165 f4bc ea4c 153c e08e 6c3e
000001c0: 4170 6bbe 492a 8dbe 3876 0ebd 3b4f bbbe
000001d0: 4bd5 11bd 32c5 5c3d aaec e93d b35c 823e
000001e0: 76b9 cc3c 2134 183c 4472 803d 676e 213e
000001f0: b141 5cbb abf6 d73d 27c3 0dbe f8fe 583b
00000200: 6ef5 8f3e ed01 54be 703c 453d 66c7 543e
00000210: f3ed 703d 392a 3abd a7c8 3d3e a12a 363e
00000220: 0518 9f3d 942c 653d 9a61 4c3e 4fe5 b0bc
00000230: df7a 69be 45db 0ebd 3bb0 5b3e 0306 4a3e
00000240: 5d8d c8bd 81c3 ad3d b442 593b abc3 0bbe
00000250: 83e4 9abe 198d 4dbe bcc6 f73d a421 95be
00000260: efb3 1a3d 7469 b6bd 0d64 57be f6a8 8b3e
00000270: f1f6 fa3d f35b 183e c078 103e 20dd 873e
00000280: 09c2 5f3e 8e9d 3f3d 78de 14be 3ab9 3b3e
00000290: 84c6 3bbd c59a 423c b12a 77bd 185c 85be
000002a0: e10c 333d 210d 29bd bba9 72be 1545 05bd
000002b0: d7ff ba3d 1b97 acbd c5ac 3fbd 7ddf 143e
000002c0: 6dc7 a7bd 2ee8 e23d 5dc4 bb3d a54d 81be
000002d0: 4429 bf3d 3c2c b2bd 4be3 0c3d 5fb3 87be
000002e0: 740b e13d c452 babe 7dbd 3f3e 37ee e93d
000002f0: f255 8e3e 46d0 f43d 95f0 7ebd 3191 d93e
00000300: 0e37 263e 9468 38bd 9dc4 2f3e 8943 f8bd
00000310: 543a b53e 3b90 fe3d 37c0 9e3d d985 2abd
00000320: 2c8a ea3c f9c9 be3c 50db 883d 6bfd ad3d
00000330: 245d a63e 1d31 463e 9240 5bbe c69e 303e
00000340: b052 a93c 6383 f5bd 4d61 b43d 72b2 1fbe
00000350: bbe2 243c 5519 96be 69fa e23d a444 c1bd
00000360: 8466 69bc 75fa debc f391 5fbe 9ae0 97bd
00000370: 5588 013d cad5 9f3d cf7d a03d 28ec 21be
00000380: e640 943d 4d45 8fbd 38d1 3cbe f83b 623e
00000390: ddb5 45bc 7d0f f6bd ac79 98bd 1818 843d
000003a0: 6253 7d3e b655 3abe 6313 84bd b5c3 12bd
000003b0: 0307 8b3d fb14 2fbd bd27 283e c2ea ffbd
000003c0: e8f9 d63d 9df3 bf3d a6c1 b83e eca1 d03c
000003d0: b8f8 1bbe 61d6 a6bd a491 103e ec62 bbba
000003e0: cc4b c7bc 29bb 16be 5fc3 8c3d ee75 8fbe
000003f0: b735 adbd 0c21 97bd 1bd2 4ebd b11e 95be
-0.14657845 -0.08760307 0.03131888 -0.06745547 -0.19115424 -0.069671445 0.082117856 0.08126742
-0.109338835 -0.08068354 0.23763333 0.1264672 0.015026392 0.15534657 0.14457801 -0.17776181
-0.07017236 0.18929912 0.054551836 -0.057942297 0.16784051 -0.49177277 0.19776541 -0.28301847
0.003538425 0.19367723 -0.3434852 0.19427435 -0.08267272 0.07664054 -0.015503684 -0.036764212
0.043051653 0.045657173 -0.031415984 0.19703978 0.011566168 -0.3906355 -0.114367634 -0.084808774
0.13863665 -0.086350285 0.37747827 -0.052175287 0.114828646 -0.1213859 0.04623947 0.13289288
-0.035402913 -0.06019933 0.29748547 0.065693565 -0.07476848 0.09804744 0.02288235 -0.13631985
-0.028616646 -0.10634711 0.08748033 0.008224644 0.06954528 0.08903829 -0.26184905 -0.061493576
-0.05524189 0.020824222 0.029395957 -0.3337948 0.20433928 -0.019563116 -0.038453422 -0.27640972
-0.027949702 0.02347671 0.13638619 0.22079739 -0.07131441 0.06823498 0.14017926 -0.031854678
-0.10573769 0.17069146 -0.043218773 -0.030241547 0.12663023 -0.04671673 0.06102986 0.32557434
0.04187043 0.16581199 -0.016015617 0.009364295 -0.47432694 0.11420935 -0.33527985 -0.29179624
0.16543463 0.041751705 0.021620318 0.18711016 0.029491294 0.27788302 0.20231342 -0.10043325
0.17204699 0.25747624 0.19746418 -0.08691038 -0.27892908 -0.029833617 0.009112576 0.23101377
-0.2299204 -0.27571324 -0.03478071 -0.36583886 -0.035603803 0.053898998 0.11422093 0.2546135
0.024990778 0.009289772 0.062717944 0.15764771 -0.003360849 0.10545095 -0.13843976 0.0033110958
0.28116935 -0.2070386 0.04815334 0.2077919 0.058820676 -0.045450423 0.18533574 0.17789699
0.07768253 0.055950716 0.19959107 -0.021593718 -0.22800778 -0.03487708 0.21453945 0.19728856
-0.09792588 0.08484555 0.003315133 -0.1364886 -0.30252466 -0.20073356 0.120984524 -0.29127228
0.037769254 -0.08906832 -0.2103426 0.27277344 0.122541316 0.14878826 0.14108562 0.26535892
0.21851362 0.046781115 -0.1453799 0.18332377 -0.045843616 0.01187772 -0.060343448 -0.26046824
0.043713454 -0.041272286 -0.2369756 -0.032536585 0.09130829 -0.084272586 -0.046795625 0.14538379
-0.08192334 0.11079441 0.09168313 -0.2525455 0.09334043 -0.08699843 0.03439645 -0.26504037
0.10988513 -0.3639127 0.18724628 0.11422389 0.27799946 0.119537875 -0.062241156 0.42493585
0.16231939 -0.04502161 0.17164846 -0.12122256 0.35396063 0.124298535 0.07751506 -0.041631553
0.028630339 0.023289667 0.066824555 0.08495601 0.32492936 0.19354673 -0.2141135 0.17248067
0.020669311 -0.11987951 0.08807621 -0.15595415 0.010063822 -0.29316202 0.11082918 -0.0943692
-0.014245633 -0.027219037 -0.21833019 -0.07415886 0.031624157 0.07804449 0.07836496 -0.15812743
0.07238941 -0.0699564 -0.18439186 0.22093189 -0.012067285 -0.12014673 -0.07445082 0.06449908
0.2473884 -0.18196759 -0.0644901 -0.035831172 0.06788447 -0.042744618 0.16421409 -0.124959484
0.104968846 0.093726374 0.36085242 0.025467835 -0.15231597 -0.08146358 0.14118057 -0.0014296449
-0.024328135 -0.14719833 0.068732016 -0.2801966 -0.08457511 -0.0737935 -0.05049334 -0.29124978

model.4.bias f4 [4]
00000000: abae c53e 2711 a93e 2d3a e03e 73ca 8f3e
0.38609824 0.330209 0.43794385 0.28084144
