models/8/q_final_n380.pt (torch, 131223 bytes, 6 tensors)

model.0.weight f4 [128, 185]
0.021420266 -0.9214576 0.03515419 -0.016646935 -0.07651452 -0.50286496 -0.12805171 0.077277936
-0.068791546 -0.14153627 0.16583513 0.12313642 -0.7052623 -0.2692349 -0.10679387 -0.5334492
-0.6044139 0.067407414 0.25133762 -0.24057779 0.13708903 -0.21211132 -0.23371258 -0.24280031
-0.03688099 -0.312121 0.02664222 0.0023466388 -0.2602538 0.38817453 -0.4086013 -0.084442675
-0.17441422 -0.02429852 0.013655736 -0.0030402732 -0.05318151 -0.12492924 -0.56542116 -0.25876024
0.27957672 -0.40206054 -0.44819936 -0.16407822 0.20936994 -0.15043679 -0.11892525 -0.024719026
-0.18293501 -0.095909975 -0.018374221 0.12874924 -0.19142708 -0.22306114 -0.016131848 -0.10213311
0.18686974 0.026097527 -0.19189294 -0.082373716 -0.68142486 -0.13726503 -0.90249443 0.08991256
-0.0043824604 0.08980316 0.3672781 -0.18417826 0.09616976 -0.19706598 -0.5617791 0.13185199
-0.086527616 -0.005109693 -0.043420542 -0.90642434 0.0089472085 -0.067580365 -0.6240882 -0.38048533
-0.15456985 0.19610615 -0.35478842 -0.036538694 0.17091511 -0.15680571 -0.27279666 -0.27413008
-0.12507874 -0.51895505 -0.3207186 0.20542718 -0.2934979 0.1672558 -0.15021789 -0.09138724
0.25183463 -0.6943957 -0.07118823 -0.6648784 0.2682413 -0.37786824 0.25076032 0.42210254
-0.21774006 0.07575018 -0.08237357 -0.6424076 -0.21650323 -0.2912342 -0.14247772 -0.5617564
-0.59534216 -0.061230455 0.21985231 -0.29645023 -0.02799531 -0.34733155 -0.057858646 0.029382814
0.007661716 0.15199664 -0.0139943585 -0.27923062 -0.92322713 0.0024765597 -0.15746064 -0.058410794
0.08645086 -0.7473577 0.47886443 0.019527104 -0.096274465 -0.085806325 -0.56883717 -0.033089377
-0.17495736 -0.08767115 -0.5084221 0.10978481 -0.08348465 -0.14645272 0.25023124 -0.2282245
-0.8961615 -0.07574532 -0.14251804 -0.08599278 -0.36416575 -0.5082109 0.113077946 -0.17768453
-0.25163373 -0.21770814 -0.13558546 -0.27874148 0.09279313 -0.028302161 0.34583676 -0.35667714
-0.29855302 -1.2399212 -0.2360826 -0.5256221 -0.048095908 0.26678383 -0.42015615 0.23659723
-0.52640706 0.19458017 0.12953539 -1.1131896 0.116073325 -0.19431297 -0.3745068 0.059954595
-0.17696567 -0.08625067 -0.46151733 -0.4898521 0.08511045 0.11723515 -0.11055913 -0.28506327
-0.056639202 0.024240902 0.092182614 -0.0467215 -0.6642225 0.07520388 -0.16469496 0.00019118584
-0.05544657 0.09276869 -0.09728279 -0.4315857 0.09025598 0.10234954 -0.023642149 0.18229654
-0.04978724 -0.41917783 -0.102402836 0.16391525 -0.19344224 0.07343852 -0.062073838 -0.07835459
-0.45394114 -0.05076687 -0.052387558 -0.47195134 -0.29022795 -0.0331718 -0.52242494 -0.10470136
0.052235555 -0.0045272824 -0.8565329 -0.15167774 -0.028139845 0.05855691 -0.10132777 0.33027026
-0.5480381 -0.26224992 -0.0065192836 -0.2839409 -0.24713312 -0.06898551 0.2289655 -0.5562745
-0.5600292 0.25312084 0.2624512 -0.10118771 0.12675376 0.2083012 -0.44942155 -0.019632565
-0.2906413 -0.24590896 0.024492657 -0.100317344 0.0073751425 -0.37388504 -0.20331459 -0.31474012
-0.6021963 0.1350846 0.055119254 -0.39125484 -0.008061099 0.2563822 -0.44416648 -0.52997893
00000000: 8e79 af3c a5e4 6bbf d7fd 0f3d 275f 88bc
00000010: a5b3 9cbd c2bb 00bf fd1f 03be e543 9e3d
00000020: 95e2 8cbd e2ee 10be afd0 293e f32e fc3d
00000030: 128c 34bf 28d9 89be bfb6 dabd 2090 08bf
00000040: dfba 1abf e60c 8a3d 53af 803e 065a 76be
00000050: 1161 0c3e b633 59be 5a52 6fbe a5a0 78be
00000060: 8510 17bd 53ce 9fbe c940 da3c 11ca 193b
00000070: fc3f 85be d0be c63e 3134 d1be 48f0 acbd
00000080: a499 32be b10d c7bc 4fbc 5f3c 523f 47bb
00000090: dbd4 59bd e7da ffbd 71bf 10bf 397c 84be
000000a0: ae24 8f3e e1da cdbe 637a e5be 1f04 28be
000000b0: 1365 563e 1a0c 1abe 158f f3bd 8e7f cabc
000000c0: 5153 3bbe 736c c4bd 8985 96bc d7d6 033e
000000d0: 7605 44be 246a 64be f026 84bc 2a2b d1bd
000000e0: c85a 3f3e 7bca d53c 957f 44be 8db3 a8bd
000000f0: dc71 2ebf 348f 0cbe e009 67bf 1424 b83d
00000100: be9a 8fbb b8ea b73d e00b bc3e 3a99 3cbe
00000110: a7f4 c43d aacb 49be c1d0 0fbf 3504 073e
00000120: 6435 b1bd 366f a7bb bdd9 31bd 6d0b 68bf
00000130: 5097 123c 9367 8abd 3fc4 1fbf f9ce c2be
00000140: 8f47 1ebe 0dd0 483e d4a6 b5be 99a9 15bd
00000150: 5f04 2f3e ad91 20be 01ac 8bbe c75a 8cbe
00000160: a414 00be 3dda 04bf 3a35 a4be 815b 523e
00000170: 5b45 96be 1b45 2b3e b8d2 19be 3c29 bbbd
00000180: 78f0 803e ebc3 31bf 22cb 91bd 7935 2abf
00000190: ec56 893e f277 c1be a863 803e d31d d83e
000001a0: 40f7 5ebe e922 9b3d 79b3 a8bd d374 24bf
000001b0: 06b3 5dbe a61c 95be aee5 11be 44cf 0fbf
000001c0: 5868 18bf c9cc 7abd f720 613e 53c8 97be
000001d0: 6c56 e5bc 71d5 b1be 30fd 6cbd 3ab4 f03c
000001e0: 220f fb3b 02a5 1b3e 9848 65bc 51f7 8ebe
000001f0: 9d58 6cbf c74d 223b 5d3d 21be 2840 6fbd
00000200: 260d b13d d652 3fbf b82d f53e 4ef7 9f3c
00000210: 8c2b c5bd 3abb afbd 509f 11bf ba88 07bd
00000220: 0628 33be ef8c b3bd f327 02bf dcd6 e03d
00000230: 00fa aabd b4f7 15be 4f1e 803e afb3 69be
00000240: d76a 65bf 5d20 9bbd 40f0 11be fc1c b0bd
00000250: ef73 babe 1c1a 02bf 6995 e73d eff2 35be
00000260: 23d6 80be e2ee 5ebe ead6 0abe 34b7 8ebe
00000270: 530a be3d efd9 e7bc 8411 b13e 639e b6be
00000280: f1db 98be bdb5 9ebf a3bf 71be 2c8f 06bf
00000290: 3700 45bd e497 883e b51e d7be 8b46 723e
000002a0: 9dc2 06bf 0640 473e eda4 043e ff7c 8ebf
000002b0: dab7 ed3d fbf9 46be 5bbf bfbe f392 753d
000002c0: 7d36 35be 31a4 b0bd 004c ecbe e5cd fabe
000002d0: 634e ae3d fb18 f03d d36c e2bd d0f3 91be
000002e0: 82fe 67bd db94 c63c 3dca bc3d 0b5f 3fbd
000002f0: 7c0a 2abf 7e04 9a3d cca5 28be 0f79 4839
00000300: f11b 63bd 83fd bd3d 333c c7bd cdf8 dcbe
00000310: 21d8 b83d a39c d13d 2ead c1bc f2ab 3a3e
00000320: b4ed 4bbd 7a9e d6be 94b8 d1bd 66d9 273e
00000330: b915 46be ef66 963d 2341 7ebd 5f78 a0bd
00000340: f96a e8be ecf0 4fbd 5694 56bd 9ba3 f1be
00000350: c298 94be 27df 07bd a4bd 05bf ab6d d6bd
00000360: f3f4 553d 9959 94bb bd45 5bbf 6951 1bbe
00000370: 8885 e6bc 5fd9 6f3d ef84 cfbd 2f19 a93e
00000380: 3a4c 0cbf 9f45 86be b79f d5bb b460 91be
00000390: 7710 7dbe 4648 8dbd ef75 6a3e 0168 0ebf
000003a0: 135e 0fbf 0e99 813e 0160 863e 813b cfbd
000003b0: bdcb 013e e94c 553e 951a e6be 79d4 a0bc
000003c0: f0ce 94be 8fcf 7bbe d3a4 c83c 2e73 cdbd
000003d0: 2eab f13b dc6d bfbe b331 50be 9e25 a1be
000003e0: 8929 1abf 9e53 0a3e bac4 613d 8e52 c8be
000003f0: b312 04bc 8744 833e ca69 e3be b3ac 07bf

model.0.bias f4 [128]
-0.13780934 -0.059084818 -0.13672115 -0.1332254 -0.055701196 -0.2091887 -0.0474328 -0.017409733
-0.10788301 -0.058000255 -0.17287071 -0.07119668 0.054070555 -0.13571407 -0.16235404 -0.072717145
0.023096547 -0.053257983 -0.040460378 -0.16837011 -0.12570387 0.06728583 0.03191775 -0.05499851
-0.15529305 -0.04886213 -0.07096242 -0.08968314 -0.031545345 0.054105412 0.016219757 -0.10288453
-0.114059746 -0.07812361 -0.116350055 -0.09166455 -0.13420698 0.00052687386 0.0031094893 -0.04291329
0.06081059 -0.24296449 -0.023661327 0.059704617 -0.092571065 -0.09643925 -0.08916211 0.05241889
0.01159733 -0.0062191836 -0.088814855 0.09587718 -0.09626526 0.01933092 -0.0878575 -0.16365942
0.004091776 0.07491216 -0.0023446793 -0.033445515 -0.09157468 0.015507431 -0.02317605 0.049245905
0.025938258 0.101735555 0.024344759 -0.18588167 -0.0713925 -0.10938862 0.039474018 -0.12885827
0.23348095 -0.101835705 0.007602478 -0.09081869 0.10252099 0.013943346 -0.016500274 0.013793689
-0.21069568 -0.20234182 -0.12597765 0.013334911 -0.14095682 0.09568146 -0.09617839 -0.10984058
-0.16015522 -0.15587822 0.08504305 -0.12296929 -0.028943758 0.085719876 -0.05313024 -0.13713732
-0.06723997 -0.14701717 -0.06147129 -0.22476883 0.04697133 -0.0728849 -0.010846302 -0.15200882
0.0566228 -0.17558117 -0.16726251 -0.13614018 -0.021797284 -0.06870682 -0.094110414 -0.0468349
-0.08192632 -0.046751846 -0.071516275 -0.07583592 0.045185607 -0.09798552 -0.024982315 -0.040012248
0.09001893 -0.16575113 0.04331131 -0.018499963 -0.046139285 -0.08018443 -0.0962819 -0.07121691
00000000: e41d 0dbe ec02 72bd a100 0cbe 3d6c 08be
00000010: f026 64bd 9035 56be e548 42bd db9e 8ebc
00000020: c4f1 dcbd ad91 6dbd 0505 31be 91cf 91bd
00000030: 1679 5d3d a1f8 0abe 2340 26be baec 94bd
00000040: f834 bd3c 0b25 5abd c8b9 25bd 3769 2cbe
00000050: 84b8 00be 27cd 893d 30bc 023d 1e46 61bd
00000060: 2405 1fbe a823 48bd bf54 91bd cbab b7bd
00000070: b135 01bd a39d 5d3d 4cdf 843c 20b5 d2bd
00000080: 2898 e9bd 45ff 9fbd f048 eebd a0ba bbbd
00000090: 8e6d 09be e81d 0a3a 93c8 4b3b d9c5 2fbd
000000a0: 8614 793d afcb 78be 66d5 c1bc d48c 743d
000000b0: e695 bdbd f181 c5bd a09a b6bd 31b5 563d
000000c0: ba02 3e3c 4bca cbbb 90e4 b5bd 415b c43d
000000d0: b826 c5bd e15b 9e3c a2ee b3bd 5696 27be
000000e0: 4e14 863b 8c6b 993d 31a9 19bb 2afe 08bd
000000f0: 818b bbbd e112 7e3c b3db bdbc 13b6 493d
00000100: 787c d43c bb5a d03d a96e c73c c457 3ebe
00000110: 3b36 92bd 2407 e0bd 82af 213d 6cf3 03be
00000120: a115 6f3e 3d8f d0bd 351e f93b 26ff b9bd
00000130: 86f6 d13d a272 643c 952b 87bc edfe 613c
00000140: 9cc0 57be b232 4fbe 4900 01be ac7a 5a3c
00000150: fc56 10be a4f4 c33d 2df9 c4bd 19f4 e0bd
00000160: bbff 23be 8a9e 1fbe 0d2b ae3d 53d7 fbbd
00000170: 761b edbc e78d af3d 189f 59bd ba6d 0cbe
00000180: 1cb5 89bd ab8b 16be 52c9 7bbd cd29 66be
00000190: 0265 403d ae44 95bd b0b4 31bc 33a8 1bbe
000001a0: 4fed 673d 8dcb 33be dd46 2bbe 5568 0bbe
000001b0: 3890 b2bc 29b6 8cbd f6bc c0bd f4d5 3fbd
000001c0: fdc8 a7bd dd7e 3fbd 2077 92bd dd4f 9bbd
000001d0: 8b14 393d a2ac c8bd b6a7 ccbc e2e3 23bd
000001e0: d85b b83d aaba 29be 3367 313d 3c8d 97bc
000001f0: 8cfc 3cbd bc37 a4bd 722f c5bd 2cda 91bd

model.2.weight f4 [64, 128]
-0.012569037 -0.221573 0.037323978 0.012376677 -0.07945528 -0.019938929 -0.21284102 -0.11470162
0.16775903 0.09122572 -0.077270254 -0.20586452 -0.045891333 -0.076231174 0.06652497 -0.110233575
-0.18940969 -0.09011003 -0.042522065 -0.18399891 -0.087173335 -0.13581479 -0.23631962 0.058493186
0.07874283 -0.24061105 -0.102726944 -0.10943018 0.020794015 -0.007311319 -0.10272443 0.06286254
0.089761235 -0.017008122 -0.059974775 0.0668204 -0.18902287 -0.03943025 -0.05777874 0.017010747
-0.048676435 -0.3889739 -0.26061973 -0.107725225 -0.13186525 -0.13262194 -0.3928115 -0.39533502
-0.17499699 -0.0013107042 -0.12169166 -0.042448837 -0.34598202 0.1945418 -0.13409886 -0.2888058
-0.048215985 -0.11673511 -0.26198646 0.18826035 0.31978413 0.09757017 -0.049004216 -0.3242933
-0.116980314 -0.048683845 0.02812366 -0.198042 -0.035180844 -0.09189507 0.012853095 -0.21065487
-0.19130151 0.028193422 -0.31700656 0.09241365 -0.4358418 -0.3978768 -0.19313005 -0.13564834
-0.38796705 -0.18151876 0.1400216 0.0015580212 0.0396318 0.222852 -0.2664206 -0.26394168
-0.3013747 -0.015604299 0.07563984 -0.036178526 -0.052655373 -0.1938995 -0.08426432 -0.18089575
-0.19997363 -0.42810476 0.14099082 -0.048254773 0.20203288 -0.31040668 0.023081612 0.014299685
-0.39556125 -0.037177086 -0.33118245 -0.077368535 -0.050944395 -0.12325183 0.14380714 -0.11510491
-0.16208808 0.11691279 -0.31353682 -0.12571959 -0.55895233 -0.12881604 -0.15192668 -0.12277306
-0.02422218 0.027861318 0.16500853 0.09696562 0.19145027 -0.19682539 0.2061947 0.380181
0.29338846 -0.21703693 0.07684725 0.11006083 0.041493546 -0.16203502 -0.19295543 0.051572822
0.02651374 0.19376233 0.0017019312 0.061294597 -0.13570195 0.3455592 0.16526487 0.15567511
-0.11529147 0.19849119 -0.19224396 0.011290808 -0.23863272 -0.15902108 0.24663192 0.123755254
-0.20235035 -0.27374014 -0.1123945 -0.12308371 0.026515456 -0.1187927 -0.33354515 0.07436466
0.25327972 0.12542184 0.10292821 0.19025649 -0.11534512 0.008128824 0.0012471603 -0.07601083
-0.3053127 -0.21710344 0.145989 0.10638928 -0.34249005 -0.17537867 -0.22333993 -0.26613876
0.20452873 -0.1572054 0.26063338 -0.038173962 -0.10812173 0.055856984 -0.2910229 -0.021939427
-0.14449315 0.046956085 -0.24942121 -0.06595397 -0.044993456 -0.114873044 0.006454686 -0.0028727637
0.06869678 -0.32628343 0.11833843 -0.13010779 0.12170446 -0.031045025 -0.304668 -0.32228163
-0.13514023 -0.07947136 -0.15920357 0.07037695 -0.19433059 0.007117839 -0.15192358 0.0052933423
0.056194793 -0.059065625 -0.089466065 0.0027439145 -0.11489684 0.20836319 -0.35347676 0.4851027
-0.2996484 5.1006893e-05 -0.22330506 -0.38969088 -0.16700801 -0.23298253 -0.12881061 0.11417427
-0.12231011 -0.0022032694 -0.0040973416 -0.22161134 0.24151294 -0.43284398 -0.31774583 -0.15990935
-0.078936145 0.06763393 0.18753842 -0.2935349 -0.20299293 -0.1579128 0.00535158 0.35108587
-0.16746175 -0.15718111 -0.31310076 0.06274224 -0.009840546 0.2912049 0.13110234 -0.070334
-0.26912668 0.2597615 0.04131615 -0.20179786 0.08992229 -0.2082311 -0.39339572 -0.05746015
00000000: 5dee 4dbc 08e4 62be 07e1 183d 8cc7 4a3c
00000010: 73b9 a2bd f756 a3bc fff2 59be afe8 eabd
00000020: 06c9 2b3e 8dd4 ba3d de3f 9ebd 26ce 52be
00000030: 8df8 3bbd 171f 9cbd 3e3e 883d 24c2 e1bd
00000040: 9df4 41be 9b8b b8bd 9e2b 2ebd 366a 3cbe
00000050: ef87 b2bd 0813 0bbe c5fd 71be 8d96 6f3d
00000060: ec43 a13d be62 76be 8162 d2bd ee1c e0bd
00000070: 3658 aa3c ca93 efbb 3061 d2bd 13be 803d
00000080: bdd4 b73d 9e54 8bbc 1ca8 75bd 22d9 883d
00000090: 368f 41be 9d81 21bd 66a9 6cbd 1f5a 8b3c
000000a0: f160 47bd 9627 c7be f36f 85be 0b9f dcbd
000000b0: af07 07be 0cce 07be 971e c9be 5a69 cabe
000000c0: 6932 33be efcb abba 7a39 f9bd d5de 2dbd
000000d0: 8e24 b1be f735 473e 3651 09be 5bde 93be
000000e0: 207e 45bd d112 efbd 1723 86be 52c7 403e
000000f0: bfba a33e dfd2 c73d a5b8 48bd c509 a6be
00000100: 6093 efbd b668 47bd 9763 e63c 86cb 4abe
00000110: ca19 10bd 7c33 bcbd ca95 523c e9b5 57be
00000120: 8be4 43be e4f5 e63c af4e a2be 5e43 bd3d
00000130: a826 dfbe 82b6 cbbe e2c3 45be 66e7 0abe
00000140: 9ea3 c6be 0ee0 39be d361 0f3e 8436 cc3a
00000150: f454 223d 5133 643e 4868 88be 5d23 87be
00000160: c94d 9abe 2ca9 7fbc 0fe9 9a3d ef2f 14bd
00000170: 29ad 57bd 978d 46be c692 acbd bc3c 39be
00000180: e3c5 4cbe 8c30 dbbe e65f 103e cca6 45bd
00000190: b5e1 4e3e a0ed 9ebe a615 bd3c 3a49 6a3c
000001a0: 0187 cabe 0047 18bd bf90 a9be 6573 9ebd
000001b0: 12ab 50bd 756b fcbd 2e42 133e 20bc ebbd
000001c0: 6bfa 25be f96f ef3d e687 a0be a3bc 00be
000001d0: 8017 0fbf 5ae8 03be ab92 1bbe 7170 fbbd
000001e0: 986d c6bc 6b3d e43c fff7 283e e995 c63d
000001f0: 8a0b 443e 988c 49be b424 533e 16a7 c23e
00000200: 0337 963e ee3e 5ebe 1762 9d3d 9367 e13d
00000210: 23f5 293d 82ec 25be 1c96 45be 063e 533d
00000220: 5833 d93c a269 463e 5613 df3a 0b10 7b3d
00000230: 74f5 0abe 23ed b03e 323b 293e 4c69 1f3e
00000240: ef1d ecbd 4641 4b3e 9adb 44be 15fd 383c
00000250: 235c 74be 6cd6 22be 148d 7c3e 6573 fd3d
00000260: ee34 4fbe ab27 8cbe 162f e6bd 5013 fcbd
00000270: f136 d93c 9649 f3bd 6ec6 aabe 804c 983d
00000280: e1ad 813e 956e 003e 06cc d23d 99d2 423e
00000290: 103a ecbd c22e 053c c177 a33a 91ab 9bbd
000002a0: f251 9cbe 5d50 5ebe 247e 153e 9fe2 d93d
000002b0: db5a afbe 7796 33be 39b3 64be 5743 88be
000002c0: fb6f 513e 74fa 20be bd71 853e 4d5c 1cbd
000002d0: ed6e ddbd 4bca 643d f400 95be 50ba b3bc
000002e0: 03f6 13be 0655 403d 4668 7fbe e012 87bd
000002f0: 0f4b 38bd 8f42 ebbd d581 d33b fa44 3cbb
00000300: e6b0 8c3d 9f0e a7be 6b5b f23d fa3a 05be
00000310: 3040 f93d 2352 febc 72fd 9bbe 1902 a5be
00000320: 3362 0abe e1c1 a2bd 4306 23be ca21 903d
00000330: 99fe 46be c33c e93b db91 1bbe c673 ad3b
00000340: 832c 663d ccee 71bd fc39 b7bd 3fd3 333b
00000350: 094f ebbd 295d 553e e8fa b4be 625f f83e
00000360: 846b 99be 3cf0 5538 15aa 64be 9085 c7be
00000370: 2604 2bbe f992 6ebe eee6 03be 33d4 e93d
00000380: b97d fabd ba64 10bb fe42 86bb 15ee 62be
00000390: 2b4f 773e ba9d ddbe 95af a2be 47bf 23be
000003a0: 46a9 a1bd a883 8a3d 120a 403e 354a 96be
000003b0: 61dd 4fbe e5b3 21be 4f5c af3b 87c1 b33e
000003c0: 187b 2bbe 16f4 20be be4e a0be 017f 803d
000003d0: 3e3a 21bc cf18 953e b13f 063e 460b 90bd
000003e0: f9ca 89be 76ff 843e 203b 293d 19a4 4ebe
000003f0: 2d29 b83d 893a 55be 2a6b c9be 565b 6bbd

model.2.bias f4 [64]
-0.16443524 -0.037783556 0.2137403 -0.12881084 -0.14967296 -0.09403671 -0.0965044 -0.1616589
0.27080506 -0.27023894 -0.22777206 -0.13562031 -0.18090321 -0.2385688 0.120673 -0.04593359
0.78775054 -0.15855777 0.37082574 -0.2319424 -0.13490713 -0.22790879 -0.055841133 0.38666975
-0.43000233 -0.19762407 -0.096959874 -0.13580173 -0.21567635 -0.029291783 -0.27621058 -0.17096315
-0.14705098 -0.09013287 0.016497659 -0.039231423 -0.25337532 -0.12018285 -0.14592247 0.06908675
-0.23781097 -0.26726556 -0.13678008 -0.0888325 -0.22358058 0.2665785 -0.22972037 -0.23573999
-0.20756172 -0.11684153 -0.4883175 -0.232859 0.14537635 0.3266743 0.054764714 -0.32222313
-0.19893871 -0.113145605 0.12260345 0.214553 -0.23513931 -0.15298972 -0.43832156 -0.0835168
00000000: b661 28be eec2 1abd bdde 5a3e fde6 03be
00000010: de43 19be 5296 c0bd 19a4 c5bd e989 25be
00000020: f6a6 8a3e c25c 8abe 143d 69be 0de0 0abe
00000030: b13e 39be 614b 74be 6823 f73d dc24 3cbd
00000040: 05aa 493f f85c 22be dfdc bd3e 4f82 6dbe
00000050: 1825 0abe ec60 69be acb9 64bd 94f9 c53e
00000060: 4429 dcbe f75d 4abe e692 c6bd 9c0f 0bbe
00000070: 43da 5cbe 52f5 efbc 796b 8dbe f710 2fbe
00000080: 8894 16be 9597 b8bd 1926 873c 21b1 20bd
00000090: 69ba 81be 6d22 f6bd b36c 15be 5b7d 8d3d
000000a0: b884 73be 08d7 88be 1410 0cbe d0ed b5bd
000000b0: 4ff2 64be fa7c 883e d13b 6bbe d365 71be
000000c0: 0f8b 54be 9d4a efbd c004 fabe 9772 6ebe
000000d0: 8add 143e db41 a73e f750 603d 6efa a4be
000000e0: 97b6 4bbe e2b8 e7bd 8517 fb3d c8b3 5b3e
000000f0: 5cc8 70be 56a9 1cbe af6b e0be db0a abbd

model.4.weight f4 [4, 64]
0.11088978 0.16859287 0.13144289 0.078538164 0.08712203 0.038857292 0.3876834 -0.05831921
0.16470304 0.07906247 -0.34399772 -0.072891414 -0.017523168 0.0725711 0.007467731 0.17487918
0.20388155 -0.02569844 0.11736144 -0.038216725 -0.0038404015 -0.0013173483 -0.060165845 0.03138521
-0.17564014 -0.10867441 -0.33329162 -0.14769895 -0.0700901 -0.30215102 0.09523313 -0.021388182
0.01015219 0.08403826 0.08145791 -0.01697414 0.20628019 -0.31199878 -0.007816525 0.030450065
-0.008165837 0.035557196 -0.0136278095 -0.15067469 0.15830591 0.25104338 0.030378414 -0.07428614
0.03446812 -0.15086228 -0.11178733 0.08578278 0.01602847 0.13169001 0.25342324 -0.057034057
-0.022561267 0.14588907 0.22085182 0.16447923 -0.14835478 0.009099609 -0.15152842 0.08951375
0.33002427 -0.21112926 0.16147394 -0.13880591 0.27036095 0.18554692 0.34495834 -0.0967778
0.006868664 0.23007877 0.018202208 0.34524828 -0.0035838333 0.20171198 0.034078725 0.16553573
0.19997612 -0.019883366 0.098421365 0.11528716 -0.08342888 0.42619872 0.1741222 0.04150669
-0.15366514 -0.009455463 -0.16108663 0.15752345 0.011595671 0.030218137 -0.08606618 -0.04468146
0.07305152 -0.121020846 0.15455526 -0.041706413 0.20833737 -0.24783087 0.12060745 0.11443144
0.20556429 -0.04645403 0.062676705 -0.096308835 -0.044494305 0.17169492 -0.09617628 -0.30333716
0.016317308 0.22227195 -0.10645478 -0.122248925 -0.12320389 0.19164887 -0.18659186 0.029987695
0.10368122 0.13867837 0.20059922 0.08232092 0.16011049 -0.10116678 -0.1320095 0.084587336
-0.04069908 0.13078621 0.07340818 -0.23633327 0.079816364 -0.48544484 -0.17909908 -0.2351619
0.2664142 -0.1338079 0.24939947 0.21081303 -0.07794174 0.16229714 0.05926154 0.059518926
0.22688764 0.24966022 0.06917081 -0.121230714 0.05845337 -0.11839022 -0.01591673 0.24257457
-0.0077511584 -0.117213525 -0.13554567 -0.056321938 0.02277258 -0.19471902 -0.22550035 0.08147183
0.14096186 -0.011993668 -0.33071223 0.16192058 -0.070877336 -0.27148136 -0.25260437 0.1464249
0.081736155 0.1877486 0.14080231 -0.15895027 -0.21582969 0.067456655 0.039189804 -0.26555288
-0.0138404565 -0.12804304 -0.22951844 0.19961962 0.1956318 0.028373828 0.39018035 0.0860795
-0.27785668 0.14804621 0.18883795 0.17700295 0.035204288 -0.015498746 -0.08251217 -0.080692396
0.21831803 0.3352527 0.19094253 0.108490035 -0.2053509 0.13879071 0.3022583 0.24233934
0.2196122 0.32329726 -0.13414058 0.32438576 -0.08550579 -0.18808652 -0.042030137 -0.06981945
0.18052575 0.07956357 0.20406401 -0.21593522 0.35526103 0.018566111 -0.01819064 0.10796407
0.06557847 0.036187217 0.045013335 0.27905127 -0.02991157 -0.23012652 -0.101224564 0.03742507
-0.29045543 0.17421432 -0.42014757 -0.06100284 0.27733356 -0.07363886 0.097089596 0.0786333
-0.068825856 -0.13588026 0.064301476 0.038797017 -0.22238375 0.0033660706 0.25403348 -0.21938403
-0.028460879 -0.16182764 -0.06491569 -0.13013327 0.119112074 0.24519661 -0.2588248 -0.08977591
-0.2592648 -0.17142348 -0.012466573 -0.011411789 0.12260127 0.1365587 -0.27395764 -0.07160516
00000000: 2e1a e33d 9ca3 2c3e f798 063e 9ed8 a03d
00000010: 096d b23d d328 1f3d 707e c63e 20e0 6ebd
00000020: eaa7 283e 81eb a13d 7820 b0be 1848 95bd
00000030: bf8c 8fbc 28a0 943d deb3 f43b 8713 333e
00000040: 53c6 503e 8985 d2bc 325b f03d 2489 1cbd
00000050: 3faf 7bbb e0aa acba 7670 76bd c78d 003d
00000060: 02db 33be b090 debd 33a5 aabe 653e 17be
00000070: 668b 8fbd 8ab3 9abe 9609 c33d 4536 afbc
00000080: 5f55 263c 401c ac3d 68d3 a63d 5a0d 8bbc
00000090: 1d3b 533e 4ebe 9fbe e210 00bc 6a72 f93c
000000a0: 01ca 05bc 6ca4 113d 2d47 5fbc 774a 1abe
000000b0: f21a 223e c288 803e 27dc f83c 5523 98bd
000000c0: 722e 0d3d a47b 1abe c1f0 e4bd e2ae af3d
000000d0: 234e 833c bfd9 063e b1c0 813e 8b9c 69bd
000000e0: 68d2 b8bc f263 153e fb26 623e 3e6d 283e
000000f0: 51ea 17be 8716 153c 442a 1bbe fc52 b73d
00000100: f1f8 a83e 4532 58be 6d59 253e 2323 0ebe
00000110: c06c 8a3e 0300 3e3e 619e b03e 7033 c6bd
00000120: 8812 e13b c599 6b3e cc1c 953c 62c4 b03e
00000130: bfde 6abb 968d 4e3e 2296 0b3d 3382 293e
00000140: 8ac6 4c3e 71e2 a2bc 2491 c93d ad1b ec3d
00000150: c3dc aabd b836 da3e 174d 323e eb02 2a3d
00000160: 655a 1dbe 16eb 1abc e5f3 24be d44d 213e
00000170: c5fb 3d3c 078c f73c 7743 b0bd e803 37bd
00000180: 099c 953d c7d9 f7bd bc43 1e3e 58d4 2abd
00000190: 6456 553e 60c7 7dbe 0a01 f73d 085b ea3d
000001a0: 727f 523e 9546 3ebd a55c 803d 913d c5bd
000001b0: a93f 36bd cbd0 2f3e 12f8 c4bd 024f 9bbe
000001c0: e0ab 853c 429b 633e f704 dabd a55d fabd
000001d0: 5252 fcbd 9a3f 443e f011 3fbe c1a8 f53c
000001e0: d256 d43d b401 0e3e e269 4d3e df97 a83d
000001f0: 01f4 233e 8730 cfbd 802d 07be 203c ad3d
00000200: 14b4 26bd d2ec 053e 0757 963d 5901 72be
00000210: c376 a33d 3a8c f8be c065 37be 48ce 70be
00000220: 7167 883e f004 09be 9362 7f3e 5fdf 573e
00000230: eb9f 9fbd 3931 263e 3bbc 723d 1eca 733d
00000240: 3c55 683e eea6 7f3e 6da9 8d3d cf47 f8bd
00000250: cd6c 6f3d 9276 f2bd cd63 82bc 7865 783e
00000260: 6efd fdbb a50d f0bd 7ccc 0abe d5b1 66bd
00000270: 908d ba3c 6c64 47be 90e9 66be b4da a63d
00000280: 4e58 103e 1781 44bc 1d53 a9be 82ce 253e
00000290: 2328 91bd 9bff 8abe 5c55 81be 69f0 153e
000002a0: 4965 a73d 2b41 403e 7b2e 103e dcc3 22be
000002b0: 7502 5dbe b726 8a3d 7d85 203d 8cf6 87be
000002c0: 15c3 62bc b71d 03be e206 6bbe 1669 4c3e
000002d0: b453 483e 3b70 e83c b8c5 c73e 734a b03d
000002e0: 3b43 8ebe 6d99 173e bc5e 413e 4340 353e
000002f0: 5f32 103d 74ee 7dbc 24fc a8bd 0e42 a5bd
00000300: c38e 5f3e 3ea6 ab3e 7086 433e 0630 de3d
00000310: 8247 52be 271f 0e3e 9ac1 9a3e ce27 783e
00000320: 05e2 603e 3887 a53e 265c 09be e415 a63e
00000330: a91d afbd c199 40be cb27 2cbd 80fd 8ebd
00000340: bedb 383e 3af2 a23d 28f6 503e 1f1e 5dbe
00000350: c6e4 b53e f517 983c 8904 95bc 441c dd3d
00000360: 014e 863d 0c39 143d e75f 383d cfdf 8e3e
00000370: 1c09 f5bc 49a6 6bbe d34e cfbd 084b 193d
00000380: 93b6 94be 3d65 323e 951d d7be 1dde 79bd
00000390: aafe 8d3e f8cf 96bd e9d6 c63d 7f0a a13d
000003a0: 92f4 8cbd 3224 0bbe 7eb0 833d 9fe9 1e3d
000003b0: 91b8 63be 4b99 5c3b ad10 823e 35a6 60be
000003c0: ca26 e9bc 25b6 25be 84f2 84bd a841 05be
000003d0: 08f1 f33d d214 7b3e af84 84be 6fdc b7bd
000003e0: 5bbe 84be a389 2fbe 9940 4cbc 83f8 3abc
000003f0: 6016 fb3d 0bd6 0b3e 2d44 8cbe baa5 92bd

model.4.bias f4 [4]
0.5336753 0.52900374 0.4977557 0.60335785
00000000: f29e 083f ca6c 073f d6d9 fe3e a975 1a3f
