models/2/q_final_n436.pt (torch, 131223 bytes, 6 tensors)

model.0.weight f4 [128, 185]
0	0x3dbf1ceb	0.093316875
1	0xbe374b06	-0.17899713
2	0xbd777ae7	-0.060419943
3	0xbd27c53d	-0.040959585
4	0xbe7c1caa	-0.2462031
5	0xbf059957	-0.52187103
6	0x3b9f1760	0.0048550814
7	0xbe0ddc6e	-0.13853619
8	0x3e87bc5c	0.26510894
9	0xbe80fac1	-0.2519131
10	0xbe0c9042	-0.13726905
11	0xbe818c25	-0.25302234
12	0x3e9eeec4	0.3104154
13	0xbe9c4fed	-0.3052973
14	0xbe78d48b	-0.24299829
15	0xbe17611b	-0.14783137
16	0xbdee0f27	-0.11623984
17	0x3e5ef3a8	0.21772635
18	0xbe3c0f78	-0.18365276
19	0xbd7b3c02	-0.061336525
20	0x3e2163a4	0.15760666
21	0xbe76f771	-0.24117829
22	0x3cf115d5	0.029429356
23	0xbf068ca8	-0.52558374
24	0xbee3f470	-0.4452243
25	0xbe9774fc	-0.2958144
26	0xbe2e5fb1	-0.17028691
27	0x3e9082d4	0.28224814
28	0xbf28d519	-0.6595016
29	0x3d6ccc16	0.05781182
30	0xbddb3cbc	-0.107049435
31	0xbe3b1ad9	-0.1827196
32	0x3d482462	0.048862822
33	0xbe0bdd3a	-0.1365861
34	0x3d59fa19	0.053217027
35	0xbe008b88	-0.12553227
36	0x3db034f1	0.08603848
37	0xbc0a3a9e	-0.008436827
38	0xbd91f597	-0.07126921
39	0xbe0a8d94	-0.1353057
40	0xbdbaa08d	-0.09112654
41	0xbed002da	-0.40627176
42	0xbe9b0983	-0.30280694
43	0xbe66ecb8	-0.22551239
44	0xbe01b593	-0.12666921
45	0x3ef8769c	0.48527992
46	0xbee0ad60	-0.43882275
47	0xbea13d1d	-0.31491938
48	0xbe6c7c47	-0.23094283
49	0x3e4e7d4d	0.20164986
50	0x3e983662	0.2972899
51	0xbd5da00f	-0.054107722
52	0x3d89ebfe	0.06734465
53	0x3dce8c72	0.100853816
54	0xbe98aba1	-0.29818442
55	0xbeb49f2f	-0.35277697
56	0xbe03d6af	-0.12874864
57	0x3df6364b	0.12022074
58	0xbd26079f	-0.04053461
59	0xbd594dc2	-0.05305267
60	0xbe8cf896	-0.27533406
61	0xbec834f1	-0.3910289
62	0xbe1d0d75	-0.15337165
63	0xbe244d05	-0.16045006
64	0x3e905b38	0.28194594
65	0xbe8027a5	-0.25030246
66	0x3e9f3a85	0.31099334
67	0xbe97e81c	-0.29669273
68	0xbd192f71	-0.03739876
69	0x3dd3e678	0.10346693
70	0xbec1da2e	-0.3786177
71	0xbd439c17	-0.04775628
72	0x3d20751f	0.039174195
73	0xbd0780f6	-0.03308197
74	0x3e4a9b0a	0.19785705
75	0xbded130a	-0.11575897
76	0xbf2ce0cc	-0.6753051
77	0x3a98d50f	0.0011660176
78	0xbee3eadc	-0.4451512
79	0xbe3192aa	-0.17341104
80	0xbea88c37	-0.32919475
81	0xbce2aa7a	-0.02766918
82	0x3e38f20e	0.18061087
83	0xbe9b3661	-0.30314925
84	0x3d8c4dba	0.06850763
85	0xbdcb6da7	-0.09933024
86	0xbeac8d9b	-0.33701786
87	0x3e0eb049	0.13934435
88	0xbe22d710	-0.15902352
89	0xbd3a2b5c	-0.045451507
90	0x3d75c6d6	0.060004078
91	0xbd931ce3	-0.07183244
92	0xbe0a6612	-0.13515499
93	0x3c925030	0.017860502
94	0x3dc2f04f	0.095184915
95	0xbc02f953	-0.007994014
96	0xbdd84e44	-0.10561803
97	0xbeca6ee0	-0.39537716
98	0xbe0914ff	-0.13386916
99	0xbdef255f	-0.1167705
100	0xbf0ff715	-0.5623639
101	0x3e4059fc	0.18784326
102	0xbeef4455	-0.4673182
103	0x3e156956	0.14590964
104	0x3d4c528c	0.04988341
105	0x3cb2daf9	0.02183293
106	0x3e4847a3	0.19558577
107	0xbf3118eb	-0.69178647
108	0x3c8687e5	0.016422221
109	0x3c15bbe6	0.009139037
110	0x3c813f95	0.015777389
111	0x3e547fe1	0.20751907
112	0xbe564295	-0.20923837
113	0xbf550307	-0.83207744
114	0xb9b482cd	-0.0003442973
115	0xbe9a4779	-0.30132654
116	0xbe90c54f	-0.28275535
117	0xbd782bd2	-0.060588665
118	0x3d1b50d3	0.037918877
119	0x3d8963d3	0.06708493
120	0xbda80d48	-0.08205658
121	0x3e54840f	0.20753501
122	0xbd626bea	-0.055278696
123	0xbf081757	-0.53160614
124	0x3d8b4b6b	0.06801494
125	0xbde5bb66	-0.11217384
126	0x3e92c012	0.28662163
127	0xbda9d972	-0.082934275
128	0xbed64018	-0.41845775
129	0xbecff1a5	-0.40614048
130	0x3e3ced28	0.18449843
131	0x3d9f426a	0.07776339
132	0x3e639e48	0.22228348
133	0xbeb58269	-0.35451058
134	0xbf0953c1	-0.53643423
135	0xbc074412	-0.008255975
136	0xbc888a2d	-0.01666745
137	0xbf380987	-0.7188954
138	0x3e6de934	0.23233491
139	0xbe3712fb	-0.17878334
140	0xbcfc46d4	-0.030795492
141	0x3e7ab9c5	0.24484928
142	0xbe45d524	-0.19319588
143	0xbd043164	-0.032273665
144	0xbe198216	-0.1499103
145	0xbe863721	-0.26213935
146	0xbde3911f	-0.11111664
147	0xbd740232	-0.059572406
148	0x3eaee63d	0.34160033
149	0xbebfad51	-0.37436917
150	0xbf19ed16	-0.6012739
151	0x3e3025ce	0.17201921
152	0xbe5d1c3e	-0.21592805
153	0xbd48c94e	-0.049020104
154	0x3bc050a5	0.0058689886
155	0xbea9134d	-0.33022538
156	0xbda7a5f1	-0.08185948
157	0x3c9d99f3	0.019238448
158	0xbe5681d6	-0.20947966
159	0x3e4a6550	0.1976521
160	0xbe254434	-0.16139299
161	0xbe9c6a7f	-0.3055
162	0x3ebf9b90	0.37423372
163	0xbe877f52	-0.26464325
164	0x3d5d4290	0.054018557
165	0xbe6542bd	-0.2238874
166	0x3e320d70	0.17387938
167	0xbdad9aeb	-0.08476814
168	0x3c89b3b9	0.016809331
169	0x3e03f2a8	0.12885535
170	0xbeb2e873	-0.3494297
171	0xbf09ae95	-0.53782016
172	0xbc8c14bc	-0.01709973
173	0xbe3e4d30	-0.18584132
174	0xbf19a827	-0.60022205
175	0x3e34774b	0.17623632
176	0xbd3eb385	-0.046557922
177	0xbe4e375d	-0.20138307
178	0x3cd8fc8f	0.026487617
179	0xbcb2d4f5	-0.021830061
180	0x3ded5bb4	0.115897566
181	0xbf7dd750	-0.99156666
182	0x3eba7358	0.36416125
183	0x3e0f044f	0.13966487
184	0xbe3cdcc1	-0.18443586
185	0x3e3de6cb	0.18545072
186	0xbf43a820	-0.76428413
187	0x3de1bf12	0.11022772
188	0xbe5e4cb5	-0.21708949
189	0x3e270885	0.16311844
190	0x3ea0f697	0.31438133
191	0xbe4811e2	-0.19538072
192	0xbde168aa	-0.11006291
193	0xbf3a5ef8	-0.7280116
194	0x3eaf46cd	0.34233704
195	0xbdfbdb80	-0.12297726
196	0xbeacb117	-0.3372886
197	0x3d96fe7f	0.0737276
198	0xbe4bbce6	-0.19896278
199	0xbf014ce4	-0.5050795
200	0x3ed92750	0.42412806
201	0xbf1dec37	-0.6168856
202	0xbeb58f76	-0.35461015
203	0x3e19e158	0.15027368
204	0x3d7f8407	0.06238177
205	0x3d847f2f	0.06469571
206	0x3c6dfb12	0.014525192
207	0xbdb61f71	-0.08892716
208	0xbee6bc80	-0.4506569
209	0xbe713252	-0.23554352
210	0xbde3ce28	-0.111233056
211	0xbe7d8ac3	-0.24759965
212	0x3e9e9e9a	0.30980378
213	0xbf450ae6	-0.76969755
214	0xbe257228	-0.16156828
215	0x3d4a4d7c	0.0493903
216	0xbcd147da	-0.025546957
217	0x3dd18a78	0.10231489
218	0xbf37e638	-0.7183566
219	0x3e0f3b0a	0.13987365
220	0x3d55a83d	0.052162398
221	0xbd8317b3	-0.06401005
222	0xbe85dd67	-0.2614548
223	0xbeb0e029	-0.3454602
224	0x3e8726bb	0.26396737
225	0xbb0d07ac	-0.0021519465
226	0xbc9e11cb	-0.019295594
227	0xbec2ba32	-0.3803268
228	0x3e87086b	0.2637361
229	0xbe90f453	-0.28311405
230	0x3e831d66	0.25608367
231	0x3e3193dc	0.1734156
232	0xbdeb1f13	-0.11480536
233	0xbee879fc	-0.45405567
234	0x3e912289	0.2834666
235	0xbf5fbe2d	-0.8739956
236	0xbefb12a2	-0.49037653
237	0xbe20017e	-0.15625569
238	0xbf039ef6	-0.5141443
239	0x3eb23999	0.3480957
240	0xbe440bcd	-0.19145127
241	0x3df6996a	0.1204098
242	0x3e142526	0.14467296
243	0xbe8e5c87	-0.27804968
244	0xbe09f8d9	-0.13473834
245	0xbe138329	-0.14405502
246	0xbf07f73f	-0.5311164
247	0xbd73eeca	-0.0595539
248	0x3d0a91ba	0.033830382
249	0xba920346	-0.0011139892
250	0xbf17900f	-0.5920419
251	0x3e0a9ebb	0.13537113
252	0xbef80831	-0.4844375
253	0x3e982f63	0.29723653
254	0x3e13f4dd	0.14448877
255	0xbf3acced	-0.7296894

model.0.bias f4 [128]
0	0xbe62eb46	-0.22160062
1	0xbddc101b	-0.107452594
2	0x3bcd80c6	0.0062714545
3	0xbc46fe19	-0.012145543
4	0x3dae81e4	0.085208684
5	0xbe239f6b	-0.15978782
6	0xbd71edd7	-0.059064712
7	0x3dcce73d	0.10005043
8	0xba8df4e9	-0.0010830435
9	0xbc7fa6cd	-0.015603733
10	0xbc00cbdd	-0.007861105
11	0x3c970b10	0.018437892
12	0x3b12ce74	0.0022400888
13	0x3ce70f47	0.028205527
14	0x3c134c1a	0.008990312
15	0x3e570c98	0.21000898
16	0x3ca90ce8	0.020636037
17	0xbd9cb010	-0.07650769
18	0xbcc12408	-0.023576751
19	0xbe400202	-0.18750766
20	0xbe3514a1	-0.1768365
21	0xbe5324c5	-0.20619495
22	0xbdf467c2	-0.11933853
23	0xbe3efc81	-0.1865101
24	0xbd21308e	-0.039352946
25	0xbcb65c58	-0.02226083
26	0xbd74d536	-0.059773646
27	0xbd6655d8	-0.05623421
28	0xbde4d611	-0.111736424
29	0x3d288cad	0.041149784
30	0xbd2156ba	-0.03938935
31	0xbd1c968b	-0.038229506
32	0xbd6b95fa	-0.057516076
33	0xbe025406	-0.12727365
34	0xbd91e60e	-0.071239576
35	0xbd946ee9	-0.07247717
36	0xbd4e4d10	-0.05036646
37	0xbe34a5d3	-0.17641382
38	0xbd4b03f7	-0.049564328
39	0xbced78b2	-0.028988216
40	0xbdd3e416	-0.10346238
41	0x3d591675	0.052999932
42	0x3b67c3cc	0.0035364507
43	0xbdd6f0b0	-0.10495126
44	0xbd447e19	-0.04797182
45	0xbcdb05c6	-0.026736151
46	0x3c19aced	0.009379608
47	0xbde5bc46	-0.11217551
48	0xbe152182	-0.14563563
49	0x3dda4e3a	0.10659452
50	0xbdd9e75a	-0.1063983
51	0x3df70bb8	0.12062782
52	0xbe530b0c	-0.20609683
53	0xbe08b78d	-0.13351269
54	0xbd8bcf2f	-0.068266265
55	0xbce47ac4	-0.02789057
56	0xbd9f598d	-0.07780752
57	0x39e35144	0.00043357362
58	0x3d260c71	0.04053921
59	0xbd4d4ce1	-0.050122146
60	0x3d727d1d	0.05920135
61	0xbe0a6061	-0.13513328
62	0xbd3c08cb	-0.045906823
63	0xba41cdd8	-0.0007393039
64	0xbdd0320f	-0.10165798
65	0x3d1354c3	0.035969507
66	0xbab5f039	-0.0013880796
67	0xbe1ce667	-0.15322267
68	0xbdbf1bcc	-0.09331474
69	0xbe277aa2	-0.16355374
70	0xbe378ed9	-0.17925586
71	0xbd967484	-0.07346442
72	0xbd9c36cc	-0.07627639
73	0x3db84135	0.08996812
74	0xbd06fd97	-0.032956686
75	0xbcffe7f8	-0.031238541
76	0xbc1e9265	-0.009678458
77	0xbd6acc2b	-0.057323616
78	0xbca9e195	-0.020737449
79	0xbe08d620	-0.13362932
80	0x3ddb9aa6	0.10722856
81	0xbd35f549	-0.044423375
82	0xbc88ddd9	-0.016707348
83	0xbdbb42d2	-0.09143604
84	0x3b3d2a21	0.0028864222
85	0x3d04141a	0.032245733
86	0xbe0f1e13	-0.13976316
87	0xbe018506	-0.126484
88	0xbe0d42ad	-0.13794966
89	0xbd8b6422	-0.06806208
90	0xbdb564da	-0.088571265
91	0xbda171d2	-0.078830376
92	0xbcfc7e8b	-0.03082206
93	0x3c1c0ea2	0.009524973
94	0x3d546d01	0.051861767
95	0x3ce69e32	0.028151605
96	0xbc9567dd	-0.018238002
97	0xbd975164	-0.07388571
98	0xbd53878a	-0.051642932
99	0xbdad8b7b	-0.084738694
100	0xbdae9e15	-0.085262455
101	0xbdaa8cdc	-0.08327648
102	0x3d0a4e44	0.033766046
103	0xbe46fbc9	-0.19431986
104	0xbd242c4d	-0.04008131
105	0xbe3a4b96	-0.18192896
106	0x3cf29fa3	0.029617136
107	0x3b71ebb3	0.003691417
108	0xbd1503d0	-0.03638059
109	0xbe03570a	-0.12826172
110	0xbe021744	-0.12704188
111	0xbc6f6d46	-0.014613455
112	0xbd34261d	-0.04398166
113	0xbdb5ff40	-0.08886576
114	0xbdd94025	-0.10607938
115	0xbe0505b8	-0.12990463
116	0xbd821463	-0.06351545
117	0xbb30d46e	-0.0026982087
118	0x3ccd2831	0.025043579
119	0xbd2ddc0e	-0.04244619
120	0x3d06c2bb	0.032900553
121	0xbd131f3d	-0.035918463
122	0xbe062bbc	-0.13102621
123	0xbc9a4785	-0.018832931
124	0xbe147c6b	-0.14500587
125	0xbdc7e853	-0.09761109
126	0x3da0eb04	0.07857326
127	0xbd857db5	-0.06518117

model.2.weight f4 [64, 128]
0	0xbeb058a5	-0.3444263
1	0x3e424116	0.18970141
2	0x3cf772d5	0.030206123
3	0xbefb117d	-0.4903678
4	0x3dc8cb6f	0.09804427
5	0x3c401cc4	0.011725608
6	0xbdb55b03	-0.0885525
7	0xbdbcf8a8	-0.09227115
8	0xbda5edd4	-0.08102003
9	0xbd4605bb	-0.04834531
10	0xbd192d61	-0.037396792
11	0xbe614a4d	-0.22001
12	0xbb271397	-0.0025493854
13	0xbeae4b56	-0.34041852
14	0x3d36ae21	0.044599656
15	0xbf0d76f8	-0.55259657
16	0xbdc710a4	-0.09719971
17	0xbd4bf168	-0.04979077
18	0x3ec7cb58	0.39022326
19	0xbe5bbf3b	-0.21459667
20	0xbe42c59b	-0.19020693
21	0x3d62d5b6	0.055379592
22	0xbbc17fed	-0.0059051425
23	0xbe5437c9	-0.20724405
24	0xbe00a2c2	-0.12562087
25	0xbdc67633	-0.096905135
26	0xbdc44c8a	-0.09584911
27	0x3caebbe9	0.021329837
28	0x3dca82b8	0.09888214
29	0xbdeb182f	-0.11479222
30	0xbea441de	-0.32081503
31	0xbf08b53c	-0.5340154
32	0xbd59e68e	-0.05319839
33	0x3de0bbea	0.10973342
34	0xbbb06924	-0.0053836275
35	0x3e19acba	0.15007296
36	0x3be37bfc	0.0069422703
37	0xbe7b815f	-0.2456107
38	0x3e08b67b	0.13350861
39	0x3e9ad2c3	0.30238923
40	0xbedb34dc	-0.42813766
41	0xbb9ff745	-0.0048817717
42	0x3d4913ea	0.049091257
43	0xbe9df998	-0.30854487
44	0xbeadb958	-0.3393047
45	0xbe0b1944	-0.13583857
46	0xbe64fdc2	-0.22362426
47	0xbedaa5f4	-0.42704737
48	0x3e868640	0.262743
49	0x3db8f28b	0.090306364
50	0x3e1469d7	0.144935
51	0xbdeab9dc	-0.11461231
52	0xbb86bd70	-0.004111938
53	0xbd7ca576	-0.061681233
54	0x3d255256	0.040361725
55	0x3d372edc	0.044722423
56	0xbed0b570	-0.40763426
57	0x3c6afd0e	0.0143425595
58	0xbe766bba	-0.24064532
59	0xbee593b5	-0.44839254
60	0xbc43846e	-0.011933429
61	0xbe86acbe	-0.26303667
62	0xbe79600c	-0.24353045
63	0x3d1abf98	0.037780374
64	0xbd2fab23	-0.042887818
65	0x3c3eab2e	0.011637492
66	0xbd409467	-0.047016528
67	0x3e863f63	0.26220235
68	0xbebfd7db	-0.37469372
69	0xbcaa9e2b	-0.020827373
70	0xbefcdccd	-0.49387208
71	0xbc1f73d5	-0.009732206
72	0x3d88c7ae	0.06678711
73	0xbd7b7398	-0.061389536
74	0xbd8a5c59	-0.06755895
75	0x3cb7cf88	0.022437826
76	0xbd478e74	-0.04871984
77	0xbdc7e50b	-0.09760483
78	0x3e570b30	0.21000361
79	0xbdce0880	-0.10060215
80	0x3dfef209	0.12448508
81	0xbd62743e	-0.05528664
82	0x3d7c1c0c	0.061550185
83	0xbd950e78	-0.0727815
84	0x3c877751	0.016536387
85	0xbf12bc96	-0.5731901
86	0x3e0e92bf	0.13923167
87	0x3e3e6e84	0.18596846
88	0xbd59dc1e	-0.053188436
89	0xbe02ddd2	-0.1277993
90	0xbdbe00d2	-0.092775
91	0xbdc8548b	-0.0978175
92	0xbe51a5e1	-0.20473434
93	0xbee5c924	-0.4488002
94	0xbe0b21d6	-0.13587126
95	0xbd3d1443	-0.0461619
96	0xbbe58857	-0.0070047784
97	0xbd8348cf	-0.064103715
98	0xbd5447a0	-0.05182612
99	0xbe1cc7b2	-0.15310553
100	0x3b3270e6	0.0027227937
101	0xbec7e9f3	-0.39045677
102	0x3b5f265e	0.0034049968
103	0xbed67bb6	-0.4189126
104	0xb911c4a4	-0.00013901532
105	0xbeee9c3a	-0.46603566
106	0xbe3e94e3	-0.18611483
107	0x3c10daf9	0.00884127
108	0xbc2cc5f2	-0.010545241
109	0x3d7d45c9	0.06183413
110	0x3cdc8373	0.026918149
111	0x3b62346f	0.0034516116
112	0xbe24970b	-0.16073243
113	0xbe8f940f	-0.28042647
114	0x3cc9630d	0.024583364
115	0xbe7c5dda	-0.24645177
116	0xbedb57a9	-0.42840317
117	0x3c0e6d89	0.008693107
118	0xbe047eb7	-0.12938963
119	0xbecfcb85	-0.4058496
120	0x3c4988f5	0.0123007195
121	0x3c62a202	0.013832571
122	0x3d5fdcda	0.05465398
123	0xbe1e8d6c	-0.15483636
124	0xbd870253	-0.0659224
125	0xbe0b18b0	-0.13583636
126	0xbe4eed74	-0.20207769
127	0xbdc5f46b	-0.0966576
128	0x3d83e9d7	0.06441086
129	0xbcd7d3ca	-0.026346106
130	0xbe5a09b3	-0.21292762
131	0xbdf779b9	-0.12083764
132	0xbebfacc1	-0.37436488
133	0x3cdb4d88	0.026770368
134	0x3e56a781	0.20962335
135	0x3d098de7	0.033582594
136	0xbdc2daf4	-0.09514418
137	0xbd74e689	-0.059790168
138	0x3e1c5d7c	0.15270036
139	0xbe9ae031	-0.3024917
140	0xbe98a0a5	-0.29810062
141	0x3da4fea1	0.08056379
142	0xbe88db9b	-0.26730046
143	0xbdc92343	-0.09821179
144	0x3e698728	0.22805464
145	0xbd575851	-0.05257446
146	0xbdc1422f	-0.09436452
147	0xbe48a05a	-0.1959242
148	0x3dbc5a68	0.09196931
149	0x3cb769a5	0.022389242
150	0x3c992bf3	0.018697714
151	0x3dd82c85	0.105553664
152	0xbe12012f	-0.14258264
153	0xbc4044b8	-0.011735134
154	0xbd9f63c3	-0.077827
155	0x3e1ef4a1	0.15523006
156	0x3e46b940	0.19406605
157	0x3e4a8699	0.19777907
158	0xbd84fbb0	-0.06493318
159	0x3dd9accc	0.106286615
160	0x3d81fb75	0.0634679
161	0x3e00dffc	0.12585443
162	0xbdf19d63	-0.11797597
163	0xbddae6ce	-0.10688554
164	0x3ea8ab12	0.32943016
165	0x3dfe7448	0.12424523
166	0xbd84c433	-0.064827345
167	0x3d09086a	0.03345529
168	0x3b6bb5ad	0.0035966442
169	0x3e37bad5	0.17942365
170	0xbde0bbd6	-0.10973327
171	0x3d20c922	0.039254315
172	0x3bc2e8c1	0.0059481566
173	0x3dbbc4f2	0.09168424
174	0x3e62d030	0.2214973
175	0xbe22b2eb	-0.15888564
176	0xbdae2988	-0.08504015
177	0x3e1bd25a	0.15216962
178	0x3ea218eb	0.31659636
179	0xbde2aeaa	-0.11068471
180	0xbd311239	-0.04323027
181	0xbe3a73d5	-0.18208249
182	0xbe1f1579	-0.15535535
183	0xbd870811	-0.065933354
184	0xbcf5fd5b	-0.030028036
185	0xbd1482b0	-0.036257446
186	0xbc9a3dfc	-0.018828385
187	0xbe937cf2	-0.28806263
188	0x3da81207	0.082065634
189	0xbcb41b8b	-0.02198579
190	0x3e15901d	0.14605756
191	0xbeb24fb0	-0.34826422
192	0xbea122c7	-0.31471846
193	0xbc92824a	-0.017884392
194	0xbe2fe12e	-0.17175743
195	0xbc576d05	-0.013148551
196	0xbe2f5542	-0.17122367
197	0xbcfccbb0	-0.030858845
198	0xbe05ea0a	-0.1307756
199	0xbd6e50e3	-0.05818261
200	0xbd0bf198	-0.03416595
201	0x3d94a330	0.07257688
202	0x3e677f7c	0.22607225
203	0xbc0e64e5	-0.008691047
204	0x3dafa0ee	0.08575617
205	0x3db2f6e8	0.087385
206	0x3f0d1b83	0.55120105
207	0x3c86acfc	0.016439907
208	0xbdbe0a51	-0.092793114
209	0xbd0ed5d9	-0.03487191
210	0x3d9e734c	0.07736835
211	0xbdb38470	-0.08765495
212	0x3d8e0bfe	0.06935881
213	0xbd9c5a8d	-0.07634459
214	0xbe309749	-0.1724521
215	0x3cd63f62	0.02615327
216	0x3df45810	0.11930859
217	0x3d74db48	0.059779435
218	0xbddf042c	-0.108894676
219	0xbdec7120	-0.115450144
220	0x3d34975e	0.044089667
221	0xbe8cc74a	-0.27495795
222	0x3dd7796b	0.105212055
223	0x3d9cb6a7	0.07652026
224	0x3d845b2d	0.06462703
225	0x3bdccddb	0.006738407
226	0x3d27ec18	0.04099664
227	0xbd80e14f	-0.06292974
228	0xbc53f376	-0.012936464
229	0xbe4939a1	-0.1965089
230	0xbb2a1a1b	-0.0025955501
231	0xbe8d6df6	-0.27622956
232	0xbe34c7c5	-0.17654331
233	0xbeebc74f	-0.46050498
234	0xbdf18f6b	-0.11794933
235	0x3e1b6f45	0.15179165
236	0x3dd3080c	0.10304269
237	0x3c83892e	0.016056623
238	0x3dcee6fa	0.10102649
239	0xbe98d54f	-0.29850242
240	0x3db6732d	0.08908687
241	0x3e0b11c7	0.13581
242	0xbdf22ab3	-0.118245505
243	0xbe7f9ff1	-0.24963357
244	0xbe7a06f0	-0.24416709
245	0xbe035558	-0.12825525
246	0x3e728d3b	0.23686688
247	0xbe6ce40d	-0.2313387
248	0x3ec4ef98	0.38464046
249	0xbe1d5d57	-0.15367638
250	0xbe166684	-0.14687544
251	0x3d8eeb3c	0.06978461
252	0xbd1631e8	-0.036668688
253	0x3dc05a54	0.09392229
254	0xbe2aa702	-0.16665271
255	0x3cae3f94	0.02127055

model.2.bias f4 [64]
0	0xbd8686fa	-0.065687135
1	0xbe126ea9	-0.14300026
2	0xbdd78484	-0.10523322
3	0xbdd59285	-0.10428337
4	0x3ed0ade7	0.40757677
5	0xbdb1bc49	-0.08678491
6	0x3b37474e	0.0027966085
7	0xbe8070fd	-0.25086203
8	0xbdd6b6cc	-0.104840845
9	0xbd141a51	-0.03615791
10	0xbe6914df	-0.22761868
11	0xbe65523b	-0.2239465
12	0xbdf6d5a6	-0.12052469
13	0x3dd61ea2	0.104550615
14	0xbda2fa6f	-0.07957923
15	0x3e084805	0.13308723
16	0xbd691b6a	-0.05691091
17	0x3d6e2443	0.05814005
18	0x3d8cde24	0.068783075
19	0xbd82253e	-0.0635476
20	0xbe037ec9	-0.12841333
21	0xbdcca8fe	-0.0999317
22	0xbe0b7d83	-0.13622098
23	0xbd8757cb	-0.06608542
24	0xbe38898b	-0.18021218
25	0xbe05dd05	-0.13072594
26	0xbdbc3225	-0.09189252
27	0xbe63a6bb	-0.22231571
28	0x3c940940	0.018070817
29	0xbb4b8082	-0.0031051938
30	0xbecd86bb	-0.40141854
31	0xbe1afb58	-0.15134943
32	0xbd8dc743	-0.06922772
33	0xbe8e5789	-0.2780116
34	0xbde2caae	-0.11073814
35	0xbd8a67d9	-0.067580886
36	0x3dfaf23a	0.12253232
37	0xbe1649e1	-0.1467662
38	0xbdbd85c8	-0.092540324
39	0xbe2de113	-0.1698039
40	0xbe06d874	-0.13168508
41	0x3d38d24b	0.045122426
42	0x3df3fdd8	0.11913651
43	0xbe046912	-0.12930706
44	0xbe47780f	-0.19479392
45	0xbe8dad28	-0.2767117
46	0xbe86077e	-0.2617759
47	0xbdfdf71a	-0.124006465
48	0x3f7c2352	0.98491395
49	0xbe1afe71	-0.15136124
50	0xbe21df47	-0.1580783
51	0xbe1c3a0b	-0.15256517
52	0xbe1cef41	-0.15325643
53	0xbe20893c	-0.15677351
54	0x3ec31358	0.38100696
55	0x3e6337af	0.2218921
56	0xbdc10d1d	-0.09426329
57	0xbe0e1c19	-0.13877906
58	0x3d8695e9	0.06571562
59	0xbe90ee7f	-0.28306958
60	0xbdffb894	-0.12486377
61	0xbe2b091b	-0.16702692
62	0xbdaf9a80	-0.085743904
63	0x3d8764e4	0.0661104

model.4.weight f4 [4, 64]
0	0xbef951fa	-0.48695356
1	0xbc531688	-0.01288379
2	0x3d07661e	0.03305637
3	0xbe9622cb	-0.2932342
4	0x3de5bcd6	0.11217658
5	0xbd1e8548	-0.038701326
6	0x3b487f9e	0.0030593644
7	0xbe23ff6a	-0.16015401
8	0x3d343879	0.04399917
9	0xbcb63fc9	-0.022247212
10	0xbdb2dfd4	-0.08734098
11	0x3d5db6be	0.054129355
12	0x3c5c8be4	0.013461087
13	0x3e8362fb	0.25661454
14	0x3caf91e6	0.021431874
15	0x3e278f1b	0.16363184
16	0x3e19157a	0.14949599
17	0x3d0ce28a	0.034395732
18	0x3e2e5f9f	0.17028664
19	0xbd8c6592	-0.068553105
20	0x3c53d1f6	0.012928477
21	0xbef331ef	-0.47499034
22	0x3d830370	0.0639714
23	0x3dafaf94	0.08578411
24	0xbc2005ff	-0.009767055
25	0x3c59e074	0.013298143
26	0xbe996c18	-0.2996528
27	0x3cdc2150	0.026871353
28	0x3e6874d7	0.22700821
29	0x3cc89260	0.02448386
30	0xbdda6f24	-0.1066573
31	0x3e83604f	0.25659415
32	0xbce3d46d	-0.027811253
33	0x3d1482cd	0.036257554
34	0xbc8e767d	-0.017390484
35	0xba7b02c9	-0.0009575305
36	0x3e48f0ee	0.19623157
37	0xbe9207ca	-0.28521568
38	0x3cefcddf	0.029272972
39	0xbd345f8f	-0.044036444
40	0xbdb556a8	-0.08854419
41	0xbdb3716c	-0.08761868
42	0x3d6ee825	0.05832686
43	0x3d8bace0	0.06820083
44	0xbce84ded	-0.02835747
45	0x3cf0491c	0.029331736
46	0x3c1d3725	0.009595667
47	0xbcc6f006	-0.024284374
48	0x3e42146d	0.18953104
49	0xbd9fb2ff	-0.07797813
50	0xbe4612be	-0.19343087
51	0x3d8b5148	0.068026125
52	0x3dbcb8e7	0.09214955
53	0xbe3c723a	-0.18402949
54	0x3dbaf0c4	0.09127954
55	0x3e52e05c	0.20593399
56	0x3e5c504d	0.21515007
57	0xbd29f4db	-0.041493278
58	0xbce421c2	-0.027848128
59	0xbe90d2d9	-0.28285864
60	0xbdc95f77	-0.098326616
61	0x3da18d33	0.0788826
62	0xbe0e9c59	-0.1392683
63	0xbd74b8d9	-0.059746597
64	0x3e693f4c	0.22778052
65	0x3e1c351a	0.15254632
66	0xbcd997e8	-0.026561692
67	0x3e09ad65	0.13445051
68	0x3d1c87ac	0.038215324
69	0x3d8fb402	0.07016756
70	0x3942e58f	0.00018586799
71	0x3d2b20ec	0.041779444
72	0x3d6baa05	0.05753519
73	0x3d63e84f	0.05564147
74	0xbdb7464d	-0.08948956
75	0xbdbd0137	-0.09228747
76	0x3e55f7f3	0.20895366
77	0x3e394425	0.18092401
78	0x3e40ade9	0.18816341
79	0x3e2e0421	0.16993763
80	0xbdc36cde	-0.09542249
81	0x3dddea7e	0.108357415
82	0x3c310090	0.010803357
83	0xbcba7440	-0.02276051
84	0xbe71a591	-0.23598315
85	0xbe903649	-0.28166416
86	0x3e162668	0.14663088
87	0x3c1857e1	0.009298296
88	0xbe254a86	-0.1614171
89	0x3cc060ae	0.0234836
90	0x3c87e4ea	0.016588647
91	0x3b86ae95	0.0041101673
92	0x3ddc2b61	0.10750461
93	0xbe943e97	-0.28954002
94	0xbdb067e4	-0.086135656
95	0xbd95af13	-0.073087834
96	0x3d4870fa	0.048935868
97	0x3ecec210	0.40382433
98	0xbd08ec8a	-0.033428706
99	0x3cc7c5a3	0.024386233
100	0x3eb5fd47	0.35544798
101	0x3cb5218a	0.02211072
102	0x3d58150d	0.05275445
103	0xbdf8a2b5	-0.12140409
104	0x39d0db90	0.00039836438
105	0x3e93136e	0.2872576
106	0x3df2cada	0.11855097
107	0x3ded1a72	0.1157731
108	0xbdea7f49	-0.11450059
109	0xbd4eb7ee	-0.050468378
110	0x3e99e0b3	0.30054244
111	0x3ebc6b4d	0.36800614
112	0x3e439e5c	0.19103378
113	0x3e2399bb	0.15976612
114	0xbec8adf8	-0.39195228
115	0xbd1e6927	-0.0386745
116	0xbd8da66e	-0.069165096
117	0xbdf96ca7	-0.12178927
118	0x3d65772c	0.056021854
119	0x3e120d41	0.14262868
120	0x3e3b8bf8	0.18315113
121	0x3e42cb85	0.19022949
122	0x3c905d84	0.017622717
123	0xbda88114	-0.08227745
124	0x3e6202e7	0.2207142
125	0x3dd723ae	0.10504852
126	0x3e431ca3	0.19053893
127	0x3eb95729	0.3619931
128	0x3d44df39	0.048064444
129	0x3e3b9d73	0.18321781
130	0xbce746d1	-0.02823201
131	0x3e74fdc9	0.23924936
132	0x3d210441	0.039310697
133	0x3cbaf9aa	0.022824127
134	0x3eac5bf1	0.33663896
135	0xbe0716e9	-0.13192333
136	0xbdaf3122	-0.08554293
137	0x3cebf1e7	0.028801871
138	0x3e0a65cd	0.13515396
139	0xbe694f6a	-0.227842
140	0x3ea4f75c	0.3221997
141	0x3daf7ab5	0.085683264
142	0x3c4f8c44	0.012667719
143	0x3dbc231d	0.09186385
144	0xbe94a922	-0.29035288
145	0x3eaf560c	0.34245336
146	0x3e5f4672	0.21804217
147	0xbc752016	-0.014961263
148	0x3e331955	0.17490132
149	0x3ec35735	0.3815247
150	0x3eab60d9	0.33472326
151	0x3e6f0041	0.2333994
152	0xbdc59e55	-0.0964934
153	0xbcb36d06	-0.021902572
154	0xbdabf927	-0.083971314
155	0x3dab735c	0.083716124
156	0x3de97042	0.113983646
157	0x3e3eed4f	0.18645214
158	0xbe35b337	-0.17744146
159	0xbd72c659	-0.05927119
160	0x3e3cf1ae	0.18451568
161	0x3e8318ac	0.2560476
162	0x3cbaba38	0.022793874
163	0xbc354dbc	-0.011065897
164	0xbd36db5f	-0.044642802
165	0xbe8bf071	-0.2733188
166	0x3dd0a0b0	0.10186899
167	0xbd9fbc98	-0.07799643
168	0xbeb4fcc5	-0.35349098
169	0xbe8a316f	-0.2699084
170	0x3df13313	0.1177732
171	0xbe41ec63	-0.1893783
172	0xbd9c3f31	-0.0762924
173	0x3ddb3bae	0.10704742
174	0xbdaf4b62	-0.085593
175	0x3dfe14ab	0.12406286
176	0x3e66bbc0	0.22532558
177	0xbe33aea6	-0.17547092
178	0xbe8fc754	-0.28081763
179	0xbd5370fa	-0.051621415
180	0xbe90eaea	-0.28304225
181	0xbe8923e6	-0.267852
182	0xbd02476e	-0.031806402
183	0x3dbcf2c5	0.09225992
184	0x3e3897f7	0.1802672
185	0x3e5d2419	0.21595801
186	0x3dae5391	0.08512033
187	0xbe437fa0	-0.19091654
188	0x3de28bcf	0.110618226
189	0xbe2b3569	-0.16719593
190	0x3e020fa3	0.12701277
191	0x3dabc75d	0.08387635
192	0x3eaae581	0.33378223
193	0x3e6b20d2	0.22961739
194	0xbdc6fc3d	-0.097160794
195	0xbe8e322f	-0.27772662
196	0x3e3510f8	0.17682254
197	0x3d8c0178	0.06836218
198	0x3ea4955c	0.32145202
199	0x3dd8c2b7	0.10584014
200	0xbdbbb172	-0.091647044
201	0x3d3585db	0.044317108
202	0x3e19e554	0.15028888
203	0xbe2990d4	-0.16559154
204	0xbd70b5ba	-0.058767058
205	0x3e701295	0.23444588
206	0xbe189d12	-0.14903668
207	0x3d3ad721	0.04561532
208	0x3dfa67d4	0.12226835
209	0xbb7c9047	-0.0038538144
210	0x3e86b8a4	0.26312745
211	0xbde2081d	-0.11036704
212	0x3d2fb370	0.042895734
213	0xbc4558f7	-0.012045137
214	0xbde0936d	-0.10965619
215	0xbe1b630e	-0.15174505
216	0x3e9a8682	0.30180746
217	0xbcd8fafa	-0.026486862
218	0x3e63eafc	0.22257608
219	0xbd2efc1a	-0.04272089
220	0x3da103b5	0.07862035
221	0x3e116ee0	0.14202452
222	0x3e055dfe	0.13024136
223	0xbe2e0314	-0.16993362
224	0x3d47416e	0.048646383
225	0x3e80d14f	0.2515969
226	0xbd10ae96	-0.035322748
227	0xbcec58cd	-0.028850937
228	0xbe70ef5e	-0.23528811
229	0xbe50ab25	-0.20377786
230	0x3e0b85db	0.1362528
231	0x3db2ed1c	0.08736631
232	0xbe0bb46f	-0.13643049
233	0x3c389a1b	0.01126721
234	0x3c9f804d	0.019470358
235	0x3e8f5040	0.27990913
236	0x3cd76a06	0.026295673
237	0xbe083fbe	-0.13305566
238	0xbe06ef03	-0.13177113
239	0x3e63e6f4	0.2225607
240	0x3e348b18	0.17631185
241	0xbe72dd52	-0.2371724
242	0xbe57bcfb	-0.21068184
243	0x3ce37a26	0.027768206
244	0x3e9ab50e	0.3021626
245	0x3e281758	0.16415155
246	0x3dfef4e7	0.12449055
247	0x3cea8f1b	0.028632691
248	0x3e3dfbe7	0.18553124
249	0xbddfb6e0	-0.109235525
250	0x3dc390ac	0.09549078
251	0x3e951c06	0.29122943
252	0xbe73440c	-0.23756427
253	0x3e26f695	0.16305001
254	0xbe863d78	-0.26218772
255	0x3e5d2a9d	0.21598287

model.4.bias f4 [4]
0	0x3f04c140	0.51857376
1	0x3f0414dc	0.5159433
2	0x3f018cc8	0.5060544
3	0x3f0700ef	0.527358
