models/q_final_n333.pt (torch, 131223 bytes, 6 tensors)

model.0.weight f4 [128, 185]
00000000: 7e76 9d3d 45ff 3dbe 863c 8fbd 1c37 0a3e
00000010: b557 11bd 5a97 803d bed1 ef3c ce26 36be
00000020: 715a 70bd a426 41be e49f 09be 5f1d 5b3e
00000030: dda7 a4be 6d6c 47bc 2e74 5dbb 3adf 76bd
00000040: 1a26 0dbe bbb0 633c b391 a13e e6c4 76be
00000050: ef42 44be 8f2e 7ebc 5175 0e3e ac58 2cbe
00000060: fa5f 473d 9814 24be 6545 173e 84fd 33be
00000070: 84bd 233e a625 77bd 0f13 e5bc fd1b 113e
00000080: 6234 ef3d 07e5 89be 8250 8abd b03c 093e
00000090: 35e4 22bd 0f8a 39bd 06c0 b0be 327d 2f3d
000000a0: cb73 0a3e c4f3 54be f36c 883d e069 5fbf
000000b0: 8777 00bf 1389 ec3e 5a6b 0fbf 5d93 82bd
000000c0: a9bf 3c3e b062 1bbf c447 3d3c 019d b1bd
000000d0: 36f6 38be c61b 00bf bf99 813e 8eec 943e
000000e0: f182 f5bd d376 573e c588 64be 5f68 13bc
000000f0: e779 9bbd 7a0b a63d 8215 713e 48e3 16bf
00000100: aa5f 86be 3791 d33c e4d6 93bd 3f40 2cbd
00000110: 64fa 89bd cb45 e2bd 6748 133e 3c86 94be
00000120: c59b b73c 4a30 813b 8af1 743d 0b2c c5bd
00000130: aff7 d73c 89f5 7abc a369 41be 1a53 303e
00000140: e1a5 20bf 23c0 16bf 0275 dabd 4eed 15bf
00000150: f3f1 73bd f171 093e 1760 11bf 5148 793e
00000160: c82a 8fbd ed1a 0ebf 2b99 e0be 30c1 8f3e
00000170: 5a6d a23e dd0a c63d 9b1c b2bd c03d 28be
00000180: c99c 1c3e ba96 33be 0fc3 14bd fef1 f4bd
00000190: 2039 093d c5a5 2f3d deca c2bc 9a35 f23d
000001a0: 077d 4dbe 2b5b f73d 4072 59be ed18 943e
000001b0: 1ca7 71bc 4afa 13be 1a9f 833d 5545 ee3d
000001c0: ba17 07be cdeb 5bbc 6bcf 28be eec6 62be
000001d0: 48fd 553e 4098 46be bfec 2ebf 22f5 82be
000001e0: 6c51 46bf 6f59 49be bf1e 333e db0c bdbe
000001f0: 87cc 973e db8f 4fbe 9272 bcbe 51e4 0cbf
00000200: 3610 5b3e 4a61 873e 6cab f8be 9a98 e7bd
00000210: 72ec 9abe 8f33 0c3f 8b5e b0bd 1fef 523e
00000220: 003a 30bd b79b d8bc e5f2 973e 0630 b9be
00000230: f975 6dbd fc89 44bd 05e2 3dbd e488 1fbe
00000240: 8e5f d43d 6bc7 95be 7cb4 8abb a252 3c3d
00000250: 621c 883e ae09 26bf 92cb 873b 71e5 82be
00000260: 05dd c1be b5a3 9cbe 5c16 b73e 217a 98be
00000270: 8b50 d7bd 6176 48bf 8a4c 97bd 6798 d13d
00000280: fa41 50be dce8 c8be fd80 aa3c 9592 b7be
00000290: 2495 c4be 8230 b23d 489a fe3d b308 d4be
000002a0: ea06 60bb 153d 59be 86a1 a53d f801 16be
000002b0: 933b e7bd 17a5 5bbc e4b1 1fbe ad7c 7fbe
000002c0: 7b3a 68bd 0325 52bf a5dd d5be 191d 693e
000002d0: 73e5 133e a2e9 a5bd 4256 4dbe 5b69 2c3d
000002e0: e3ac a73d 06dc ea3c 3ef9 e1bd 190e 22bc
000002f0: 1b2c 8abe 35e4 d3be 37a4 1e3e aa49 7dbe
00000300: dc81 89be b351 61bd 7e08 f83c 1d0c 34bf
00000310: 60b4 613e 3a13 a13d bc91 6e3e 57a6 7ebe
00000320: 83ec 643d b37a 5abe 0c76 503e 400b 91be
00000330: 3368 fbbe da36 223e f069 7e3d 6abc 99be
00000340: 4760 47be 7da5 4a3d 3863 1b3e 6a55 ddbd
00000350: c7a1 43bd b177 12be 90c3 50be 9e35 f2bc
00000360: 556a 9e3e 4c46 0cbe 489a c03d 1d8d 343e
00000370: 675a 4e3e c2e7 833d 076a f93b 3ef0 ea3d
00000380: 3955 81be 461d 9abd a857 9ebe d6df 5b3e
00000390: 4326 d8be 74d5 3fbe ce98 52be b398 09bf
000003a0: 5c83 9dbe 29d2 153e 0020 e3bd 052e ea3d
000003b0: 18df 0dbe 7934 363e 599d d6bd fa8c 8bbe
000003c0: e5d8 5dbe 60f2 13bf 2fb5 aebd 6ca1 973d
000003d0: b515 1abd e0a4 f9bd fbf7 5cbd 2d02 8c3d
000003e0: 5cfe 2cbe 2c7f 233e 6d59 bfbe c5de 44bf
000003f0: 7c98 86be b9a3 b4bd 7a5d d33e 9c12 b7bd
0.07688616 -0.18554409 -0.06993966 0.13497585 -0.035484035 0.06278868 0.029274818 -0.1778824
-0.05868 -0.18862396 -0.134399 0.21397923 -0.3215932 -0.012171847 -0.0033791172 -0.06027148
-0.13784066 0.013897116 0.31556472 -0.24098548 -0.19166158 -0.01551403 0.1391194 -0.168307
0.048675515 -0.16023481 0.14772566 -0.17577177 0.15990263 -0.06033864 -0.02796319 0.14170833
0.11679913 -0.26932546 -0.06753637 0.13402057 -0.039768416 -0.04529768 -0.34521502 0.042844005
0.13520734 -0.20796114 0.066614054 -0.8727093 -0.50182384 0.4619833 -0.5602318 -0.063757636
0.18432488 -0.6069746 0.011552755 -0.08672524 -0.18062672 -0.5004238 0.2531261 0.29086727
-0.11987866 0.21041422 -0.22317798 -0.008997052 -0.075916104 0.08107658 0.23543361 -0.58940554
-0.2624486 0.02582608 -0.072187215 -0.042053457 -0.06737211 -0.11048468 0.14383088 -0.29008663
0.022413144 0.003942524 0.059800662 -0.09627541 0.026363222 -0.015317329 -0.18887953 0.172192
-0.6275311 -0.5888693 -0.10666849 -0.58565223 -0.059556913 0.13422371 -0.56787246 0.24343993
-0.06990582 -0.55509835 -0.43866858 0.28077078 0.31724054 0.09670041 -0.08696862 -0.16429806
0.15294184 -0.17537966 -0.036318835 -0.11960219 0.033501744 0.0428827 -0.023778375 0.1182663
-0.20067225 0.12077936 -0.21234989 0.28925267 -0.014749315 -0.14450946 0.064268306 0.11634318
-0.13192645 -0.0134229185 -0.16485374 -0.22146198 0.208974 -0.19394016 -0.68329996 -0.25577646
-0.7746799 -0.19663022 0.17492197 -0.3692387 0.2964823 -0.2026972 -0.3680616 -0.55035883
0.21392903 0.26441413 -0.48568285 -0.11308403 -0.30258518 0.5476617 -0.08611783 0.2059903
-0.043024063 -0.026441438 0.296775 -0.3616945 -0.057973836 -0.047983155 -0.046358127 -0.15579563
0.10369788 -0.29253706 -0.004232941 0.045977242 0.26584154 -0.6485852 0.0041441405 -0.25565675
-0.37863937 -0.3059365 0.35759246 -0.29780677 -0.10513409 -0.7830563 -0.073876455 0.102341466
-0.20337668 -0.39240158 0.02081346 -0.3585402 -0.38395035 0.087006584 0.124317706 -0.41412887
-0.0034183809 -0.21214707 0.08087449 -0.14649189 -0.1129066 -0.01340606 -0.15595204 -0.24949904
-0.056696396 -0.82087725 -0.41770664 0.22765006 0.14442997 -0.081012025 -0.20052436 0.042092662
0.081872724 0.028669368 -0.11033867 -0.009891056 -0.26986775 -0.41385046 0.1549233 -0.24735132
-0.26856887 -0.055009555 0.030277487 -0.70330983 0.22041464 0.07864995 0.23297781 -0.24868141
0.055889618 -0.21335869 0.20357531 -0.28328896 -0.49102935 0.15841237 0.06211275 -0.3002656
-0.1947032 0.04947423 0.15174568 -0.10807307 -0.047761705 -0.14303471 -0.20387101 -0.029566582
0.309405 -0.13698691 0.09404427 0.17631955 0.20151673 0.06440689 0.0076115164 0.11471604
-0.25260332 -0.07525115 -0.3092625 0.21472105 -0.4221669 -0.1873377 -0.20566103 -0.53748626
-0.30764282 0.14630951 -0.11090088 0.11434559 -0.13854635 0.17793454 -0.104792304 -0.27255994
-0.2166477 -0.5779171 -0.08530652 0.07403836 -0.037618358 -0.121896505 -0.05394743 0.068363525
-0.16893905 0.15966481 -0.37372914 -0.7690242 -0.2628821 -0.0882029 0.41282254 -0.08939096

model.0.bias f4 [128]
00000000: a6c5 6fbd 2c63 6dbc c466 b8bd e666 cbbd
00000010: 1eb8 47bd 93dc 09be 1238 663d b6f5 1a3b
00000020: c068 b83d c27a 2fbe 52f4 58bd e41d 18be
00000030: c295 bdbd 8230 71bd 297c c6bd 9df5 e93b
00000040: b1cd d7bd 47dd 9fbc be1b c53d 6cdd 17bd
00000050: 2d6f 623d 2366 bfba bb21 2fbe a735 8abd
00000060: 5978 d5bd 3d91 e1bc 82fe ec3c 8d20 08be
00000070: b81f 663c d32e a4bd 5275 21bd 351d 07be
00000080: 11ff d1bc 295f b7bd e371 2fbd dd1b 6e3a
00000090: 4c5c 733c c20d 56bd 7c34 1a3c f069 d5bd
000000a0: 3248 af3a 43f2 853d f3d5 f5bc 721b a9bc
000000b0: 5d52 98bd e22e 323b 8a44 ac3c d373 90bd
000000c0: 5d9b c6bd 0154 be3b 8f4e 563c baaf 08b9
000000d0: 72c7 9ebc bf30 dfbd 79c9 553d 7b43 2d3d
000000e0: 8e54 0dbe 4413 ccbd f065 febc 581c 543b
000000f0: 4127 dbbd b408 f9ba a4b7 b23d 497e e73c
00000100: 559b 963d a615 703d 8df7 28be f605 073c
00000110: 8bfd d0bd d41d 22be bc3a 1fbe 9fe0 f53b
00000120: f035 2e3c 90ae 283c 2ce8 b5bc cd0f 07be
00000130: acca 16be da1c 9ebb 3c18 ccbd 8c77 ecbd
00000140: 3df5 823c 7716 7ebd 366c b9bc a7a8 44bd
00000150: 0136 79bd e2ec 833d a084 c4bc 7b94 15be
00000160: 17c2 de3d f9cc 27bd 5916 e3bc 0a36 4dbd
00000170: 5ae9 fe3c dc22 c3bd 2cfa adbd 3cd4 b3bd
00000180: ce44 223d 48c1 cebc d7e4 19bd f5b9 d0bd
00000190: a4cf 00be b8ea 30be f820 e8bd ede6 e9bd
000001a0: 3c0f 8fbd 8bce 01be 5698 b53d a2d8 063e
000001b0: 3968 debb aa28 bcbd 417a f13a a0d1 a1bd
000001c0: 7c61 fdbd 93a8 dc3b 5e37 e9bc a924 67bc
000001d0: 4ef8 0ebe 04fd d0bc a9f3 f13c 285f 09be
000001e0: 385b 19be 1624 3dbd 1ad2 353b e178 d33c
000001f0: 5f77 88bd 32ec f5bd 95bc c9bd 4aad 283c
-0.0585381 -0.014488976 -0.09003976 -0.09931736 -0.048759572 -0.13463049 0.056205817 0.002364499
0.090043545 -0.17136672 -0.052967377 -0.14855152 -0.0925708 -0.05888415 -0.096916504 0.007139875
-0.105372794 -0.019514693 0.09624432 -0.0370764 0.055281807 -0.0014602583 -0.17102711 -0.067485146
-0.10423345 -0.027535075 0.028929953 -0.13293667 0.014045648 -0.080167435 -0.039418526 -0.13194735
-0.02563432 -0.08953697 -0.04283322 0.00090831314 0.014853548 -0.052259214 0.009411927 -0.104205966
0.0013372956 0.065403484 -0.030009245 -0.02064297 -0.074375845 0.002718859 0.021028776 -0.07053342
-0.09697602 0.005808354 0.013080253 -0.00013035434 -0.019382212 -0.108979695 0.052194092 0.042300683
-0.13801786 -0.09964612 -0.031054467 0.0032365527 -0.107008465 -0.0018999786 0.08726433 0.02825846
0.07353846 0.058614396 -0.16500683 0.008241167 -0.102046095 -0.15831691 -0.15549749 0.0075035836
0.010632977 0.010295525 -0.022205435 -0.13189621 -0.1472575 -0.0048252167 -0.0996556 -0.11546239
0.01598608 -0.062033143 -0.022634607 -0.048012402 -0.060842518 0.06441666 -0.023989022 -0.14607422
0.108768634 -0.04096696 -0.027720617 -0.050100364 0.03111713 -0.09528133 -0.08494982 -0.08780715
0.0396164 -0.025238648 -0.037571754 -0.101917185 -0.12579209 -0.17277038 -0.11334413 -0.11420999
-0.069853276 -0.12676446 0.088669464 0.13168576 -0.0067873267 -0.091874436 0.0018423275 -0.07901311
-0.12372109 0.006733963 -0.028468784 -0.014107862 -0.13961908 -0.025511272 0.029535132 -0.13415205
-0.14976203 -0.046176992 0.0027743638 0.025814475 -0.06663393 -0.12007941 -0.09850422 0.010295222

model.2.weight f4 [64, 128]
00000000: 9b05 3c3d ecc9 9cbd feaa ef3d 48ee 623d
00000010: 2337 2dbe 7136 1bbe 8814 b03d cbb0 ef3d
00000020: ce71 d33d b61d 64be 0e55 363e 1fde a9bd
00000030: 97aa 93bd af07 4f3d 5b41 9b3e 2fb8 2b3e
00000040: 1488 66bd dfd6 c13d be24 fabd f7a4 f43d
00000050: 0f28 81be 6b1c 083e e306 523e c7b6 2cbe
00000060: eb86 be3d 2833 2ebe 8939 f7bd 8761 763e
00000070: 3585 b13e abf8 dd3d c615 003e c9a6 04be
00000080: 3bb9 d23c 7794 863d 54fb df3d 00df 2a3e
00000090: e86c ed3d 0371 143e 242f 1139 2f27 92bd
000000a0: d0bf 47be 9bd1 513d b971 093e 9923 563e
000000b0: 4fa7 4f3e e75e d03e 16d7 7b3d 0912 873e
000000c0: b7d8 813e b3f2 193e d3f5 373e bd78 c83d
000000d0: fa90 323e 93ee 7e3e c2c8 153e 3369 c0be
000000e0: 43b3 41ba 62e8 e93d 8a4b 203d 0f4c 053e
000000f0: 5972 b83d f5d2 d3bd ff72 c3be b1ee 2d3e
00000100: d325 083e 76ad e33d 3114 2a3d d414 1dbd
00000110: 6bd7 b3be 4ba9 d5be 31cb 913d e403 5dbd
00000120: 0c8d e23d adc7 3cbe 35dc 9cba 2fea 53be
00000130: a8d7 0f3d 0e8f 443a 9e93 75bd 6271 98bc
00000140: 806e 47be aeca 003e 1410 22be 41fc b03d
00000150: 62b1 043e 4343 7e3e 6d68 9dbc bc20 993e
00000160: 115e 383e 66f4 113c 2560 4c3e 208e de3d
00000170: a553 ec3c f879 b4be f54c 193e 7ae6 243b
00000180: 4a3d 8a3d 9515 0ebe ea88 b13d 8d01 153e
00000190: b462 d53d c1bd 043d ab87 fabd 940e 1fbe
000001a0: c9cc 023e af83 133d 190b e53d 2e7b 6abc
000001b0: a018 7b3d 43a3 dd3d f0c1 f63d 9ba3 c3bd
000001c0: d6ec 2cbe d966 883e 3128 57be 3aae 2e3d
000001d0: aef5 143e f300 9bbe 2508 af3e 69bc 17be
000001e0: 23f1 a63d 4347 b33d 5eb4 933d 4f45 1f3e
000001f0: 3335 d1bd 0ce9 0a3e 816a 073e fd69 bc3d
00000200: 0b92 bbbc 08d1 d13d 0872 883d e75a 23bd
00000210: 1f75 6bbc 735d 9b3d 8258 09be ec23 95bd
00000220: 63c2 81bc bf09 4d3d 5cdc 753e aabd 1abe
00000230: de6e debc 1f2f a43c aa37 cd3c cedf 953e
00000240: 6401 563d d8b2 a5bd 300c 18be 9933 853d
00000250: f56c d0be 0a12 a73d 4765 a13d 734a b1bd
00000260: 4763 8a3e 1583 b5be f6ff 02be 2127 863e
00000270: 3e60 7cbe 44a9 41be e16a e13d f6b1 e2bd
00000280: 9eb5 d83d 4e85 3a3d 48a8 5e3d 417b 9cbd
00000290: fd28 293d 1749 983c 92f2 a53a 4306 e03c
000002a0: 0cdd 7abc 4e2c 603d 0249 7c3c 8794 10be
000002b0: 9783 983e 5040 bebe db35 ca3d 8427 bd3e
000002c0: 3556 9d3c 6f1c ec3d 1f67 e9bc 46e8 f9bc
000002d0: 6337 8ebe e74a ed3d 9b16 e6bd f798 4abe
000002e0: 743a eabc 370c 7ebe a98f 10bd b416 9b3d
000002f0: d43d 16be 1f35 933c 9c39 02bf e3bd 29bd
00000300: ef2e b3bd 6e72 47bc 4ee4 c3be 2e01 d4bc
00000310: de36 b5bd 6cc8 43be fb38 20bd d17f b3bd
00000320: 8b61 73bd b260 28bd 7d53 77be 1532 163e
00000330: 0999 b2be ff60 213e 07e4 11be 263d 46be
00000340: b5f6 953e 626c a9bd 2daa 4bbd 8b70 2cbd
00000350: 97a0 123d 7349 aa3e 3e9d 8dbd 8f55 4c3d
00000360: eadb 5d3e 1c3d 873d e575 943d 6db6 15be
00000370: f40b 293e 10ed 43bd 906f 2e3d 6240 9bbd
00000380: 8d96 34bd 83bc 5e3d 508b e6bd aa5f 74be
00000390: af3c 93bc 0f3f 3bbd 00bc d3bd 3ddc c8bd
000003a0: f700 593e e49c cdbc 9ad0 4e3e dd34 09be
000003b0: 042d edbc 8da3 06be a9d6 debc 1afc 6dbd
000003c0: 5c8b bb3d ac4f 02be e1a6 dd3d 40f6 a9bd
000003d0: dc34 77bc 9f95 2e3e eeda 113e e093 af3c
000003e0: d543 d5bd 61a2 9bbd 4d72 37bd 2f3a 75bc
000003f0: 7a58 ccbc 6f83 433e 85d5 3bbd 1cfb 583c
0.045903783 -0.07655701 0.11702536 0.055403024 -0.16915564 -0.15157486 0.08597666 0.117036425
0.10324441 -0.22276959 0.17805883 -0.08294319 -0.07210272 0.050544437 0.303233 0.16769479
-0.056282118 0.094648115 -0.12214039 0.11945527 -0.25225875 0.1329209 0.2051044 -0.16866599
0.09303077 -0.17011702 -0.12071521 0.24060641 0.3467194 0.10838445 0.12508306 -0.12954248
0.02572309 0.06571286 0.10936609 0.1668663 0.11593038 0.14496236 0.00013845839 -0.0713638
-0.19506764 0.051225286 0.13422288 0.20912017 0.20278667 0.40697405 0.06148442 0.26380947
0.25360653 0.15033989 0.17964868 0.09788654 0.17438117 0.24895696 0.14627364 -0.3758026
-0.0007389078 0.11421277 0.03913454 0.13017295 0.09006185 -0.10342971 -0.38173673 0.16985585
0.13295679 0.111170694 0.041523162 -0.03834994 -0.35125288 -0.41730723 0.07118834 -0.05395879
0.11062059 -0.18435545 -0.0011967482 -0.20694803 0.035117775 0.00074981235 -0.05995523 -0.018608753
-0.19475746 0.12577316 -0.15826446 0.086418636 0.12958291 0.24830346 -0.019214833 0.29907787
0.18004633 0.008908367 0.19958551 0.10866952 0.028848479 -0.35249305 0.14970763 0.0025161789
0.06749971 -0.1387542 0.086686924 0.14551373 0.10419217 0.032407526 -0.12232908 -0.15532905
0.12773432 0.036014255 0.11183757 -0.014311595 0.06130278 0.10822155 0.120487094 -0.0955269
-0.1688722 0.26640967 -0.21011426 0.042646624 0.14546844 -0.30274162 0.341859 -0.14817967
0.08151462 0.087538265 0.07212137 0.15553783 -0.10215225 0.13565463 0.13224222 0.09199903
-0.022896787 0.10244948 0.06662375 -0.039881613 -0.014371186 0.075861834 -0.1341267 -0.07282242
-0.015839761 0.050058123 0.24009842 -0.15111414 -0.027152475 0.020042 0.025050957 0.29272312
0.05224742 -0.08090752 -0.14848399 0.06503982 -0.40708128 0.081577376 0.07880645 -0.08656778
0.27028868 -0.3545157 -0.12792954 0.26201728 -0.24646088 -0.18912226 0.11006714 -0.110690996
0.10581516 0.045537286 0.054359704 -0.07640696 0.041298855 0.01858954 0.0012660793 0.027346736
-0.015311491 0.054729752 0.015398266 -0.14119159 0.29787895 -0.37158442 0.09873553 0.3694421
0.019206146 0.11528861 -0.028491555 -0.030506264 -0.27776632 0.11586552 -0.112347804 -0.19784914
-0.028592326 -0.24809347 -0.035293255 0.0757269 -0.14672023 0.017969666 -0.50869155 -0.041440856
-0.08749186 -0.012173278 -0.3826012 -0.025879469 -0.08848356 -0.19119424 -0.03911684 -0.087646134
-0.059419196 -0.04110784 -0.24152942 0.14667542 -0.34882382 0.15759657 -0.14247142 -0.19359264
0.29289785 -0.082726255 -0.04972284 -0.042099517 0.03579768 0.33259162 -0.06914757 0.049886283
0.21665922 0.066034526 0.07249049 -0.14620371 0.16508466 -0.047833502 0.042586863 -0.075806394
-0.04408889 0.054378998 -0.112570405 -0.23864618 -0.017973272 -0.045714434 -0.103385925 -0.09807632
0.21191774 -0.025099225 0.20196763 -0.13399072 -0.02895213 -0.13148327 -0.027201967 -0.05810175
0.0915744 -0.12725705 0.10822845 -0.082989216 -0.015088286 0.17049263 0.14243671 0.021432817
-0.104133286 -0.07599331 -0.04478674 -0.014967485 -0.024944533 0.19093107 -0.045857925 0.013243463

model.2.bias f4 [64]
00000000: f1aa 283f ab8f 6f3e d837 0a3d 246a 8d3d
00000010: c78c 79be 8ace 1fbe 1ca0 e4be 7d05 7d3d
00000020: d7f1 213e 4532 d8bd eabb 04be 615d e83c
00000030: f425 01bf 6dd5 d2bd 4b19 2c3f 1124 603e
00000040: 1809 d93e 257e 0abe 0c98 90bd 103d b43c
00000050: 5acb 53be f702 923d 7535 1ebe 18d9 44be
00000060: 66cf b8bd 0345 d0bd f4f0 b33d 6186 d5bd
00000070: 42d3 903e 3c47 1f3f dfe2 84bc 0969 893d
00000080: 68e4 60bc ff36 bb3d 417f dfbc 3b82 e23c
00000090: 91c8 1a3d cd84 05be 7986 b2be 211b 373e
000000a0: e377 253c 7a71 163e 9c7a 59bc a9c5 eabc
000000b0: 3776 bb3b edad 0abe 9f76 a8be 299a 893e
000000c0: b24e 1ebe 0002 ddbd 1644 6f3e 62f6 46be
000000d0: 2fbc 353e 98ca aabd 812b 44be d579 70bb
000000e0: 8551 8abe 6d3f f7bd eb90 4b3d bd72 e8bc
000000f0: aedc 15be 3f02 da3b 7fb0 1b3c 76bc 30bd
0.65885836 0.23394649 0.033744663 0.0690501 -0.24370109 -0.15606132 -0.44653404 0.061772812
0.15814911 -0.10556463 -0.12962309 0.028364839 -0.50448537 -0.10294614 0.67226094 0.21888758
0.4238975 -0.13524683 -0.07060251 0.022001773 -0.20683041 0.07129472 -0.1545008 -0.1922344
-0.09023933 -0.10169413 0.087861925 -0.10426021 0.28286177 0.6221807 -0.016221462 0.06709487
-0.013726331 0.09141349 -0.02728236 0.02764999 0.03778893 -0.1303894 -0.3486822 0.17881443
0.010099384 0.14691725 -0.013273861 -0.028658705 0.0057208794 -0.1354291 -0.32903 0.26875427
-0.15459707 -0.10791397 0.23365816 -0.19429925 0.17747568 -0.08339423 -0.1915722 -0.0036693711
-0.2701532 -0.120726444 0.04969875 -0.028375024 -0.14634964 0.0066531 0.009502529 -0.04314848

model.4.weight f4 [4, 64]
00000000: 24cc 3b3e 0f33 253e 7ced e9bd 6396 a23d
00000010: 1f19 d63d 9aae 4fbb a726 03be 2b98 033e
00000020: afc7 7b3c cfbd 87be d58e 803e 2189 403e
00000030: 5d31 2cbe 6e55 83bd 26ec 4e3e 162a 243d
00000040: d6ca e83d cde8 86be cc68 dbbd 0e6d 593d
00000050: 8994 bf3d 9b1d f5be 957c 9bbe d341 bfbd
00000060: 5521 383e a611 aabd da59 fb3d f03b c23c
00000070: 7797 533d 81c8 433e 164e 70bd a1a5 f73d
00000080: 4778 b93c 1347 2dbd 78d5 d33d 65b3 0a3e
00000090: 3568 e53d fb61 9d3d 2ecf 84bd 399b 453d
000000a0: 04e3 803e 4104 713d 6144 7bba 2a0e d1bd
000000b0: 1a4f 9a3d eec0 1f3c fb2e 1ebe 77ef 333e
000000c0: 337c 2c3e ea7e 5e3d df63 933e 3c87 653d
000000d0: 3a8a d03c 2dfb 693e 03ea 173c 477a eb3d
000000e0: 30ba c53b 7f3a 9fbe 709f e63d a23b 24be
000000f0: a66c 61be 5cad 5dbe 9e69 16be 10ed 5d3c
00000100: ef56 3a3e 981c 983d e312 413e 7fc3 be3d
00000110: 2fb3 a83d 1ffa f53d 13c0 27be 414f 053e
00000120: 8a57 a03d a7a7 903d 6ec2 bb3e 7a1e 8d3d
00000130: 0f99 05be c94a ac3c a0f7 333e 2c46 a63d
00000140: ad63 b43d 4818 7b3e 3ea1 8bbe 3ad2 a93d
00000150: 5b54 353e 32bb 14be 2125 3cbe 58c0 a2bc
00000160: 40cb c0be 26a9 aabd 8850 553e b049 743e
00000170: a075 d83d adcd 1d3e cc3c 4f3e 68b2 c23e
00000180: c242 4cbe 9063 e1bc 57eb f63d db5e 3b3c
00000190: 020a 003e dd1f bdba 68ca 15bd 6fcf 7c3c
000001a0: bf42 42be 0bab 86be dcc0 613d fd2c 733e
000001b0: d4c6 503e 24af f23c b7e2 a9bd c25c 353e
000001c0: 5c3d 3e3e 14bb aebe a952 4a3e d0b1 7bbe
000001d0: 12c1 293d 2db7 fdbd 36be ac3d a396 423e
000001e0: 2c2c 843e 41a0 a53c 4789 be3d fb69 e73c
000001f0: 9674 59bc 33fc 11be 5024 b2bd 9ac5 bf3d
00000200: 939a 283e e9e8 c43d 3073 85be 4054 ff3d
00000210: 7ba4 6bbd f2f0 88be d141 b3be 0a83 2fbd
00000220: 3ece 033e 65e9 523e 0443 983e 4d51 04bd
00000230: 0449 dbbb d731 a43e 8a1d 353e 398c 383e
00000240: 8909 1bbc 2e62 dfbe 37be 7ebe 037d ab3e
00000250: 081e 493e 0794 433e ffdb f1bd cb17 4c3e
00000260: 7891 82be 02fc 003d d514 733d 89cc 783e
00000270: 78d2 573e 6a5d 163e cde6 e93d a336 90be
00000280: c162 763e 33f2 713e addc 493d e5a4 5a3c
00000290: 8162 28bd e991 f3bc 63bc 9abd 5720 e7be
000002a0: 123d 1c3e 7b4c 3ebe 040b c63d a163 c6bd
000002b0: b459 aa3d f837 7f3e 87a0 623d 3adc 04bd
000002c0: 3200 f9bd 16da 623e fc08 233e c3e8 e43d
000002d0: d91d 8abd 3f3a 17be f966 e1be aa4a 2c3e
000002e0: d01a 4dbe 1411 eebd d507 b63c de37 82be
000002f0: bc77 44be e604 b53c e933 ec3d 96ba 103e
00000300: ba28 393e 566a 7d3c b2d9 5d3d f8d9 523e
00000310: 2508 21be 996d a83d 70af 14be 9fde 1fbb
00000320: 90e5 0f3e 3c68 0dbe 0228 843e 128b 533b
00000330: 64b7 77be 0a32 9abd b5a0 433e e34f 813d
00000340: a710 6a3e c2c7 8bbe 6be5 383e 5336 3c3e
00000350: 5831 0fbe 9cc0 183d aeff 0cbe c3ae 3ebe
00000360: fd6c 19be e4dc 88be d168 613e 680c 9e3d
00000370: 4092 c4bc 82fc f43d bc11 603e 3126 af3e
00000380: 76c5 ffbd c889 973e 5632 403e 3e0c 223e
00000390: 3503 9c3e e8c1 b43d 53f9 2b3d d70d 3fbe
000003a0: b329 ad3e 4b66 493e fd81 43be 32a1 2d3d
000003b0: 60da ae3c 4a66 c0bd 0531 8c3d 062a 643d
000003c0: 1775 12be 01c4 fbbd d7d3 313d 9cff 6ebd
000003d0: a1c6 903d fb21 febd 8f2c adbd 3962 1ebd
000003e0: 81c0 e33d 198f 26be bd8c 9a3d 6072 473d
000003f0: 60d2 b9be da78 1e3e 377d 993e fc52 0f3c
0.18339592 0.16132759 -0.1142225 0.0793884 0.1045401 -0.0031689764 -0.12807713 0.12851016
0.0153674325 -0.26512 0.25108972 0.1880231 -0.16815706 -0.06412779 0.20207271 0.0400792
0.11366813 -0.26349488 -0.10713348 0.05308252 0.09354503 -0.4787415 -0.30368486 -0.09338727
0.17981465 -0.083041474 0.12272997 0.023710221 0.05165812 0.19119455 -0.05866822 0.12092138
0.02264036 -0.04230411 0.1034345 0.13544996 0.112015165 0.07684704 -0.06484829 0.048243735
0.251732 0.058841947 -0.00095850794 -0.1020778 0.07534619 0.009750588 -0.15447609 0.17571817
0.16844253 0.054320253 0.28787133 0.056037173 0.025456537 0.22849722 0.009272101 0.11497932
0.006034158 -0.31099316 0.11260879 -0.16038373 -0.22014102 -0.21648163 -0.14688727 0.01354529
0.18197225 0.07427329 0.18854861 0.09314632 0.082373016 0.120105974 -0.16381864 0.13018514
0.07829197 0.07063227 0.36671776 0.068905786 -0.13046668 0.021031754 0.1757493 0.08118853
0.08808074 0.24520981 -0.27271456 0.08292051 0.1770796 -0.14524534 -0.18373539 -0.019867107
-0.37655067 -0.08333044 0.20831501 0.23856235 0.1056931 0.1541049 0.20238036 0.38026738
-0.19947341 -0.027513295 0.12056606 0.0114361895 0.12503818 -0.0014429052 -0.036569983 0.015430315
-0.18970774 -0.2630237 0.055115566 0.2374763 0.20388347 0.02962453 -0.082951955 0.17711166
0.18578094 -0.34127104 0.19758095 -0.24579549 0.04144389 -0.12388454 0.08434717 0.19002776
0.2581495 0.020218017 0.09303527 0.028248778 -0.013272425 -0.14256363 -0.08698332 0.093638614
0.16465215 0.096147366 -0.26064444 0.12467241 -0.057529908 -0.26746327 -0.3501115 -0.042849578
0.12871644 0.20596845 0.2973863 -0.032304097 -0.0066920538 0.32069275 0.1768705 0.1802224
-0.009462723 -0.43629593 -0.24877249 0.33493814 0.19640362 0.19099437 -0.11809539 0.19930951
-0.2550161 0.031490333 0.05934604 0.24296774 0.21076381 0.14684072 0.11420975 -0.28166685
0.24061109 0.23627548 0.04928272 0.013344978 -0.041109566 -0.029732661 -0.07555463 -0.4514186
0.15257671 -0.18583862 0.0967007 -0.096869715 0.08317891 0.24923694 0.055328872 -0.032436587
-0.121582404 0.22153506 0.15921396 0.11177208 -0.06743974 -0.14768313 -0.44023874 0.16825357
-0.2002976 -0.11624351 0.022220531 -0.25433248 -0.191863 0.022097062 0.115333386 0.14133677
0.18081942 0.015467247 0.05416269 0.20590961 -0.15725763 0.08224029 -0.14520049 -0.0024394167
0.14052415 -0.13809294 0.25811774 0.0032278937 -0.24191052 -0.075290754 0.19104274 0.06314065
0.22857915 -0.2730084 0.18056266 0.18380098 -0.13983667 0.03729306 -0.13769409 -0.18621354
-0.14982982 -0.26731026 0.2201264 0.0771721 -0.023995519 0.119622245 0.21881765 0.34208825
-0.124888346 0.29597306 0.18769202 0.15824983 0.30471197 0.08826047 0.04198582 -0.18657623
0.33820876 0.19667928 -0.19092555 0.042390056 0.021344364 -0.0939451 0.06845287 0.05570414
-0.14302479 -0.12293244 0.043414917 -0.058349237 0.070691355 -0.12408825 -0.084557645 -0.03866789
0.111207016 -0.16265525 0.07546375 0.04869306 -0.36293316 0.15475789 0.29978344 0.008747812

model.4.bias f4 [4]
00000000: 4d13 cb3e 188f dd3e 7f32 033f 7eb0 e33e
0.39663163 0.43273234 0.51248926 0.4447059
